weights.safetensors (safetensors, 48998 bytes, 72 tensors)

blocks.layers.0.ffwd.net.layers.0.bias f4 [64]
0	0x3e37ee29	0.17961945
1	0x3e08e56a	0.13368765
2	0x3c918f39	0.01776849
3	0xbd5b78f5	-0.05358215
4	0x3e5f2923	0.21793036
5	0xbe0873e3	-0.13325457
6	0x3e5ce419	0.21571387
7	0xbe6d678c	-0.23184031
8	0x3e2794b9	0.16365327
9	0x3da9aa77	0.08284467
10	0x3cf8e468	0.03038235
11	0x3e46717d	0.1937923
12	0xbd3d7661	-0.046255473
13	0xbe39c17b	-0.18140213
14	0x3c5be830	0.013422057
15	0xbd9f8261	-0.0778854
16	0x3da52138	0.080629766
17	0x3dc07865	0.093979634
18	0xbe417a32	-0.1889427
19	0x3cda102b	0.026619038
20	0x3e56d422	0.2097936
21	0xbd85cef9	-0.065336175
22	0xbdc2591f	-0.09489655
23	0x3e5979f8	0.21237934
24	0x3cf39bbd	0.029737348
25	0xbe12d608	-0.14339459
26	0xbe0a5602	-0.13509372
27	0x3df694ba	0.12040086
28	0xbd028d4b	-0.03187303
29	0xbdd67c0b	-0.10472878
30	0xbcb46022	-0.022018496
31	0x3e1cc0d5	0.15307935
32	0xbe283479	-0.16426267
33	0xbe1fa23e	-0.15589234
34	0x3dcbda17	0.09953707
35	0x3e7116f0	0.23543906
36	0x3e0dc6ff	0.13845442
37	0x3cc1c1cb	0.023651978
38	0xbe23875c	-0.15969604
39	0x3d5f3db0	0.05450219
40	0xbe57b807	-0.21066295
41	0xbce979f1	-0.028500529
42	0x3e3552bf	0.17707346
43	0x3dd4779b	0.103743754
44	0xbd90daba	-0.07072969
45	0x3e0d2142	0.13782218
46	0x3cef52e7	0.029214336
47	0xbe5cfedb	-0.21581595
48	0xbe10f401	-0.1415558
49	0x3e620490	0.22072053
50	0xbe46ad19	-0.19401969
51	0x3e219489	0.15779318
52	0x3d2c92dc	0.042132244
53	0xbe56648d	-0.20936795
54	0xbe496286	-0.1966649
55	0xbe1b8110	-0.15185952
56	0xbd9d1a03	-0.07670977
57	0x3cd77592	0.02630118
58	0x3cf674b9	0.030084955
59	0xbdee725e	-0.116429076
60	0x3e3b4205	0.18286903
61	0xbe1307aa	-0.14358392
62	0x3e168db6	0.14702496
63	0xbda1819b	-0.078860484

blocks.layers.0.ffwd.net.layers.0.weight f4 [64, 16]
0	0x3d9539f9	0.07286448
1	0xbc2fcc8e	-0.010729922
2	0x3cc11dbd	0.02357375
3	0x3d463b7e	0.04839658
4	0xbd67917a	-0.05653522
5	0x3cc57ff4	0.024108864
6	0xbe9feeb9	-0.31236818
7	0xbdc34fd2	-0.09536709
8	0xbe3a4141	-0.18188955
9	0xbe706853	-0.23477297
10	0x3c68b853	0.014204103
11	0x3e5b5d86	0.21422395
12	0x3cc62a87	0.0241902
13	0x3e5e745d	0.21724077
14	0xbe9d89ee	-0.30769295
15	0xbe06837c	-0.13136095
16	0xbe3c905e	-0.18414447
17	0x3dc6338b	0.096778
18	0x3e3d5942	0.1849108
19	0xbde31b8b	-0.11089238
20	0x3dee47c8	0.11634785
21	0x3e83c176	0.25733536
22	0xbda8c1a6	-0.082400605
23	0xbe27ecc5	-0.16398914
24	0xbd99d59e	-0.07511447
25	0x3d97dfc5	0.074157275
26	0x3c88cec2	0.016700152
27	0xbda55759	-0.08073301
28	0x3e0eae9f	0.139338
29	0x3e1254b3	0.14290123
30	0x3e84d1b7	0.2594125
31	0x3daf0371	0.08545578
32	0xbe2fa678	-0.17153347
33	0x3e43b089	0.19110312
34	0xbde7dee9	-0.113218136
35	0x3e964ba5	0.29354587
36	0xbabc5ab5	-0.0014370295
37	0xbdb15c24	-0.086601526
38	0x3e1bfde0	0.15233564
39	0xbe86e9be	-0.26350206
40	0xbe2da5a7	-0.16957723
41	0xbe2858ab	-0.16440074
42	0x3d2422fd	0.04007243
43	0x3dc7c543	0.097544216
44	0xbe0806c2	-0.13283828
45	0xbe516800	-0.20449829
46	0xbe29343d	-0.16523834
47	0x3e18a216	0.14905581
48	0x3e248523	0.16066413
49	0xbdf4bdae	-0.11950241
50	0xbe4889a3	-0.19583754
51	0xbe9372c1	-0.28798488
52	0x3e27a17b	0.16370194
53	0x3ccf59a6	0.025311302
54	0xbe6521c7	-0.22376166
55	0x3e2addd3	0.16686182
56	0xbd86dc8c	-0.06585035
57	0xbd3551b3	-0.044267368
58	0x3e297c5a	0.16551343
59	0x3c728830	0.014802977
60	0x3e0f8dc6	0.14018926
61	0x3e43e039	0.19128503
62	0x3e41a5a4	0.18910843
63	0xbe9e4365	-0.30910793
64	0x3de7d957	0.11320751
65	0x3e450c9c	0.19243091
66	0x3d001003	0.03126527
67	0xbcec2844	-0.028827794
68	0x3cc8171c	0.024425082
69	0xbbddf5e9	-0.0067736995
70	0xbe6e48c9	-0.23269953
71	0xbc6c150e	-0.014409317
72	0xbdd12b7a	-0.102133706
73	0xbe96f51d	-0.29483882
74	0x3d9cc8ef	0.076555125
75	0x3dee03bf	0.11621808
76	0x3ea379dc	0.3192891
77	0xbd9d94fe	-0.07694434
78	0xbdc0565b	-0.09391471
79	0x3e02846e	0.1274583
80	0xbe49435d	-0.19654603
81	0x3dd49304	0.103796035
82	0xbe5495b9	-0.2076024
83	0x3af7d4e6	0.0018908053
84	0x3e0b3612	0.13594845
85	0xbe745d30	-0.23863673
86	0x3e8b7479	0.272373
87	0xbd84c65e	-0.06483148
88	0x3e04170a	0.12899414
89	0x3dd7581a	0.10514851
90	0x3cea6692	0.028613362
91	0xbd87a474	-0.06623164
92	0xbe5ecc89	-0.21757711
93	0xbe241db9	-0.16026963
94	0xbd1fc704	-0.039008155
95	0x3df3ac75	0.11898128
96	0x3c7c9dfc	0.015418526
97	0x3e9a5fda	0.30151254
98	0x3e43ccfe	0.19121167
99	0xbe22a7b4	-0.15884286
100	0x3d61dea5	0.05514397
101	0x3dac79f4	0.08421698
102	0x3e271d35	0.16319735
103	0xbe3ab1bf	-0.18231867
104	0xbe614ae5	-0.22001226
105	0xbc115604	-0.008870605
106	0xbe5a241c	-0.21302837
107	0x3e5aa1ff	0.21350859
108	0xbd493921	-0.049126748
109	0xbe7be331	-0.24598385
110	0xbd38df3b	-0.045134764
111	0x3e554244	0.2082606
112	0x3cc425b2	0.023943756
113	0x3d079784	0.03310348
114	0xbe3a8ade	-0.18217036
115	0xbd170c0a	-0.036876716
116	0xbe31b8d5	-0.17355664
117	0x3e63bf4b	0.22240941
118	0xba109168	-0.0005514831
119	0xbe4ed710	-0.20199227
120	0xbd201be5	-0.039089102
121	0xbe556c29	-0.20842041
122	0xbe44d0a5	-0.19220217
123	0xbd2d52c2	-0.042315252
124	0x3dcff21c	0.101536006
125	0xbe5f5743	-0.21810631
126	0x3ea189aa	0.31550342
127	0x3d15b441	0.036548857
128	0x3db97e9e	0.090573534
129	0x3cfc5b15	0.03080515
130	0xbdaae50e	-0.0834447
131	0xbe2ec5bc	-0.17067617
132	0x3df13c71	0.117791064
133	0xbddb48cf	-0.107072465
134	0x3ea56e79	0.32310846
135	0xbd94b24a	-0.072605684
136	0x3c81099f	0.015751658
137	0x3e382b4f	0.17985271
138	0xbe185220	-0.14875078
139	0xbd081a71	-0.03322834
140	0xbd8ceb2c	-0.06880793
141	0x3e42b497	0.19014202
142	0x3cdc1978	0.026867613
143	0xbe8de383	-0.2771264
144	0xbd8e0e2a	-0.06936295
145	0x3e7f9721	0.24959995
146	0x3e8ed221	0.2789469
147	0xbdbdb54c	-0.09263095
148	0xbd8f8c57	-0.070091896
149	0x3e0f155b	0.1397299
150	0x3e2491d9	0.16071261
151	0xbe04700b	-0.12933366
152	0x3e9a7504	0.301674
153	0xbd322d66	-0.043500327
154	0x3e6b2d71	0.22966553
155	0x3bab8795	0.0052346685
156	0xbe48dd90	-0.1961577
157	0x3e150a34	0.14554673
158	0xbe58123b	-0.21100704
159	0x3e062631	0.13100506
160	0x3dfd6a76	0.123738214
161	0x3e8e0d81	0.27744678
162	0xbdd27f34	-0.10278168
163	0x3d806d73	0.06270876
164	0xbda05040	-0.078278065
165	0x3c4219e1	0.01184699
166	0xbe1b317a	-0.15155593
167	0xbdad5ff0	-0.08465564
168	0x3e3a2932	0.18179777
169	0x3b5eeb24	0.0034014666
170	0x3da9108c	0.08255109
171	0xbdb8a249	-0.090153284
172	0xbdf7ab93	-0.12093272
173	0x3da61eac	0.08111319
174	0xbe2883b5	-0.16456492
175	0x3e19cd14	0.15019637
176	0xbb8967e1	-0.0041932915
177	0x3dffe2dc	0.12494442
178	0xbe1e6651	-0.15468718
179	0x3e87280c	0.2639774
180	0xbdedc82b	-0.11610445
181	0x3d1c0a17	0.03809556
182	0x3e9c508f	0.3053021
183	0xbe0dc6f1	-0.13845421
184	0xbe412fa7	-0.18865834
185	0x3c37b242	0.011211934
186	0x3c82c2ec	0.015962087
187	0xbe908aac	-0.28230798
188	0xbe69d9c0	-0.22836971
189	0xbe1b9c7a	-0.1519641
190	0xbe4b087a	-0.19827452
191	0x3df6754d	0.12034092
192	0x3db24484	0.087044746
193	0x3e26698c	0.162512
194	0xbd76454f	-0.06012469
195	0x3dd0ba7a	0.101918176
196	0x3e5def55	0.21673329
197	0xbdd97e0d	-0.106197454
198	0xbe6c713e	-0.23090073
199	0xbdf9cb10	-0.12196934
200	0x3d90747c	0.07053468
201	0xbea54a8b	-0.32283434
202	0xbea4473a	-0.32085592
203	0xbe0416ee	-0.12899372
204	0xbe4c8d0c	-0.1997568
205	0x3da6f6a6	0.08152513
206	0x3e17a9f9	0.14810933
207	0xbe9a1577	-0.300945
208	0xbd57e647	-0.052709844
209	0xbd57a14e	-0.052644067
210	0xbe26fa31	-0.16306378
211	0x3d5f1473	0.05446286
212	0xbd32977b	-0.043601494
213	0x3beaff4a	0.007171546
214	0x3e48f62f	0.19625162
215	0x3d663e49	0.056211744
216	0xbe85f1cd	-0.26161042
217	0x3e008e59	0.12554301
218	0x3e0a9d39	0.13536538
219	0xbe4bab5c	-0.19889587
220	0xbe133c65	-0.14378507
221	0xbe35378c	-0.1769697
222	0x3e51edc6	0.2050086
223	0xbe7a9bb9	-0.24473466
224	0xbe6ca444	-0.23109537
225	0x3c816d51	0.015799196
226	0xbcc11b0c	-0.023572467
227	0x3d6a2d73	0.05717225
228	0x3e441679	0.19149198
229	0xbe5693cc	-0.20954818
230	0xbd519f42	-0.05117727
231	0xbe2375a7	-0.1596285
232	0x3e2ea01d	0.17053266
233	0xbdbb3bb1	-0.091422446
234	0xbe341f8b	-0.17590158
235	0xbc050d90	-0.008120909
236	0x3e4b906e	0.19879314
237	0xbe3285e2	-0.17433885
238	0xbe434e99	-0.19072951
239	0x3ead6e42	0.33873183
240	0xbe02983a	-0.12753382
241	0x3e03faa2	0.12888578
242	0xbde0cd7a	-0.109766915
243	0xbddc8436	-0.10767405
244	0xbe562ee3	-0.20916323
245	0x3e22b19b	0.15888064
246	0x3e351f3d	0.17687698
247	0x3dd23718	0.102644145
248	0x3c25813f	0.010101615
249	0x3e393feb	0.18090789
250	0xbdcc381a	-0.09971638
251	0x3e2626a9	0.16225685
252	0xbe87260d	-0.26396218
253	0x3db8c7b1	0.09022463
254	0x3dc7c4b7	0.09754317
255	0x3d96d08f	0.07363998

blocks.layers.0.ffwd.net.layers.2.bias f4 [16]
0	0xbae79f82	-0.0017671438
1	0x3d818b24	0.06325367
2	0xbd56d3a3	-0.052447926
3	0xbe09ec53	-0.13469057
4	0xbdb04265	-0.08606414
5	0x3b28e78b	0.0025772776
6	0xbdb5a971	-0.08870209
7	0xbd4a5e70	-0.04940647
8	0x3dcb21c0	0.09918547
9	0xbd57ae70	-0.05265659
10	0x3deea622	0.11652781
11	0xbe03062f	-0.12795328
12	0x3d29a230	0.04141444
13	0x3d016a6e	0.03159564
14	0xbd340e5a	-0.043959
15	0x3d8e0068	0.06933671

blocks.layers.0.ffwd.net.layers.2.weight f4 [16, 64]
0	0x393979e0	0.00017688377
1	0x3e62acfc	0.22136301
2	0xbdbe17da	-0.09281893
3	0x3d4a7d7a	0.04943607
4	0x3dc70246	0.097172305
5	0xbe24ba6e	-0.16086742
6	0xbd5dacfd	-0.054120053
7	0x3cfd7af6	0.030942421
8	0xbe0a180e	-0.13485739
9	0x3dd2b436	0.10288279
10	0x3df6b25d	0.12045739
11	0xbccc7397	-0.024957461
12	0x3e3892c8	0.18024743
13	0x3ca17111	0.019707235
14	0x3cc6750c	0.024225734
15	0x3d05f27f	0.032701965
16	0x3c3bcb75	0.011462082
17	0xbcfbab4d	-0.030721331
18	0x3daafc36	0.08348887
19	0x3dfd930c	0.123815626
20	0x3df03e6f	0.11730658
21	0x3e359468	0.17732394
22	0xbb61230c	-0.0034353165
23	0xbdcc5ce2	-0.099786535
24	0xbb27bd92	-0.002559517
25	0xbe21297f	-0.15738486
26	0xbd5d2a08	-0.053995162
27	0x3be51c01	0.0069918637
28	0xbc8ae771	-0.016956063
29	0xbd47fcb3	-0.048824977
30	0xbd9d007e	-0.076661095
31	0xbe258c0a	-0.16166702
32	0x3d9ecb79	0.07753653
33	0xbe1d4ef1	-0.15362145
34	0xbdfb2edc	-0.12264797
35	0x3dc1d3b0	0.09464204
36	0xbd77c287	-0.06048825
37	0x3c0647e6	0.008195853
38	0x3d861420	0.06546807
39	0xbdb080d1	-0.0861832
40	0x3e2270b5	0.15863307
41	0x3d9f2fab	0.07772764
42	0x3cf8e12b	0.030380806
43	0xbdbe4713	-0.092909
44	0xbd87fc8a	-0.06639965
45	0x3d848ceb	0.064721905
46	0x3ddf44fc	0.109018296
47	0xbdb7a8fc	-0.08967778
48	0x3d5022f1	0.050814573
49	0x3e058715	0.13039811
50	0x3cd25030	0.025673002
51	0x3ddd3220	0.10800576
52	0x3dda2701	0.10651971
53	0x3e008ff7	0.12554918
54	0x3dc51746	0.0962358
55	0x3e29562b	0.16536777
56	0xbd76aa17	-0.060220804
57	0x3ddb9773	0.10722246
58	0xbe07bc90	-0.13255525
59	0xbc7764ad	-0.015099687
60	0xbdb87c18	-0.09008044
61	0xbe0d9f12	-0.13830212
62	0x3cd7adbb	0.026327958
63	0x3e0437b6	0.12911877
64	0x3d88a56f	0.06672179
65	0x3dde8082	0.10864355
66	0x3cd6849d	0.026186282
67	0xbd82bdf0	-0.06383884
68	0x3dd83cee	0.105584964
69	0xbd87541e	-0.06607841
70	0x3e195c81	0.14976694
71	0xbca9e699	-0.02073984
72	0x3d62ab39	0.055339072
73	0xbd527866	-0.051384352
74	0x3dfd825c	0.1237838
75	0x3cfcd91c	0.030865245
76	0xbde15830	-0.110031486
77	0xbd36468e	-0.04450088
78	0xbb8699ed	-0.004107705
79	0x3cfaf569	0.030634599
80	0x3aade726	0.001326774
81	0xbdf035a9	-0.11728985
82	0x3e011143	0.12604241
83	0xbd9c9b25	-0.07646779
84	0x3d1df155	0.03856023
85	0x3cf397ee	0.029735532
86	0x3caa51df	0.020790992
87	0xbd1149fc	-0.035470948
88	0x3be6b979	0.007041153
89	0xbb0d4357	-0.002155503
90	0x3d201912	0.03908641
91	0xbda0983d	-0.07841537
92	0xbb23f76c	-0.00250193
93	0x3d1fe19b	0.039033514
94	0x3db852ce	0.09000169
95	0x3caf25b2	0.02138028
96	0x3ac83d5a	0.0015277073
97	0x3d3e7758	0.046500534
98	0xbc7782b6	-0.0151068475
99	0x3df39810	0.11894238
100	0xbdbfbf03	-0.093626045
101	0x3d242945	0.04007842
102	0x3d8cd7dd	0.0687711
103	0xbab61c7a	-0.0013893985
104	0xbd05f7c9	-0.03270701
105	0x3d9786c9	0.07398755
106	0xbda0ad7f	-0.07845592
107	0x3cd1a3ab	0.025590738
108	0x3db7ab6b	0.08968242
109	0xbdffcebf	-0.124906056
110	0x3cbbba7a	0.022916067
111	0x3d5d8804	0.054084793
112	0x3dd63ab8	0.104604185
113	0xbc6a2699	-0.014291429
114	0xbd0fe359	-0.035128925
115	0xbdc9deb2	-0.09856929
116	0xbd8f42bd	-0.06995151
117	0x3e1502f4	0.14551908
118	0x3e080c6f	0.13285993
119	0xbd180137	-0.037110534
120	0x3de24190	0.11047661
121	0xbde3bb88	-0.11119753
122	0x3c9b0aa2	0.018925969
123	0x3bd723b7	0.006565537
124	0x3cea8690	0.028628618
125	0x3d57335e	0.052539222
126	0x3d59e3a5	0.053195614
127	0x3d4f1bba	0.05056355
128	0x3e05221b	0.13001291
129	0x3d93230d	0.0718442
130	0x3be036ac	0.006842455
131	0x3d04f361	0.032458667
132	0x3da77381	0.081763275
133	0x3d29275a	0.041297294
134	0xbdae832c	-0.08521113
135	0x3cf507ed	0.029911006
136	0xbae9229f	-0.0017786807
137	0x3e35523f	0.17707156
138	0x3d69eb66	0.05710926
139	0x3de025b9	0.10944695
140	0xbdd84d2a	-0.10561593
141	0xbdd9ff59	-0.10644407
142	0x3d9b2d3f	0.075769894
143	0x3cd30eb2	0.025763843
144	0x3d33a6d6	0.04386028
145	0xbe284f92	-0.16436604
146	0xbc5e72d0	-0.013577178
147	0xbd54fe3e	-0.052000277
148	0xbdebec65	-0.11519698
149	0x3e4704d3	0.19435434
150	0xbd4df95a	-0.05028663
151	0xbd209079	-0.03920028
152	0x3de4f6e5	0.11179904
153	0x3dd2f142	0.102999225
154	0x3ca91ab0	0.020642608
155	0x3d2a75b1	0.041616146
156	0x3dd25e18	0.10271853
157	0x3dc23c70	0.09484184
158	0xbd2ac0a1	-0.04168761
159	0xbe113352	-0.14179733
160	0x3d19a4ec	0.037510797
161	0x3c5adc48	0.013358183
162	0xbe17ac8a	-0.14811912
163	0xbda72fbc	-0.081634015
164	0xbe1b1158	-0.15143335
165	0xbd663ff2	-0.056213327
166	0x3e2a351d	0.16621824
167	0x3d54dd5b	0.051968914
168	0x3ca1d9f0	0.019757241
169	0x3d5d7190	0.05406338
170	0xbaa3118c	-0.0012441142
171	0xbdf60a70	-0.120137095
172	0xbe390560	-0.18068457
173	0xbc0a2f89	-0.008434185
174	0x3c6ca53b	0.014443691
175	0x3d102f43	0.035201322
176	0xbc9f51c4	-0.019448169
177	0xbcb6a826	-0.022296976
178	0xbceab1b5	-0.02864919
179	0xbda3cdd9	-0.07998247
180	0xbdb4883e	-0.08815049
181	0x3e01df9e	0.1268296
182	0xbdba1521	-0.09086061
183	0xbdc2abbc	-0.09505412
184	0xbde9f2e7	-0.11423283
185	0x3cb9e13f	0.022690414
186	0xbd64ab16	-0.055827223
187	0xbd5df060	-0.054184318
188	0xbd90088e	-0.07032882
189	0xbd8ebefa	-0.0697002
190	0x3e04902b	0.1294562
191	0x3e34feac	0.17675275
192	0xbdff433e	-0.12463997
193	0xbd4e00be	-0.050293677
194	0x3dd9424f	0.106083505
195	0x3d73c522	0.059514172
196	0xbe0395ee	-0.12850162
197	0xbdc3d0bb	-0.095612966
198	0xbb2d8d68	-0.002648199
199	0xbce36a1a	-0.027760554
200	0xbd7d78c5	-0.061882753
201	0xbda45816	-0.080246136
202	0x3cdfb71c	0.027308993
203	0x3c820d49	0.015875475
204	0xbdce08fe	-0.10060309
205	0xbd569046	-0.052383684
206	0x3d602f2a	0.05473248
207	0xbd138c74	-0.03602262
208	0x3db62424	0.08893612
209	0x3d438a8e	0.047739558
210	0xbc93c3bc	-0.01803767
211	0xbdeec2dc	-0.1165826
212	0x3b960daa	0.0045792656
213	0xbd2159aa	-0.03939215
214	0x3d88e560	0.06684375
215	0xbc64682c	-0.013940852
216	0xbe12b520	-0.14326906
217	0xbe1f1fbf	-0.15539454
218	0x3d825f92	0.06365885
219	0x3d89d891	0.0673076
220	0xbdf11ef2	-0.117734805
221	0xbc7da655	-0.015481551
222	0x3df6b047	0.12045341
223	0x3be113cb	0.0068688146
224	0xbcb7b891	-0.022426875
225	0xbdab0351	-0.08350242
226	0x3c9bc64f	0.01901546
227	0x3c9b7d3e	0.018980619
228	0x3e0282c8	0.12745202
229	0x3d008528	0.031376988
230	0x3c176605	0.009240632
231	0xbca4048b	-0.020021698
232	0x3d617056	0.055038773
233	0xbda25b30	-0.07927549
234	0xbe00b746	-0.12569913
235	0x3c10a1b3	0.008827615
236	0x3dfa1229	0.12210495
237	0xbdabd159	-0.08389539
238	0x3d434322	0.047671445
239	0x3cc296de	0.02375358
240	0xbde4fc88	-0.11180979
241	0xbc11fe72	-0.008910762
242	0x3dafed7c	0.085902184
243	0xbe0574ad	-0.1303279
244	0xbda2a86f	-0.079422824
245	0xbd316252	-0.043306656
246	0x3d866ab4	0.06563321
247	0x3c88a52b	0.01668032
248	0xbd60cbd4	-0.054881886
249	0xbe3adaa0	-0.18247461
250	0x3d86ee7a	0.065884545
251	0x3ca0bfc8	0.019622698
252	0xbdba3027	-0.090912156
253	0x3c381163	0.011234614
254	0xbe2c70f1	-0.16839959
255	0xbd33d42c	-0.043903515

blocks.layers.0.ln1.bias f4 [16]
0	0xbd202223	-0.039095055
1	0x3bc39be8	0.005969513
2	0x3c8f24af	0.017473547
3	0x3d2cf628	0.04222694
4	0x3c90ea12	0.017689738
5	0x3d37ae63	0.044844043
6	0xbce411c9	-0.027840512
7	0x3d533b0b	0.05156998
8	0xbcb6d354	-0.022317566
9	0xbcd9c2b6	-0.026582103
10	0xbc95faa2	-0.018307988
11	0x3d2e1148	0.04249695
12	0xbd505366	-0.050860785
13	0xbc48482c	-0.012224238
14	0x3bb46869	0.0055056107
15	0xbd1fe0f8	-0.039032906

blocks.layers.0.ln1.weight f4 [16]
0	0x3f6c1f74	0.92235494
1	0x3f7b4a77	0.981605
2	0x3f79fa64	0.9764769
3	0x3f886ef3	1.0658859
4	0x3f771e48	0.9653058
5	0x3f85f3ce	1.0465028
6	0x3f761c67	0.9613709
7	0x3f7e0673	0.9922859
8	0x3f85d974	1.0456986
9	0x3f8069f0	1.003233
10	0x3f8d7202	1.1050417
11	0x3f76741b	0.9627091
12	0x3f756203	0.9585268
13	0x3f6fd168	0.93678904
14	0x3f80840f	1.0040301
15	0x3f7fd99c	0.9994142

blocks.layers.0.ln2.bias f4 [16]
0	0xbd3925b5	-0.045201976
1	0x3d3f1510	0.046650946
2	0x3d3a06c6	0.045416616
3	0xbbcc1d19	-0.0062290546
4	0xbc2d3113	-0.010570782
5	0x3c23fb09	0.010008582
6	0xbc1f13a2	-0.009709271
7	0x3d2e15d3	0.042501282
8	0x3cfc6756	0.030810993
9	0xbbb1dbac	-0.0054277983
10	0x3c914380	0.017732382
11	0xbc9c9531	-0.019114109
12	0xbcc82e3b	-0.024436107
13	0x3d2dde20	0.042448163
14	0x3c6b52b8	0.014362983
15	0xbd84ea8c	-0.06490049

blocks.layers.0.ln2.weight f4 [16]
0	0x3f7c0efb	0.9846036
1	0x3f788b5b	0.9708764
2	0x3f7c082a	0.9844996
3	0x3f8d4101	1.1035463
4	0x3f726363	0.946829
5	0x3f80adf0	1.0053082
6	0x3f8c4bb4	1.0960603
7	0x3f69ca09	0.91323906
8	0x3f840b0b	1.031587
9	0x3f8c4e47	1.0961388
10	0x3f743eeb	0.95408505
11	0x3f86b0a3	1.0522655
12	0x3f8b5a3a	1.088691
13	0x3f8c0254	1.093821
14	0x3f87fa23	1.0623211
15	0x3f8a761e	1.0817297

blocks.layers.0.sa.heads.0.key.weight f4 [4, 16]
0	0xbe9b96d8	-0.30388522
1	0x3c559340	0.013035595
2	0x3bf84abe	0.0075772693
3	0x3e4ac8e2	0.19803193
4	0xbd6afc9c	-0.057369813
5	0xbe6c0a8a	-0.23050895
6	0x3dd357b2	0.10319461
7	0x39ebf3c4	0.00045004312
8	0xbe4f98dc	-0.20273155
9	0xbdd259f4	-0.102710634
10	0x3e8264d9	0.25467566
11	0x3c742c51	0.014903144
12	0x3d89569a	0.06705971
13	0x3dde47d2	0.108535424
14	0x3e854c73	0.2603489
15	0xbe9e2c03	-0.30892953
16	0x3c45341c	0.01203635
17	0xbe133204	-0.14374548
18	0x3e01e53f	0.12685107
19	0x3e56f1f0	0.2099073
20	0xbe3dea53	-0.18546419
21	0xbe1167aa	-0.14199701
22	0x3e2274be	0.15864846
23	0x3e38b216	0.18036684
24	0xbe96fbb8	-0.2948892
25	0x3c9177b5	0.017757276
26	0x3e979a0a	0.2960971
27	0xbe85663e	-0.26054567
28	0x3d192cec	0.037396356
29	0xbe920410	-0.28518724
30	0xbdecfaa4	-0.115712434
31	0xbe37b0ff	-0.17938612
32	0xbd259018	-0.04042062
33	0xbe593cf0	-0.21214652
34	0x3dd27112	0.10275473
35	0x3e81699a	0.2527588
36	0xbde2a77c	-0.11067101
37	0x3e0e9f85	0.1392804
38	0xbe4acf94	-0.19805747
39	0xbd8a7f3f	-0.067625515
40	0x3de8c04d	0.113648035
41	0x3e123195	0.14276727
42	0xbd3eac6b	-0.04655115
43	0xbe076fb4	-0.13226205
44	0x3dcf997b	0.10136696
45	0x3e2281eb	0.15869872
46	0xbd08704a	-0.033310212
47	0xbe4ee40f	-0.20204185
48	0x3e6fff97	0.23437344
49	0x3c884b3f	0.016637443
50	0x3e2e8dd9	0.17046298
51	0xbe0566a8	-0.13027442
52	0xbe27da7a	-0.16391936
53	0xbe3679f6	-0.17819962
54	0xbd9a54f0	-0.07535732
55	0xbe45c81c	-0.19314617
56	0x3e84d5a5	0.25944248
57	0x3e8116f9	0.2521284
58	0xbd250e25	-0.040296692
59	0x3db82b74	0.08992663
60	0x3e4c6418	0.19960058
61	0xbdf07cf9	-0.11742587
62	0xbca24637	-0.019808872
63	0x3d2c9236	0.042131625

blocks.layers.0.sa.heads.0.query.weight f4 [4, 16]
0	0xbdfff827	-0.12498503
1	0xbd519163	-0.051164042
2	0x3e0f6fa2	0.14007428
3	0x3d8098bf	0.06279134
4	0xbe6e29e5	-0.23258169
5	0x3e9cbf33	0.30614623
6	0xbea873fb	-0.32900986
7	0xbdd47039	-0.10372967
8	0x3dae1a76	0.08501141
9	0x3dbc3475	0.09189693
10	0xbea8d513	-0.32975063
11	0x3cd41c53	0.025892412
12	0xbcf9a65b	-0.030474832
13	0x3e863dac	0.26218927
14	0x3e8065f2	0.25077778
15	0xbd8a2191	-0.067446835
16	0x3e115e20	0.14196062
17	0xbddb8db4	-0.10720387
18	0x3deb7e9f	0.114987604
19	0x3deb6740	0.11494303
20	0x3e12d191	0.14337756
21	0x3d8f0b3a	0.06984563
22	0x3d071ac0	0.032984495
23	0x3e2c60bb	0.16833775
24	0x3c1053bb	0.008809025
25	0xbe49c6a5	-0.19704683
26	0xbe5b758e	-0.21431562
27	0xbe0b75b4	-0.13619119
28	0x3e031ef3	0.12804775
29	0x3e4ca72e	0.19985649
30	0x3e08c76d	0.13357325
31	0x3da2ea6b	0.07954868
32	0xbd8c1876	-0.06840603
33	0x3c85148f	0.016245155
34	0x3da5470e	0.08070193
35	0x3d9ac967	0.07557946
36	0x3dee184e	0.116257295
37	0xbe83133f	-0.2560062
38	0x3e6bd2ec	0.23029679
39	0xbddc3ff1	-0.10754383
40	0x3d459fc0	0.048248053
41	0x3d548319	0.051882837
42	0x3dce8b36	0.10085146
43	0xbe33f044	-0.17572123
44	0x3e0df2ac	0.13862103
45	0x3e253fc7	0.1613761
46	0xbe182111	-0.14856364
47	0x3e2aaaa6	0.1666666
48	0x3c95f8f2	0.018307183
49	0x3e6ccefc	0.23125833
50	0xbe8a9a7e	-0.27070993
51	0xbe26d01d	-0.16290326
52	0x3c93e6ce	0.018054392
53	0xbd65efdb	-0.056136947
54	0x3dc70bc8	0.09719044
55	0x3cb81cd8	0.022474691
56	0xbcb40afe	-0.021977898
57	0x3e35bca1	0.17747737
58	0x3e04ff0e	0.1298792
59	0x3e074718	0.13210714
60	0xbe5f266c	-0.21792
61	0xbe991dc3	-0.2990552
62	0xbe19ce16	-0.15020022
63	0xbe399c9e	-0.18126151

blocks.layers.0.sa.heads.0.value.weight f4 [4, 16]
0	0x3d1c88d8	0.038216442
1	0xbcb66712	-0.022265945
2	0x3d58e242	0.05295015
3	0x3d1c0160	0.03808725
4	0xbcf595b3	-0.029978609
5	0x3e1ca643	0.15297799
6	0xbda50e94	-0.08059421
7	0x3e1c2125	0.15247019
8	0x3d4c7e0f	0.049924906
9	0x3df317a3	0.11869743
10	0x3c651d6b	0.013984065
11	0xbd135bb4	-0.035976127
12	0x3d43d5bd	0.04781126
13	0x3e415c37	0.18882833
14	0x3c4491cb	0.01199765
15	0x3da284cc	0.07935485
16	0x3deb4a4f	0.114887826
17	0xbe06e359	-0.13172664
18	0xbd197e5a	-0.037474014
19	0x3d8b6bc5	0.06807665
20	0x3df657c9	0.120284624
21	0x3dd3498e	0.10316764
22	0x3dfee9a9	0.12446911
23	0x3e087668	0.13326418
24	0xbe70c993	-0.23514394
25	0xbd345d6a	-0.0440344
26	0xbd0fa54a	-0.03506974
27	0xbc3b2395	-0.011422058
28	0xbc533a34	-0.012892295
29	0xbe0e47bb	-0.1389455
30	0x3e110083	0.14160351
31	0xbd2f3684	-0.0427766
32	0x3e3a5732	0.18197325
33	0x3de776f8	0.11301988
34	0xbdf1a8c6	-0.11799769
35	0xbe572aaf	-0.21012376
36	0x3e1a3d1c	0.15062374
37	0xbde6b77d	-0.11265466
38	0xbd17707e	-0.036972515
39	0xbe215ba2	-0.15757611
40	0x3e06841e	0.13136336
41	0xbd886b46	-0.06661086
42	0x3cbed4d2	0.02329484
43	0x3e1b4cbd	0.15165992
44	0xbcf954ab	-0.03043588
45	0x3ce607d4	0.028079905
46	0xbcabefc6	-0.020988356
47	0xbde4a180	-0.11163616
48	0xbb8db497	-0.0043245065
49	0x3da6900c	0.081329435
50	0x3da05c40	0.07830095
51	0x3e6990c0	0.22809124
52	0xbe3e0348	-0.18555939
53	0xbe70dca4	-0.23521668
54	0x3c8c6de4	0.017142244
55	0x3e4de0aa	0.20105234
56	0x3df005de	0.11719869
57	0xbe4ec464	-0.20192105
58	0x3e127953	0.14304094
59	0xbd024e40	-0.031812906
60	0xbb0075a0	-0.001960136
61	0xbe25708b	-0.16156213
62	0x3e87f6f3	0.26555595
63	0xbd947cf2	-0.07250394

blocks.layers.0.sa.heads.1.key.weight f4 [4, 16]
0	0x3de30260	0.11084437
1	0xbdb05194	-0.0860931
2	0x3daadd2f	0.08342969
3	0x3e8dce1b	0.27696308
4	0x3e95c45f	0.29251382
5	0xbe7852b6	-0.24250302
6	0xbe9ef9b1	-0.31049874
7	0xbe45f819	-0.19332923
8	0xbdafc07d	-0.08581636
9	0x3db4688c	0.08809003
10	0x3d1993c9	0.037494455
11	0xbd8faf6c	-0.07015881
12	0xbca578b1	-0.020199152
13	0x3ddc7fc5	0.107665576
14	0xbc9f8f0e	-0.019477393
15	0xbdce789f	-0.100816004
16	0x3db95f29	0.090513535
17	0x3e627e69	0.22118534
18	0x3e11e6f3	0.14248256
19	0x3ceab8d4	0.028652586
20	0xbd8d8ca8	-0.06911594
21	0xbe45b7fa	-0.19308463
22	0x3d319c75	0.0433621
23	0x3c4d00f4	0.012512434
24	0x3e5188ab	0.20462291
25	0x3ea5a034	0.32348788
26	0xbe02c60e	-0.12770864
27	0x3d31499c	0.04328309
28	0x3e081fe7	0.1329342
29	0xbe0eddef	-0.13951848
30	0xbe812457	-0.25223038
31	0xbcf04b01	-0.02933264
32	0x3ea76bd2	0.32699448
33	0x3d37b77d	0.044852722
34	0xbdbd277d	-0.092360474
35	0x3e9391b1	0.2882209
36	0x3d7e86c3	0.062140238
37	0xbeadabee	-0.33920234
38	0xbe066dc9	-0.13127817
39	0xbd33d4e3	-0.043904196
40	0xbe78322f	-0.24237894
41	0xbd0d0ef4	-0.03443809
42	0xbe50e90c	-0.204014
43	0xbe7f5e41	-0.24938299
44	0xbdf7777e	-0.12083338
45	0x3e37bbd7	0.17942749
46	0x3e0b3e34	0.13597947
47	0xbe1eed9f	-0.15520333
48	0xbe0cb183	-0.1373959
49	0xbd4e8d10	-0.050427496
50	0x3e8a7726	0.27044028
51	0x3e138a95	0.14408334
52	0xbe7e34ca	-0.24824825
53	0xbc9bf421	-0.019037308
54	0x3e3d845d	0.18507524
55	0xbe9970e2	-0.29968935
56	0xbe8605d4	-0.26176322
57	0x3db62f06	0.08895688
58	0x3ea07d86	0.31345767
59	0x3cf20881	0.02954507
60	0x3ddfcc0b	0.1092759
61	0x3ded5cf4	0.11589995
62	0x3d7218d8	0.059105724
63	0x3e2a3de3	0.1662517

blocks.layers.0.sa.heads.1.query.weight f4 [4, 16]
0	0x3d0908fd	0.033455838
1	0x3e69856f	0.22804807
2	0xbe2d8ca7	-0.16948186
3	0x3db4dbc1	0.08830977
4	0x3dda7d95	0.10668484
5	0xbe8b1fd7	-0.2717273
6	0x3e8328e6	0.2561714
7	0xbe8acf8d	-0.27111474
8	0xbe00c03a	-0.12573329
9	0x3dd798ee	0.10527216
10	0x3df0d328	0.11759025
11	0xbde4e027	-0.11175566
12	0xbcc6dea2	-0.024276081
13	0xbdff5cff	-0.124689095
14	0xbe5e1c12	-0.21690395
15	0xbd9adc1e	-0.07561515
16	0x3e8eb6af	0.27873752
17	0x3e505f63	0.20348887
18	0x3e0b3885	0.13595779
19	0xbe37192a	-0.17880693
20	0xbd3b2172	-0.045686193
21	0xbe9dcb2f	-0.3081908
22	0x3dbeabd6	0.09310119
23	0xbe2905c1	-0.16506101
24	0x3dcdd10c	0.10049638
25	0xbddab8c5	-0.10679773
26	0x3d4e3dbf	0.050351854
27	0x3e4c4b68	0.1995064
28	0xbe26f308	-0.16303647
29	0x3d809044	0.062775165
30	0x3e4d2687	0.20034228
31	0xbcf4b96d	-0.029873574
32	0xbe2093a4	-0.1568132
33	0xbd9e5104	-0.07730296
34	0xbe5f358d	-0.21797772
35	0xbd5d3a4b	-0.05401067
36	0xbe379bde	-0.17930552
37	0xbe341c64	-0.17588955
38	0x3e81ef62	0.25377947
39	0xbe42f686	-0.19039354
40	0x3de9e471	0.11420525
41	0xbca138fd	-0.019680494
42	0x3e468a44	0.19388682
43	0x3e8fc33d	0.28078642
44	0xbe9f4376	-0.31106156
45	0xbd219d60	-0.039456725
46	0x3e28cbd0	0.16483998
47	0xbba6e4a1	-0.0050931727
48	0xbdf77109	-0.120821066
49	0xbe696643	-0.22792916
50	0x3cfc19cc	0.03077402
51	0x3d72438c	0.05914645
52	0x3d8c2109	0.068422385
53	0xbe71ff6b	-0.2363259
54	0x3e777ac5	0.24167927
55	0xbe230e1b	-0.1592335
56	0x3ccc0b7d	0.024907822
57	0xbd9a6e4f	-0.07540571
58	0xbe714360	-0.23560858
59	0x3e153b49	0.14573397
60	0xbe0dd13e	-0.13849351
61	0xbea32a29	-0.31868103
62	0xbd7b8bb6	-0.061412536
63	0x3d347402	0.044055946

blocks.layers.0.sa.heads.1.value.weight f4 [4, 16]
0	0xbe3f6ba9	-0.18693413
1	0xbe2f82b7	-0.17139708
2	0xbe36be16	-0.1784595
3	0xbdc9b838	-0.0984959
4	0x3cee93ca	0.029123206
5	0x3e215d17	0.15758167
6	0xbd8a80a9	-0.06762821
7	0xbdbdd298	-0.09268683
8	0x3e61b419	0.22041358
9	0xbde8c41c	-0.1136553
10	0xbbc7e4af	-0.0061002593
11	0xbd6a1797	-0.057151403
12	0x3daa1088	0.08303934
13	0xbc9d8d9a	-0.01923256
14	0x3daf6e20	0.085659266
15	0x3e920144	0.2851659
16	0xbd81e92f	-0.06343304
17	0xbdf47939	-0.11937184
18	0xbe549188	-0.20758641
19	0xbd74cfad	-0.059768368
20	0x3ddfb8f0	0.10923946
21	0x3be56ebb	0.0070017255
22	0xbe183bed	-0.1486661
23	0xbdb16cbe	-0.08663319
24	0xbc55f1e0	-0.013058156
25	0xbdfdf20c	-0.123996824
26	0x3db79a8f	0.089650266
27	0x3dd6de33	0.104916
28	0xbda0c4f2	-0.07850064
29	0x3dce6c95	0.10079304
30	0xbc958303	-0.018250948
31	0x3e4dfdaf	0.20116304
32	0x3d8d2706	0.06892209
33	0xbda7f5f0	-0.08201206
34	0x3e35222c	0.17688817
35	0x3e7f0979	0.24905957
36	0xbdcf821e	-0.1013224
37	0xbe45b212	-0.1930621
38	0xbe03d22c	-0.12873143
39	0xbda69704	-0.08134273
40	0xbe6cb813	-0.23117094
41	0xbe01fddf	-0.126945
42	0x3df0a9a4	0.117511064
43	0xbd3b671e	-0.045752637
44	0x3e0f7aeb	0.14011733
45	0xbe054efc	-0.13018411
46	0x3d9e3d02	0.0772648
47	0xbe19d956	-0.15024313
48	0xbe1cda60	-0.15317678
49	0xbe551d28	-0.20811903
50	0xbe319e13	-0.17345457
51	0xbdda0102	-0.106447235
52	0x3e4e9303	0.20173268
53	0xbdea7c3d	-0.11449478
54	0xbe091ace	-0.13389131
55	0x3e11b826	0.14230403
56	0x3d9efe97	0.07763403
57	0x3d985d76	0.07439701
58	0x3dcab176	0.09897129
59	0x3da92f5b	0.082609855
60	0xbe09dd19	-0.13463248
61	0x3cf4a3c8	0.029863253
62	0x3e3e1521	0.18562748
63	0xbdba525b	-0.09097739

blocks.layers.0.sa.heads.2.key.weight f4 [4, 16]
0	0xbd815721	-0.06315447
1	0x3c9f86cd	0.019473458
2	0xbe19f7bb	-0.15035908
3	0x3c7daf8c	0.015483748
4	0x3d9d18d2	0.0767075
5	0xbe2fc722	-0.17165807
6	0xbe8f324f	-0.2796807
7	0xbe4e24e7	-0.20131265
8	0x3e2757f0	0.16342139
9	0x3e67172f	0.22567438
10	0xbdc9d5fa	-0.09855266
11	0x3e59afd1	0.21258475
12	0x3e87cfdf	0.2652578
13	0xbdccb03a	-0.0999455
14	0x3e898062	0.2685576
15	0x3dc327fc	0.09529111
16	0xbe3fbe81	-0.18725015
17	0xbd6ca2d8	-0.057772487
18	0x3eb1fa57	0.34761307
19	0x3e999850	0.29999018
20	0x3dc4cbb7	0.09609168
21	0xbd23a401	-0.03995133
22	0xbe1bb9a6	-0.15207538
23	0xbe218754	-0.1577428
24	0xbe2c9c87	-0.16856585
25	0x3d218539	0.03943369
26	0xbe972d13	-0.29526576
27	0xbe019170	-0.12653136
28	0xbe3f230d	-0.18665715
29	0xbe5e4e00	-0.21709442
30	0x3c7a64b7	0.015282801
31	0x3e003933	0.1252182
32	0x3d4dfb88	0.050288707
33	0xbb5bcccc	-0.0033538816
34	0xbdd7eafb	-0.10542866
35	0x3d4809aa	0.04883734
36	0x3d244102	0.04010106
37	0xbe922999	-0.28547361
38	0x3e230346	0.15919217
39	0xbcfa4ac8	-0.030553237
40	0x3deb516d	0.1149014
41	0x3e24f076	0.16107354
42	0x3d8dbf43	0.06921246
43	0x3d8af68d	0.06785307
44	0xbd4ee4c4	-0.050511137
45	0xbe2b610a	-0.16736236
46	0x3ba5b519	0.005056989
47	0x3def8775	0.11695758
48	0xbd0341cc	-0.03204517
49	0xbdd816ec	-0.10551247
50	0xbd90f58f	-0.070780866
51	0xbe1d7713	-0.15377454
52	0x3df907dd	0.12159703
53	0x3e497888	0.19674885
54	0xbdf365f8	-0.11884683
55	0xbd6e7a30	-0.058221996
56	0x3dbac464	0.0911949
57	0xbea64f13	-0.32482204
58	0x3e754d85	0.23955353
59	0xbd0fbbce	-0.035091214
60	0x3e89635c	0.26833618
61	0x3d421cd3	0.04739077
62	0x3e8e2cc2	0.27768523
63	0x3dad96fb	0.08476063

blocks.layers.0.sa.heads.2.query.weight f4 [4, 16]
0	0xbe423cac	-0.18968457
1	0x3e998ff0	0.29992628
2	0xbe0f7a23	-0.14011435
3	0xbea02385	-0.312771
4	0x3e3f8560	0.18703222
5	0xbe134ee2	-0.1438556
6	0x3e83c1b3	0.25733718
7	0xbde21594	-0.11039272
8	0xbba6b657	-0.0050876546
9	0xbe25bad2	-0.16184548
10	0x3eb72dc5	0.35777107
11	0xbb47d1e5	-0.0030490097
12	0x3ddfef60	0.10934329
13	0x3cd62f88	0.026145712
14	0x3c6b4bda	0.014361346
15	0x3dab504c	0.08364925
16	0x3c65b9cb	0.014021347
17	0xbe2fe6ea	-0.1717793
18	0xbd286dc5	-0.04112031
19	0xbd396409	-0.045261417
20	0x3e2d8002	0.16943362
21	0xbe460037	-0.1933602
22	0x3d810671	0.06300057
23	0x3e67598d	0.22592755
24	0xbe25c52b	-0.16188495
25	0xbd487573	-0.048940133
26	0xbd8ad5cf	-0.06779062
27	0x3e296930	0.16544032
28	0x3e579331	0.21052243
29	0xbeb0f2b0	-0.34560156
30	0x3e5026b2	0.20327261
31	0xbe9f6df2	-0.3113857
32	0x3d9a2fad	0.07528625
33	0xbe3b0193	-0.1826232
34	0x3d35b2b3	0.044359874
35	0xbe5fd8c4	-0.21860033
36	0x3dbae65c	0.09125969
37	0x3dbd6546	0.09247832
38	0x3dbde8af	0.092728965
39	0xbd950326	-0.07275991
40	0xbdfbd7f0	-0.12297046
41	0x3e39ad9e	0.18132636
42	0x3dfe2839	0.124100156
43	0x3d028d5f	0.031873103
44	0xbe116a81	-0.14200784
45	0xbe2de190	-0.16980577
46	0xbe452db5	-0.19255717
47	0xbcda2710	-0.026629955
48	0xbea758fd	-0.3268508
49	0x3c3cae8f	0.011516227
50	0x3e4b8df8	0.19878376
51	0xbd5b01a4	-0.05346836
52	0xbdcc53e3	-0.099769376
53	0x3e7e27c5	0.24819858
54	0xbd22ac4d	-0.0397151
55	0xbdc0f066	-0.09420852
56	0xbd6b97e8	-0.057517916
57	0xbd6c99e4	-0.05776395
58	0x3d851112	0.064973965
59	0x3e0105b3	0.1259983
60	0x3e75335a	0.2394537
61	0x3e8a40d5	0.27002588
62	0xbd4bda3f	-0.049768683
63	0xbcf3bf2b	-0.029754242

blocks.layers.0.sa.heads.2.value.weight f4 [4, 16]
0	0xbcbd8119	-0.023132848
1	0xbe84b236	-0.25917214
2	0xbe0118a1	-0.12607051
3	0x3d609e9b	0.054838758
4	0xbe1ac0cb	-0.15112607
5	0x3e14f0e7	0.14545022
6	0x3d935ea5	0.071957864
7	0x3d8358d6	0.064134285
8	0x3e74cabd	0.23905464
9	0xbe724f0b	-0.23662965
10	0x3e500733	0.20315246
11	0x3df0197b	0.1172361
12	0x3dc54258	0.09631795
13	0x3e401532	0.18758085
14	0xbde9ca28	-0.11415511
15	0xbc9ca8fa	-0.019123543
16	0xbd800402	-0.062507644
17	0xbb84d12b	-0.004053255
18	0x3d587f47	0.052855756
19	0xbba7d9fa	-0.0051224204
20	0x3e2a6c89	0.16642965
21	0x3dc63d1f	0.09679627
22	0xbd993864	-0.07481459
23	0x3de60867	0.11232071
24	0xbe645a3c	-0.22300047
25	0xbd44bf86	-0.048034213
26	0xbe56fc8c	-0.20994776
27	0xbe8d508a	-0.2760051
28	0x3d377209	0.044786487
29	0x3ddf5aca	0.109059885
30	0x3e036067	0.12829743
31	0x3d3a5bc9	0.04549769
32	0xbe42fa98	-0.19040906
33	0xbe1ef04c	-0.15521353
34	0xbd869bbc	-0.06572673
35	0x3d97c98b	0.07411488
36	0x3e37d408	0.17951977
37	0xbcf4a7d4	-0.029865183
38	0x3e3b6b1d	0.18302579
39	0x3ce31a79	0.027722584
40	0xbe5d36f8	-0.21603
41	0x3dad6525	0.084665574
42	0x3e1f5a02	0.15561679
43	0xbe2d4447	-0.16920577
44	0xbe046c3d	-0.12931915
45	0x3dc55d10	0.09636891
46	0xbe82e374	-0.25564158
47	0xbdf4124a	-0.11917551
48	0xbda747d4	-0.08167997
49	0xbe3e0324	-0.18555886
50	0x3e5bf809	0.21481337
51	0x3e7ba66b	0.24575202
52	0xbd01f4c3	-0.031727564
53	0x3e23e70e	0.16006109
54	0x3d5ccb63	0.053904902
55	0x3dd63b53	0.10460534
56	0xbd0f0483	-0.034916412
57	0xbe5c6c83	-0.21525769
58	0xbe09a2a8	-0.13440955
59	0x3de51753	0.11186089
60	0xbe49f21f	-0.19721268
61	0x3e3a13f3	0.18171673
62	0xbde2d6d0	-0.110761285
63	0x3e1b0e05	0.15142067

blocks.layers.0.sa.heads.3.key.weight f4 [4, 16]
0	0xbda0c81a	-0.07850666
1	0xbe91992e	-0.2843718
2	0x3e4ee11a	0.20203057
3	0xbe815c6a	-0.2526582
4	0xbe3fd2b1	-0.18732716
5	0x3c9f7766	0.019466113
6	0x3e36580a	0.17807022
7	0xbd36dd82	-0.04464484
8	0xbe655390	-0.22395158
9	0x3d9f51ae	0.07779251
10	0x3da223d5	0.07916991
11	0xbe0c1cc6	-0.13682851
12	0x3e3060f0	0.17224479
13	0xbd8545b7	-0.06507438
14	0xbe0b76b9	-0.13619508
15	0x3e3164f5	0.17323668
16	0x3e2a32a2	0.16620877
17	0x3e77869e	0.24172446
18	0x3ded37ba	0.115828946
19	0xbdf1c89a	-0.1180584
20	0xbd932f77	-0.071867876
21	0xbe0ff2eb	-0.1405751
22	0x3e777aee	0.24167988
23	0x3e6d3d9c	0.23168033
24	0x3e5a171e	0.21297881
25	0x3e85c373	0.26125678
26	0xbde22eaf	-0.110440604
27	0x3d0794bb	0.033100825
28	0x3e09edd5	0.13469632
29	0xbd47bc32	-0.04876346
30	0x3dad4e8f	0.084622495
31	0xbd95c402	-0.07312776
32	0x3d7e5eba	0.062102057
33	0xbd22cf00	-0.03974819
34	0x3e823ce2	0.25437075
35	0x3e671002	0.225647
36	0x3d3d5138	0.046220034
37	0xbe9c5462	-0.3053313
38	0x3c7bf3e9	0.015377977
39	0xbeadf7b0	-0.33978033
40	0xbdb244f7	-0.0870456
41	0x3d155271	0.036455575
42	0x3e3ce2ca	0.18445888
43	0xbe26cd7f	-0.16289328
44	0x3e864bb2	0.26229626
45	0xbd9706b4	-0.073743254
46	0xbe23d0e7	-0.15997659
47	0xbdb99c34	-0.090629965
48	0x3e329c84	0.17442518
49	0xbd9806a8	-0.074231446
50	0x3dfadbd3	0.122489594
51	0xbe878106	-0.26465625
52	0x3e13ddfe	0.14440152
53	0x3d978984	0.07399276
54	0x3d973989	0.07384021
55	0x3e765446	0.24055585
56	0xbd86fb6a	-0.06590922
57	0xbd8064af	-0.06269204
58	0x3e90e3b6	0.2829873
59	0xbe37a228	-0.17932951
60	0x3df2afef	0.11849963
61	0xbd4dd05b	-0.05024753
62	0x3d720e3f	0.059095617
63	0x3e6c3e37	0.23070608

blocks.layers.0.sa.heads.3.query.weight f4 [4, 16]
0	0xbe3d9210	-0.1851275
1	0xbdbeec79	-0.09322447
2	0x3e16e54d	0.14735909
3	0xbe17c32f	-0.1482055
4	0xbe66a040	-0.22522068
5	0xbe246871	-0.16055466
6	0x3da9d0b3	0.08291759
7	0x3d11d3f5	0.03560253
8	0x3dc7c3b5	0.09754125
9	0x3d28dcef	0.041226324
10	0x3e3f37d2	0.18673638
11	0xbdc31c32	-0.09526862
12	0xbd9c5825	-0.07634
13	0x3eafaf9f	0.34313676
14	0xbe666d27	-0.22502576
15	0xbdf7b5f8	-0.12095255
16	0xbcfa325b	-0.03054159
17	0xbe3595c9	-0.1773292
18	0xbdf60de4	-0.12014368
19	0x3e05c70a	0.13064209
20	0x3db4772a	0.08811791
21	0xbd855e16	-0.06512086
22	0xbc1ebf5b	-0.009689177
23	0x3e77e07d	0.24206729
24	0x3d378621	0.04480565
25	0x3d1a98fa	0.037743546
26	0xbe6d3d32	-0.23167875
27	0xbd9f8d77	-0.07790654
28	0xbdd2804b	-0.10278376
29	0x3a9d2058	0.0011987789
30	0xbe7d0148	-0.2470752
31	0xbe1dc756	-0.15408072
32	0xbe7cf286	-0.2470189
33	0xbddf5714	-0.10905281
34	0xbe4571d2	-0.192817
35	0xbe3c14ef	-0.1836736
36	0xbe23b436	-0.15986714
37	0x3d7a8549	0.061162267
38	0xbbc5265c	-0.0060165357
39	0x3db3727a	0.08762069
40	0x3d8f354f	0.0699259
41	0x3b725e68	0.003698254
42	0xbdecf04a	-0.11569269
43	0xbe78dbab	-0.24302547
44	0xbe580ed2	-0.21099404
45	0x3e4d86ab	0.20070903
46	0x3da2d89f	0.079514734
47	0x3ea0aa87	0.31380102
48	0xbe06b1fe	-0.13153836
49	0xbd9003c1	-0.07031966
50	0x3d87bcc0	0.06627798
51	0xbe43beed	-0.19115801
52	0x3e01d17f	0.12677573
53	0x3d031799	0.032004926
54	0x3e050fb8	0.12994277
55	0x3e44b069	0.1920792
56	0x3e03ea62	0.12882379
57	0xbd235912	-0.039879866
58	0xbde0d532	-0.10978164
59	0x3df69b7e	0.120413765
60	0x3dba8aa4	0.09108475
61	0xbe5988ac	-0.21243542
62	0xbdd73578	-0.10508245
63	0x3e8caf51	0.27477506

blocks.layers.0.sa.heads.3.value.weight f4 [4, 16]
0	0xbdda5155	-0.10660044
1	0xbd4ae5d3	-0.049535584
2	0x3e0328fc	0.12808603
3	0xbd3c99e4	-0.0460452
4	0x3daa9d2f	0.08330762
5	0xbc479789	-0.012182125
6	0x3da22a4e	0.07918225
7	0xbe28019a	-0.16406861
8	0x3e1093cc	0.1411888
9	0xbe660637	-0.22463308
10	0xbce097f8	-0.027416214
11	0xbd1362ee	-0.03598302
12	0x3db73b7f	0.08946895
13	0xbd9ca6db	-0.07649013
14	0x3e567022	0.20941213
15	0x3c57a973	0.013162958
16	0xbb890c25	-0.004182356
17	0x3e11ebac	0.14250058
18	0x3d9a3fa3	0.07531669
19	0xbd9de1ce	-0.077090845
20	0x3e63ae25	0.222344
21	0x3dc23b6a	0.094839886
22	0x3d35a579	0.04434726
23	0xbd9a2503	-0.07526591
24	0xbddbb912	-0.10728659
25	0xbe5d6e2b	-0.21624057
26	0x3e9b4afe	0.30330652
27	0x3c5845ee	0.013200266
28	0xbcf26242	-0.029587869
29	0x3e238a87	0.15970813
30	0x3e14a6c3	0.1451674
31	0x3e6467e6	0.22305259
32	0x3e425612	0.18978146
33	0xbd8b228f	-0.06793701
34	0x3e269455	0.16267522
35	0x3e69eb9a	0.22843781
36	0xbe445a50	-0.19175076
37	0xbe15d743	-0.14632897
38	0xbe8d9c3f	-0.2765827
39	0xbe4006d6	-0.18752608
40	0xbd056635	-0.032568175
41	0x3da71646	0.08158545
42	0x3e2f8788	0.17141545
43	0xbe549440	-0.20759678
44	0x3cffbf3a	0.031219114
45	0x3e027ff7	0.12744127
46	0xbd6d6cb4	-0.057964996
47	0x3e944a69	0.2896302
48	0x3dc2fc2e	0.09520756
49	0x3e19f8f6	0.15036377
50	0x3e8fdfdc	0.2810048
51	0xbe60095f	-0.21878575
52	0xbceb7cd4	-0.028746046
53	0xbd96f934	-0.073717505
54	0x3d98163d	0.074261166
55	0xbe538c2f	-0.20658945
56	0xbe47e989	-0.1952268
57	0x3d63833a	0.05554507
58	0x3e565ae4	0.2093311
59	0x3e232162	0.15930703
60	0x3e06be64	0.13158566
61	0x3e4be0e2	0.19910005
62	0x3d50ff2d	0.051024605
63	0x3dab482c	0.08363375

blocks.layers.0.sa.proj.bias f4 [16]
0	0x3e096e90	0.13421082
1	0x3d4da758	0.05020842
2	0x3d9682fc	0.07349202
3	0x3dc02e74	0.0938386
4	0x3de9ae02	0.114101425
5	0x3cf3c58a	0.02975728
6	0x3e317e08	0.17333233
7	0x3d8c10e2	0.06839158
8	0xbe2f7454	-0.1713422
9	0x3e1115d8	0.14168489
10	0x3e466b0a	0.1937677
11	0x3e1ebe81	0.15502359
12	0x3de95e45	0.113949336
13	0x3e519cb3	0.20469932
14	0x3e444ea4	0.19170624
15	0x3e39e44a	0.18153492

blocks.layers.0.sa.proj.weight f4 [16, 16]
0	0x3df52546	0.1197
1	0x3e483b30	0.19553828
2	0x3e500734	0.20315248
3	0xbe5ef4e0	-0.217731
4	0x3e25dcf0	0.16197562
5	0xbdf5e2f0	-0.120061755
6	0x3d158c09	0.0365105
7	0xbe432e89	-0.1906072
8	0x3e0136ac	0.12618512
9	0x3d18106c	0.037125036
10	0xbcaa75e0	-0.02080816
11	0xbe3b4bd8	-0.18290651
12	0xbe3602b0	-0.17774463
13	0x3d8158a0	0.06315732
14	0x3e2000c1	0.15625288
15	0x3decac10	0.11556256
16	0x3cf37d10	0.02972272
17	0x3d44bf80	0.04803419
18	0xbe4932d8	-0.19648302
19	0x3d604c91	0.05476052
20	0xbd3f835d	-0.046756137
21	0x3dc036c8	0.09385449
22	0x3da6534b	0.081213556
23	0x3e0eb05e	0.13934466
24	0x3d61486a	0.0550007
25	0x3db1091c	0.086443156
26	0x3d7ebdd6	0.06219276
27	0xbe0497a0	-0.12948465
28	0x3e42d12c	0.19025105
29	0x3e4ded60	0.20110083
30	0x3de72a7e	0.112874016
31	0xbdb8e09c	-0.09027216
32	0x3e8724fd	0.26395407
33	0x3e738275	0.23780234
34	0xbe638038	-0.2221688
35	0x3d15489b	0.036446195
36	0x3e447743	0.1918612
37	0x3e5b2426	0.21400508
38	0xbd346b63	-0.044047724
39	0xbd8acd94	-0.06777492
40	0xbe25a9a5	-0.16177996
41	0xbe2ada85	-0.16684921
42	0x3dba3c41	0.09093524
43	0x3d30c39c	0.043155298
44	0xbd4d1af2	-0.050074525
45	0x3d03c2e5	0.032168288
46	0x3c3cd39d	0.011525062
47	0xbdd511b7	-0.104037695
48	0x3e08fb13	0.13377027
49	0x3dcbe576	0.099558756
50	0x3e2d864c	0.16945761
51	0xbdf01381	-0.1172247
52	0x3dd53dc2	0.1041217
53	0xbe0319fe	-0.12802884
54	0x3e6521ea	0.22376218
55	0x3d44e265	0.04806747
56	0x3d365816	0.0445176
57	0x3dcfca42	0.101459995
58	0x3e679279	0.22614469
59	0xbdd072b4	-0.10178128
60	0xbd015f2b	-0.0315849
61	0xbd86d409	-0.06583411
62	0xbd0f9595	-0.035054762
63	0x3e832863	0.2561675
64	0x3e1d2134	0.15344697
65	0x3d347d7e	0.04406499
66	0x3e27c000	0.16381836
67	0x3e12cd92	0.14336231
68	0x3e423b69	0.18967976
69	0xbd628877	-0.055305924
70	0x3de4e941	0.11177302
71	0xbdd3f6a7	-0.103497796
72	0x3d4aaf65	0.049483676
73	0x3e466c8b	0.19377343
74	0x3e7e07d9	0.24807681
75	0xbc0d10c6	-0.008609956
76	0xbe722996	-0.23648676
77	0xbdcf22f5	-0.101140894
78	0x3dc78aa1	0.09743238
79	0x3e400827	0.1875311
80	0xbe3663d3	-0.17811517
81	0xbdbcacf2	-0.09212674
82	0x3cd102de	0.025514062
83	0x3df9ec83	0.12203314
84	0xbe10af0f	-0.1412928
85	0xbcaf13c4	-0.02137173
86	0x3d3c79b1	0.04601449
87	0x3d8b17a3	0.06791618
88	0xbca007a6	-0.019534897
89	0x3e4e70a3	0.20160155
90	0xbd2db4f1	-0.042408887
91	0x3e411bfc	0.18858331
92	0x3d83319a	0.06405945
93	0xbe420f72	-0.18951204
94	0xbe060295	-0.13086922
95	0x3e3cbdb8	0.18431747
96	0xbb4e2ee5	-0.0031461057
97	0xbe0de80d	-0.13858052
98	0x3e379a0f	0.17929862
99	0xbe568f08	-0.20953
100	0x3d1094cd	0.035298157
101	0xbe0915cd	-0.13387223
102	0x3e72c347	0.23707305
103	0xbcb204ba	-0.02173077
104	0xbe192e9c	-0.14959186
105	0xbd981254	-0.07425371
106	0x3e24358f	0.16036056
107	0x3e892283	0.26784143
108	0x3dd80e20	0.10549569
109	0x3d9ef238	0.07761043
110	0xbe5212a5	-0.20514925
111	0xbe40e71a	-0.18838158
112	0x3e277b5d	0.16355653
113	0x3d408bdc	0.04700838
114	0xbe1f7827	-0.15573178
115	0xbddfd599	-0.109294124
116	0x3e143f8f	0.1447737
117	0x3ca0d688	0.019633546
118	0xbc12161a	-0.008916402
119	0x3ccded1a	0.025137473
120	0xbd98118f	-0.07425224
121	0x3da39931	0.07988203
122	0x3e1134f9	0.14180364
123	0xbe22fb2c	-0.15916127
124	0x3e21912c	0.15778035
125	0x3bb930aa	0.005651553
126	0x3d0f0ed6	0.034926258
127	0x3e89da5a	0.26924402
128	0x3e0e48de	0.13894984
129	0x3e2d6275	0.1693209
130	0xbe75bc36	-0.23997578
131	0x3e091397	0.13386379
132	0x3e550c24	0.20805413
133	0xbe17de98	-0.14831007
134	0x3e0a753e	0.13521287
135	0x3d98b862	0.07457043
136	0x3e04735e	0.12934634
137	0x3e6e8434	0.23292619
138	0x3d99ca8a	0.075093344
139	0xbd037e32	-0.03210277
140	0xbd5cf398	-0.053943247
141	0xbe829eef	-0.25511882
142	0xbd8c653e	-0.06855248
143	0xbd461c68	-0.048366934
144	0x3daac255	0.08337847
145	0xbdcda4ee	-0.100412235
146	0xbd9e5962	-0.07731892
147	0x3da2324b	0.07919749
148	0xbd65494f	-0.055978116
149	0x3e42c342	0.19019797
150	0xbe0d54ab	-0.1380183
151	0xbe47403f	-0.19458102
152	0x3e17290d	0.14761753
153	0xbda8ea2a	-0.08247788
154	0xbc3c00dc	-0.011474814
155	0xbe5711ac	-0.21002835
156	0xbe3a586c	-0.18197793
157	0xbe8b0417	-0.27151558
158	0x3e2ed256	0.17072424
159	0x3e033e09	0.12816633
160	0xbc80fef0	-0.015746564
161	0x3d36bc2b	0.044613045
162	0xbe0577d1	-0.13033988
163	0x3c671eac	0.014106434
164	0x3e80f65e	0.25187963
165	0x3bb4a07b	0.005512295
166	0x3dbd04e9	0.09229452
167	0xbe668652	-0.22512177
168	0xbc64561e	-0.013936548
169	0x3e4b8022	0.19873098
170	0x3e23fdf9	0.16014852
171	0xbd8ad8dd	-0.06779645
172	0x3e05677e	0.1302776
173	0x3e68eb55	0.22746022
174	0x3aaa52b9	0.0012994624
175	0x3da883da	0.08228274
176	0x3c723e0f	0.014785304
177	0x3df0397f	0.117297165
178	0xbe28dcba	-0.1649045
179	0xbe8cb2d7	-0.27480194
180	0x3e2f7d8d	0.17137738
181	0xbd974fde	-0.0738828
182	0xbe2f6019	-0.17126502
183	0xbd337634	-0.0438139
184	0xbe8ea2ad	-0.27858487
185	0x3e271229	0.16315521
186	0x3d10405c	0.035217628
187	0x3e0e0f24	0.13872963
188	0x3dcc3b37	0.09972232
189	0xbd7782e1	-0.06042755
190	0x3e2b3ac6	0.16721639
191	0x3cb99f9a	0.022659112
192	0x3ddb3568	0.10703546
193	0xbd8db780	-0.069197655
194	0x3d0cf7bd	0.03441595
195	0x3e6437b4	0.22286874
196	0xbe14db6f	-0.14536832
197	0x3dc797b5	0.09745733
198	0xbd6cc86b	-0.05780832
199	0xbe2e001e	-0.16992232
200	0xbe34eab7	-0.17667662
201	0xbe2ba140	-0.1676073
202	0xbe4cfba4	-0.20017868
203	0xbdc10ab6	-0.09425871
204	0x3db9885a	0.0905921
205	0x3d85132a	0.06497796
206	0xbd467e54	-0.04846032
207	0xbca88a0a	-0.020573635
208	0x3d8fd8b8	0.07023758
209	0xbdd5374e	-0.10410939
210	0xbe335b10	-0.17515206
211	0xbe247895	-0.16061623
212	0xbdc44db0	-0.0958513
213	0x3d89de35	0.06731836
214	0x3e4a2eab	0.19744365
215	0xbe87a652	-0.2649408
216	0xbe4e90a4	-0.20172364
217	0xbda3b97c	-0.07994363
218	0x3e04f713	0.12984876
219	0x3e3f5774	0.18685704
220	0xbe0b719a	-0.13617554
221	0x3cd8f555	0.02648417
222	0xbdfed6a0	-0.1244328
223	0xbe842b0c	-0.25814092
224	0x3e3cb9c9	0.18430246
225	0xbc48e712	-0.012262123
226	0xbc82d91a	-0.015972663
227	0xbe14ad20	-0.14519167
228	0xbe42f9da	-0.19040623
229	0x3dc4c8c1	0.09608603
230	0xbbd21238	-0.0064108633
231	0xbce4e4e5	-0.027941177
232	0xbe88f249	-0.2674735
233	0xbe260bf6	-0.162155
234	0x3e5f1194	0.2178405
235	0xbda0a2b8	-0.07843536
236	0xbe6b2917	-0.22964893
237	0x3e72d175	0.23712714
238	0xbe9ea9e3	-0.30988988
239	0x3cfc6c1f	0.030813275
240	0x3e2508f8	0.16116703
241	0xbe0ceaf6	-0.13761505
242	0xbcefadf5	-0.029257754
243	0xbe903fce	-0.2817368
244	0xbe2c1368	-0.16804278
245	0x3e4c463a	0.19948664
246	0x3e20e6c3	0.15713029
247	0x3dba65c0	0.091014385
248	0xbe6ee8fb	-0.23331062
249	0xbe81b533	-0.25333557
250	0xbe152ae5	-0.14567144
251	0x3d308ab8	0.043101043
252	0xbbd5859c	-0.0065161716
253	0x3ac59dc4	0.0015076925
254	0xbd710aa0	-0.058848023
255	0x3e816636	0.25273293

blocks.layers.1.ffwd.net.layers.0.bias f4 [64]
0	0x3d3e8bd8	0.046520084
1	0x3df9776f	0.12180983
2	0xbe48d28f	-0.19611572
3	0x3e5fedc0	0.21868038
4	0xbe718746	-0.23586759
5	0xbc6c2907	-0.014414079
6	0xbde414f1	-0.11136807
7	0xbe5f3f43	-0.21801476
8	0xbe6bb751	-0.23019148
9	0xbe4741a1	-0.19458629
10	0x3e748e76	0.2388247
11	0x3e4da106	0.20080957
12	0x3ca6303d	0.020286674
13	0xbe15d4d7	-0.14631973
14	0xbe882ccf	-0.26596686
15	0x3e3c3ae8	0.18381846
16	0x3dac9003	0.084259056
17	0x3e28e8bd	0.16495033
18	0xbe25eaa0	-0.16202784
19	0xbe90a918	-0.28254008
20	0x3d854365	0.06506995
21	0xbe6f8c4e	-0.23393366
22	0xbddee1f9	-0.108829446
23	0xbcfac6a3	-0.030612295
24	0xbdfd89a2	-0.12379767
25	0x3c5dcaf1	0.0135371545
26	0x3ce11004	0.027473457
27	0x3e5879e2	0.21140245
28	0xbe78db06	-0.24302301
29	0xbe34deb1	-0.17663075
30	0x3e0cde7d	0.13756748
31	0xbdbf50e5	-0.09341601
32	0xbe2e0655	-0.16994603
33	0x3db81167	0.08987694
34	0x3da6a4ca	0.081369
35	0xbde2cc9f	-0.110741846
36	0xbc81fb4e	-0.015866902
37	0x3db100a2	0.08642699
38	0xbe864979	-0.2622793
39	0x3e5fe113	0.21863203
40	0xbcfdd68a	-0.03098609
41	0x3cd10a31	0.025517555
42	0xbdcc2dd6	-0.0996968
43	0x3e484fa1	0.19561626
44	0xbd8dfc98	-0.06932944
45	0x3c074e4a	0.008258412
46	0xbd7f56dc	-0.062338695
47	0xbe8cdeb5	-0.27513662
48	0x3c95127e	0.018197294
49	0xbe7a6fba	-0.24456683
50	0xbd0f2e04	-0.034955993
51	0x3d595e47	0.053068426
52	0xbe01b56e	-0.12666866
53	0xbe4d1b37	-0.20029913
54	0x3e8ae4d3	0.27127704
55	0x3da601cc	0.081058115
56	0xbe13cd4d	-0.14433785
57	0x3e4bc17a	0.19898024
58	0xbe6024d0	-0.21889043
59	0x3d51817a	0.05114887
60	0xbe915742	-0.28386885
61	0x3e65fbb7	0.22459303
62	0x3d799065	0.06092872
63	0x3e60f769	0.2196938
