weights.safetensors (safetensors, 17936 bytes, 72 tensors)

blocks.layers.0.ffwd.net.layers.0.bias f4 [32]
000000 9e 4e 44 be 79 9c 9f be 67 37 c0 be fc dc 6e be
       -0.19170615 -0.31174067 -0.3754227 -0.23326486
000010 a7 62 ca bd ac 7c 0a 3d be 51 10 3d 14 2f 0f be
       -0.09882098 0.033810303 0.035234205 -0.13982803
000020 d5 21 18 be fe 9b 8e bc 1b 73 ec bc 2b 47 c1 be
       -0.14856656 -0.017408367 -0.02886348 -0.3774961
000030 ec ad 80 be ae cf 5c 3e ff 06 d3 3e 8e df 44 be
       -0.25132692 0.21563599 0.41216275 -0.19225904
000040 8c a6 ae 3b dd 7b 9f be 5b d3 79 be 17 db 25 be
       0.0053299125 -0.31149188 -0.24397032 -0.16196857
000050 38 ea d4 3d b1 32 f5 3d 41 a7 92 3e 59 c6 87 bd
       0.10396236 0.11972559 0.2864323 -0.06629629
000060 32 c9 1b be fe 6a 1f be ee 97 56 be 5a 8e d5 be
       -0.15213469 -0.15568158 -0.20956394 -0.41710168
000070 33 cb 81 be d1 0b 93 3e dc 7e 02 be 1b 3e 49 ba
       -0.2535034 0.28719953 -0.12743706 -0.0007676796

blocks.layers.0.ffwd.net.layers.0.weight f4 [32, 8]
000000 21 d6 e9 bd 7b bd 40 3e b4 9c 59 3e 8b 86 03 be
       -0.11417795 0.18822281 0.21251184 -0.12844293
000010 36 ec 15 bd c6 d7 b8 bd 84 7a ef 3e df c7 60 3e
       -0.03660222 -0.090255305 0.4677316 0.21951245
000020 9c fb 7f bd 21 a6 a8 be 64 90 1a 3d 4a 9a bf 3d
       -0.062495813 -0.32939246 0.037735358 0.093556
000030 f2 03 e0 bd ff d2 58 3c ac ae ef bd df 9b 4e 3e
       -0.109382525 0.013233899 -0.11703238 0.20176648
000040 c5 aa 28 3e 72 4a 3b 3e f5 27 b4 bd e2 10 8a be
       0.16471393 0.18290117 -0.08796684 -0.26966006
000050 14 45 0c be 3d 99 d7 3e d5 a8 a0 be 96 8f 0c be
       -0.13698226 0.421091 -0.3137881 -0.13726649
000060 0a 0c a1 be d6 14 23 3d c7 ed 0b 3e 00 09 cc be
       -0.31454498 0.039814793 0.13664924 -0.39850616
000070 68 f2 88 3e 1c a3 34 be 4a dd 77 be c6 f3 c4 3d
       0.2674744 -0.17640346 -0.24205509 0.096168086
000080 e7 a5 99 be bc 8d 8c 3e 7f 3b ac be 2c 6c 57 3e
       -0.30009386 0.27451885 -0.33639142 0.21037358
000090 58 a9 a8 3d b2 10 e6 3c 25 50 dd 3d de 36 94 3e
       0.08235425 0.028084133 0.10806302 0.2894811
0000a0 49 0d 50 3e ae 6c 8b 3d 66 13 98 3e b6 76 00 3e
       0.20317568 0.068078384 0.297023 0.12545285
0000b0 d4 68 ac 3e e5 f6 28 bb 6a b7 7a be e2 ce 45 be
       0.33673728 -0.0025781926 -0.2448403 -0.19317201
0000c0 d8 4c be be 00 54 5c be 8e 91 a3 be d7 ae fb be
       -0.37168002 -0.21516418 -0.31946987 -0.4915683
0000d0 2f 4b e3 bd c2 64 58 3e d3 8b 8d 3e 63 ca 70 3e
       -0.110983245 0.21132186 0.2764574 0.23514704
0000e0 77 a0 a6 be 60 9b b0 3d 2c 9e e6 3e 19 fd 61 3e
       -0.325443 0.086233854 0.4504255 0.22069205
0000f0 77 df 81 3e 7b 35 08 bf 62 0b 93 be c1 07 11 3e
       0.25365803 -0.53206605 -0.28719622 0.14163114
000100 22 b3 cb 3e 43 a7 e0 be 55 59 4f 3e 0b 92 c0 be
       0.39785105 -0.4387761 0.20248921 -0.37611422
000110 2c 4c da 3e ac 58 71 3d 68 29 a4 3e 26 2d 89 bd
       0.4263624 0.058922455 0.3206284 -0.066980645
000120 5f 0d 54 3d 43 ea b1 bd bb 58 ed 3d 67 b5 ea be
       0.051770564 -0.0868726 0.115891896 -0.45841524
000130 36 c3 90 3e 6a a4 06 3e 83 3b d2 3e 74 5b 47 be
       0.28273934 0.13148656 0.4106103 -0.1946848
000140 81 c5 96 3e 79 65 ce bd b3 5f 1d be 7f 6e d7 bc
       0.2944756 -0.10077948 -0.15368538 -0.026297806
000150 82 4f 7f 3e 7a ce 7b be f1 51 ae 3e 8e c2 df be
       0.24932674 -0.24590483 0.3404689 -0.4370312
000160 fe b0 70 3e c6 4f 0e 3c 0f 4f 88 be 29 ca 6e 3e
       0.23505017 0.008686012 -0.26622817 0.23319305
000170 35 f5 9a 3e 7a c3 3c be 46 2c 00 3c fc 22 78 3d
       0.30265203 -0.18433943 0.007823056 0.06058024
000180 18 7a 0e bd 03 40 8b be 9f ef 48 3d d6 31 1d be
       -0.034784406 -0.27197275 0.049056645 -0.15351042
000190 7c de 06 bd 44 85 08 bc 01 aa a8 3b 3c ca 66 be
       -0.03292702 -0.008332554 0.005147219 -0.22538084
0001a0 25 46 cd 3e 7a 23 57 3e 8a 6f d2 bd bc 6b 94 3e
       0.4009258 0.21009627 -0.10275181 0.28988445
0001b0 51 cf 06 bf 59 ed c3 bd 24 6f 61 be 47 e7 37 be
       -0.5266009 -0.09566755 -0.22015053 -0.17959319
0001c0 f1 12 80 be 0c a3 ce bd e6 0f 8b 3e 8c 12 dd 3d
       -0.2501445 -0.100896925 0.27160567 0.10794553
0001d0 3d 52 f9 3d 63 ef 0d bf 89 88 0d be 14 6c 05 bd
       0.12173889 -0.554434 -0.13821615 -0.032573774
0001e0 6c 16 9b 3e 02 50 f3 be e3 fd fa 3c f8 e2 81 3e
       0.30290544 -0.4752198 0.03063864 0.25368476
0001f0 e4 25 99 3c fc 86 e5 3c 34 cd 29 bd 56 f9 90 be
       0.018694825 0.028018467 -0.041455463 -0.28315228
000200 27 f1 8d 3e fe 99 97 3d 68 7a d1 be ef ba bb 3e
       0.27723047 0.074024186 -0.409137 0.36666057
000210 08 2a f0 bd d1 ca 8d 3d 00 ce 7f be d0 b7 8c 3e
       -0.11726767 0.0692345 -0.24980927 0.27483988
000220 32 6d d0 3e 4e 76 72 3e 71 d5 ff bd d7 2a be 3d
       0.4070831 0.23677942 -0.124918826 0.09285515
000230 0b e6 a4 3e 1c 43 88 3e 82 52 b3 be 02 7a 2e bd
       0.3220676 0.266137 -0.35023886 -0.042596824
000240 70 21 79 bd 7d 20 d0 be 6f 87 8f bd 71 48 bd 3b
       -0.060822904 -0.40649787 -0.07008254 0.005776458
000250 d9 a0 42 3e a4 5a 8b 3e cc f5 00 be 3f a7 78 bd
       0.19006671 0.2721759 -0.12593764 -0.060706373
000260 09 6f aa 3e ed 1f c0 3d 5a 6d 00 3e 00 c5 03 3e
       0.33287838 0.09381089 0.12541714 0.12868118
000270 fe b2 91 3b d5 b3 97 3e b6 59 aa 3d f5 69 c8 be
       0.0044463864 0.29629388 0.08317892 -0.3914334
000280 3f 0a 3b 3e 15 fc 8a 3d e2 4c bb 3e e4 87 40 3e
       0.18265627 0.06786362 0.36582094 0.18801838
000290 c1 8a 5d bd 13 c3 f1 ba df fe fd 3e a3 b4 70 be
       -0.054087404 -0.0018444977 0.49608514 -0.23506407
0002a0 05 ec e8 bd ad 03 eb 3d c8 e9 ae be 1f 6c 23 3e
       -0.11373142 0.114753105 -0.34162736 0.15959214
0002b0 e8 63 74 be 16 66 03 be bd ba a1 3a cc bd 2f 3d
       -0.23866236 -0.12831911 0.0012338978 0.042905614
0002c0 dc b5 5d 3d f4 00 86 3e 59 ee bc be 03 4a c5 bd
       0.054128513 0.26172602 -0.36900595 -0.09633257
0002d0 ab 35 f1 3e dd 29 94 3c c2 2b f8 3d 86 73 25 3e
       0.47111258 0.018086368 0.12117721 0.1615735
0002e0 4e ed 26 be cd d6 ba be 6a d4 f6 3c f0 b6 95 3d
       -0.16301462 -0.36492005 0.030130584 0.07310283
0002f0 5d 35 56 be 0a 05 bc 3e 67 7f cd 3d bd f5 e2 bd
       -0.20918794 0.36722594 0.10034066 -0.11082027
000300 a2 bc a2 be ed aa 07 be 56 b5 e7 3e ff 20 c8 3d
       -0.3178454 -0.13248797 0.45255536 0.097719185
000310 ce 05 62 3d f0 d1 09 be 74 7b 4d 3d ff 9b 39 3e
       0.055181317 -0.13458991 0.050166562 0.18125914
000320 08 7f ee bd 71 e8 15 3c c6 b0 13 3f 92 b5 27 3e
       -0.11645323 0.009149657 0.5769161 0.16377857
000330 e2 b3 82 3e de 37 ce be 1d 8b 4a be 2a 70 4c 3e
       0.25527865 -0.40276998 -0.1977963 0.19964662
000340 83 40 4d 3e 75 05 94 3a 7d 81 a4 3e 1b 65 bf be
       0.2004414 0.001129313 0.32130042 -0.37381825
000350 a0 2f 3f 3e 33 20 97 be f9 8f e3 bd 60 1f a1 3e
       0.18670511 -0.29516754 -0.11111445 0.3146925
000360 d8 b2 85 3e 3d c7 6b be f9 48 17 be bc 2e d1 bd
       0.2611301 -0.23025222 -0.1477393 -0.10213992
000370 d4 50 52 3e 21 ad 82 3d ea a7 de 3d f6 23 b0 3d
       0.20538646 0.06380678 0.10871871 0.08600609
000380 22 15 05 3f 89 fb 2e 3e 51 d9 d3 bd 06 a7 11 be
       0.5198537 0.1708814 -0.10344184 -0.1422387
000390 8a 08 08 bc f5 e5 10 be ae ee e8 bd 14 c2 a7 be
       -0.008302817 -0.14150222 -0.113736495 -0.32765257
0003a0 38 73 a4 be fe 4e 2b be c6 fc 40 be 08 e5 60 be
       -0.32119155 -0.16729352 -0.18846425 -0.21962368
0003b0 41 b3 79 3e 61 a9 fc 3e 1b bb 92 3d 10 7b 41 3d
       0.24384786 0.49347976 0.07164594 0.047236502
0003c0 b4 09 8c be 2a dd 6a 3e f6 92 b4 be 10 93 ba 3d
       -0.27351153 0.2293593 -0.35268372 0.09110081
0003d0 27 8d d8 3e 17 26 7b 3e 86 ca 4d 3e f5 67 47 3e
       0.4229519 0.24526249 0.20096788 0.1947325
0003e0 3d 58 ae be 8c b3 cf 3e a3 98 d7 3e ec 2f 12 3e
       -0.34051695 0.4056667 0.4210864 0.14276093
0003f0 3c de 76 3e e9 06 bd be fa ac a8 bc 45 56 be bc
       0.24108213 -0.36919335 -0.020590294 -0.023234496

blocks.layers.0.ffwd.net.layers.2.bias f4 [8]
000000 a4 aa ed bc 86 6f b3 3d f2 04 64 bd e1 e0 a1 3d
       -0.029012032 0.08761506 -0.05566878 0.0790422
000010 df 0d 41 3d 2c 08 ba 3d 68 93 2f 3e fe c6 1c 3e
       0.04713237 0.0908359 0.17146075 0.15310284

blocks.layers.0.ffwd.net.layers.2.weight f4 [8, 32]
000000 fe 3a b4 3e 7e ed 1a be 43 16 fc 3d c4 f8 fe bb
       0.35201257 -0.15129659 0.123089336 -0.00778112
000010 88 00 f5 bc 23 88 38 3e 34 a2 c2 3d 92 da f5 3d
       -0.02990748 0.18020682 0.09503594 0.120045796
000020 ce 32 46 be d6 17 ce bd 87 3c 81 be 61 87 1d be
       -0.19355318 -0.1006314 -0.2524149 -0.15383674
000030 a3 0c 9c 3c 2e 7f 3a 3d 73 4b d3 3d 99 ad 02 be
       0.019048994 0.045531444 0.10317125 -0.12761535
000040 d2 ab de bd 3e 01 89 3e a4 d8 04 3d 54 a6 41 3e
       -0.10872616 0.2675876 0.032433167 0.18911105
000050 e1 7b 4b be a4 c4 1e be 4d 91 d8 bc c5 8e 3b bc
       -0.19871475 -0.155047 -0.026436472 -0.011447613
000060 59 c8 30 3e 2b 56 ef 3d 0d 81 36 3e ba 0d 0a 3d
       0.17263927 0.11686357 0.17822666 0.033704497
000070 82 97 db bd d4 3d 4b bd e1 87 46 be 02 dc 1f 3e
       -0.10722257 -0.04961951 -0.19387771 0.1561127
000080 1a 16 bd be ff 05 bf bc 6d 11 0c 3e 2f 7d 63 be
       -0.36930925 -0.023318289 0.13678522 -0.22215723
000090 45 c2 53 3e 08 3b 8b be cf a7 85 bd 32 1b a4 be
       0.20679577 -0.27193475 -0.065261476 -0.32051998
0000a0 ec e0 15 3e 6f 12 52 bd 72 70 83 3e 5c e3 01 3e
       0.14636582 -0.05128711 0.25671726 0.12684387
0000b0 32 f8 10 3e ec 2a 71 3d 70 ba b7 be 9b 16 63 3d
       0.14157179 0.058878824 -0.35884428 0.05544148
0000c0 90 ed 9f 3e 56 cc 07 3d 75 3c 1f 3e e9 7b 07 be
       0.31235933 0.033153854 0.15550406 -0.13230862
0000d0 87 b0 dc bd 25 74 55 bd d5 e1 b5 3b 21 21 09 3e
       -0.107758574 -0.052112717 0.005550603 0.13391544
0000e0 58 20 46 be b1 22 00 be 12 0f e9 bb 17 e1 40 3e
       -0.19348276 -0.12513234 -0.007112392 0.18835865
0000f0 be c0 98 3e 19 dc d9 3c ed 6a 69 3e d8 10 9a be
       0.2983455 0.026594209 0.22794695 -0.30090976
000100 52 cb b5 bc 0d d2 2d 3e c2 93 6b be 0d aa 3b be
       -0.022191677 0.1697466 -0.23005584 -0.18326588
000110 4c e8 aa bd 10 6f 8e bd 21 21 01 3e 0c d8 c9 be
       -0.08345088 -0.06954777 0.12610294 -0.39422643
000120 0b ef 95 3e 2f 98 ea 3d 4c 3b ca bc cc 23 67 3d
       0.29283938 0.11454808 -0.024686478 0.056430623
000130 f5 2b ae 3e 4c 24 12 be bc ff 33 be aa 7e 15 3e
       0.34017912 -0.14271659 -0.17578024 0.145991
000140 86 2a cb 3d a9 03 e2 bd 66 2e 12 3e de 42 91 3e
       0.0992022 -0.11035854 0.14275512 0.28371328
000150 bd 5d 84 3d 80 d9 89 3d 08 7c 97 bb a9 83 94 3e
       0.06463192 0.06730938 -0.00462294 0.290067
000160 f3 d5 55 3e 2e 8c 94 be 9e 33 a7 bd 7d 66 4b 3d
       0.20882396 -0.290132 -0.08164142 0.049658287
000170 24 5a 96 3e 55 bd e5 3c fa bb 53 3d 42 e5 f9 bd
       0.29365647 0.028044382 0.05169294 -0.122019306
000180 73 35 37 bd a6 f4 ad bd ad 09 81 3d 1b cf 04 3d
       -0.044728708 -0.084939286 0.06300674 0.032424074
000190 2a 50 0f bc 70 3b 2a be 94 6a 17 be 0d ca 99 bd
       -0.00874714 -0.16624236 -0.1478675 -0.07509241
0001a0 54 99 48 3d f9 ff 85 3e 70 62 9d 3d e8 f8 1e 3e
       0.04897435 0.26171854 0.07684791 0.15524638
0001b0 fe 4c b5 3b e8 e3 9d 3d 5c 45 d1 3d be 07 e7 bd
       0.00553286 0.07709485 0.102183074 -0.112807736
0001c0 bd 8b 96 3c 5a b1 93 3d a7 f8 d4 3d f9 8c d9 bd
       0.01837718 0.072115615 0.10398989 -0.106225915
0001d0 bc 19 c6 3c 13 12 90 3e e7 b1 c1 3c bf 18 f1 bb
       0.024182193 0.2813879 0.0236444 -0.0073576863
0001e0 93 72 99 be ed 8d 98 bd f9 19 83 bd 16 b0 01 bd
       -0.29970226 -0.07448945 -0.06401438 -0.03166207
0001f0 ff 92 33 be 2b 3f a4 be 41 17 01 be 17 72 26 3e
       -0.17536543 -0.32079443 -0.12606527 0.1625446
000200 aa 18 82 3d 7f c9 f6 3b 6a 5c 70 bd aa b9 79 3e
       0.063523605 0.0075313444 -0.058681883 0.24387231
000210 87 b8 00 be 27 8a 41 bc 34 e5 39 be 79 bd 03 3e
       -0.12570392 -0.011812723 -0.1815384 0.12865247
000220 3c 69 ba 3d ab d5 13 3e 76 5d e8 bd 86 9d 44 be
       0.09102103 0.14436977 -0.11345951 -0.19200715
000230 fa 47 ea 3c ec 82 29 3e db a1 6c 3e 88 26 0b 3e
       0.028598774 0.16553849 0.23108618 0.13588917
000240 37 26 2e be 56 29 2c be ed 85 60 3e c0 b3 c1 3c
       -0.17006765 -0.16812643 0.21926089 0.023645282
000250 cb be 89 3e bd e4 60 bd d7 e5 60 be b0 93 a4 bc
       0.26903376 -0.05490564 -0.21962677 -0.020089954
000260 4e ab 2a 3e b5 75 8b 3e d6 04 37 3d 6b 84 53 be
       0.1666691 0.2723824 0.044682346 -0.20655982
000270 6d 55 a4 bd 6c b4 8e be 1e 69 ae be dc e8 1c 3e
       -0.08024106 -0.27872026 -0.34064573 0.15323204
000280 d8 88 49 3e 47 6b a7 bd be df a7 3d 99 de 08 be
       0.19681108 -0.081747584 0.08196972 -0.13366164
000290 a5 3a 68 bd 74 47 91 bd ef 01 b0 3d fb f8 b6 3c
       -0.056696553 -0.07093707 0.08594119 0.02233552
0002a0 e3 cb ae bd 0f f6 0c 3d 84 d6 2d bd a1 ca b5 3d
       -0.08534982 0.034414347 -0.042440906 0.08876539
0002b0 65 5a ad 3c 5f 28 92 bd 71 51 cf 3d 68 03 eb 3d
       0.021161268 -0.071366064 0.101229556 0.11475259
0002c0 1f c7 1a 3d f0 ec 4d 3d 39 49 c3 3d cf 14 1c 3e
       0.037787553 0.05027479 0.095354505 0.15242313
0002d0 01 e9 93 3d 99 99 44 be 3d db db bd 3b 2c f3 bd
       0.07222176 -0.19199218 -0.10735176 -0.11873671
0002e0 b8 a4 44 3e 3f 02 eb 3d cf c5 0d 3e f4 3e b2 bd
       0.1920346 0.11475038 0.13844989 -0.087034136
0002f0 90 8a b5 3d 7d d3 37 be 7a f8 64 be 17 c1 9d 3d
       0.08864319 -0.1795177 -0.22360411 0.077028446
000300 a6 8b 53 be 87 d3 91 3d fc 55 ca be 3f c1 63 3e
       -0.2065874 0.07120424 -0.39518726 0.22241686
000310 de ba 87 3e ab f4 c3 bd 7d 9b d1 bd 53 c0 1c 3e
       0.26509756 -0.09568151 -0.10234735 0.15307741
000320 f7 3c 8c bd 6c d1 66 3c 69 e2 8c 3e 53 6a f5 bc
       -0.068475656 0.014088016 0.27516487 -0.029957926
000330 09 e1 43 3d bd 05 09 be b9 3f 2c 3e 94 dc ef bd
       0.047822032 -0.13381095 0.16821183 -0.11711994
000340 a5 b9 02 3e da 4c 4d be 1e 3b e4 bd 1b e3 30 bc
       0.1276613 -0.20048848 -0.11144088 -0.010796334
000350 68 65 c7 bc bb 8e 3d 3e 65 10 64 bd da 67 60 3c
       -0.024340346 0.18511479 -0.055679698 0.013696635
000360 44 81 04 ba f3 07 9a bd 96 fe 6f 3c d7 f9 eb 3c
       -0.00050546625 -0.075210474 0.0146481 0.028805656
000370 9d 20 5f be a2 e2 ae bc e9 33 74 be 05 e2 f0 3d
       -0.21789785 -0.021348301 -0.23847927 0.1176186
000380 b2 2f 26 3c 54 5d 0a bd 88 cd 3d bd 92 c7 47 3e
       0.010143207 -0.03378041 -0.046338588 0.19509724
000390 a2 2c c7 3d 99 3a 01 3e 30 e9 5c 3e 5c e2 57 3c
       0.0972531 0.1262001 0.21573329 0.013176527
0003a0 0a f9 b2 be d6 12 92 be 56 ed 06 be 51 0e 7c 3d
       -0.34955627 -0.28529996 -0.13176474 0.06153709
0003b0 bf cb 35 bd 34 06 3a be 64 4d e9 bd f0 fe 5a be
       -0.04438376 -0.18166429 -0.11391714 -0.21386313
0003c0 0d 37 87 be 63 6c 06 3d 66 d9 9b bd c1 2b ec 3d
       -0.26409188 0.03281821 -0.07609825 0.11531783
0003d0 93 2c 45 be 5e 89 e6 bd 70 72 6f 3e 45 6e cb bd
       -0.19255285 -0.112566695 0.23383498 -0.099331416
0003e0 4f 65 3d 3e ac de 32 3e 22 de 76 bd 0d 6c 67 bd
       0.18495677 0.17467755 -0.060270436 -0.05649953
0003f0 ae 42 a4 bd 0e ef d5 3c 6d 31 b2 3e 07 2c bb 3d
       -0.08020531 0.026114967 0.34803334 0.09139257

blocks.layers.0.ln1.bias f4 [8]
000000 88 0b 0d 3e 60 e3 c5 bd e1 52 fb bb a1 4f 2f bb
       0.1377393 -0.09662509 -0.007669792 -0.0026750343
000010 dc 5e f7 3d c0 76 22 3e ae 12 21 bd d7 30 3b 3c
       0.1207864 0.15865612 -0.039324455 0.011425219

blocks.layers.0.ln1.weight f4 [8]
000000 3c b1 61 3f 8f 90 82 3f 0c 65 79 3f 99 c1 65 3f
       0.88161063 1.0200366 0.9741981 0.8974853
000010 7e 6a 80 3f df 5d 5c 3f 93 3c 6a 3f df 8f 80 3f
       1.0032499 0.86080736 0.9149868 1.0043906

blocks.layers.0.ln2.bias f4 [8]
000000 45 7e 9d bd 5f f0 ba 3d 61 f8 10 3e 76 f8 53 3c
       -0.076900996 0.091278784 0.14157249 0.012937656
000010 b9 90 4b ba 8d dd a4 bc 36 05 2d 3c 85 da be 3d
       -0.0007765401 -0.020125175 0.010560324 0.09319023

blocks.layers.0.ln2.weight f4 [8]
000000 d2 4c 96 3f be e6 73 3f a3 a2 a1 3f 30 f2 7b 3f
       1.1742194 0.9527396 1.2627758 0.98416424
000010 0c 3c 9d 3f 66 64 91 3f 8e 90 92 3f df a5 8c 3f
       1.228395 1.1358764 1.1450365 1.098812

blocks.layers.0.sa.heads.0.key.weight f4 [2, 8]
000000 dc 19 bb 3e 4e ab 08 bf 1a bf 3d be 9d 7a 31 be
       0.36543167 -0.5338639 -0.1852993 -0.1733193
000010 e2 6c 73 3d 02 94 10 3e d5 e0 e0 bd c0 24 7d 3e
       0.05943001 0.1411896 -0.10980383 0.2472105
000020 a0 62 c3 bd e0 5e d6 be 65 e6 49 bd 07 c9 1c be
       -0.095402956 -0.4186926 -0.049291987 -0.15311061
000030 70 6b 12 3f 6f 34 41 be 63 23 b6 be 9a a3 ef 3e
       0.57195187 -0.18867658 -0.35573873 0.46804506

blocks.layers.0.sa.heads.0.query.weight f4 [2, 8]
000000 bd 8d bd bd 96 94 f9 be 8b 90 81 3d d0 d2 07 be
       -0.0925555 -0.48746175 0.063263975 -0.13264012
000010 d5 1b 11 bd 59 54 15 3e 2c a6 99 bd 17 56 c3 be
       -0.035426933 0.14582957 -0.07502398 -0.3815162
000020 c2 da 9b 3e 84 d5 68 be 58 01 97 3d c0 a3 03 3b
       0.30440336 -0.227377 0.07373303 0.0020086616
000030 11 53 ac be 35 4c b1 3e 5b 46 b3 3e 7f d6 6a be
       -0.33657125 0.34628454 0.35014614 -0.22933386

blocks.layers.0.sa.heads.0.value.weight f4 [2, 8]
000000 85 f5 63 be 36 f4 c8 3d 1c d2 18 3e ea c5 45 bd
       -0.22261627 0.098122045 0.149239 -0.04828445
000010 ba 4b aa be 72 7b 1c be 5e 60 39 3e 4d fc 8a be
       -0.332609 -0.15281466 0.18103167 -0.27145615
000020 7b 87 26 3e f1 ce 80 be b1 21 3e 3e 22 04 aa 3d
       0.16262619 -0.25157884 0.1856754 0.083015695
000030 00 3e 5f 3e 49 f4 c5 bd cd 83 ba 3d 19 15 34 3e
       0.21800995 -0.09665734 0.0910717 0.17586173

blocks.layers.0.sa.heads.1.key.weight f4 [2, 8]
000000 bf 1f 10 3d ab f4 85 be 97 ab 7a be ba 10 87 3e
       0.035186525 -0.2616323 -0.24479519 0.2637995
000010 fa 0b 72 3d 1a c6 fd bd aa f1 9a 3e ed b2 c1 3e
       0.059093453 -0.123913005 0.302625 0.37831822
000020 46 b1 d1 3e 2a 37 0d 3d 71 72 e2 3e 90 9c bc be
       0.4095556 0.034476437 0.44227937 -0.36838198
000030 39 fb a7 3e 83 4f 93 3e 10 4b 78 3d 23 08 10 be
       0.32808855 0.287716 0.06061846 -0.14065604

blocks.layers.0.sa.heads.1.query.weight f4 [2, 8]
000000 a2 e1 a3 be 6f 0f 95 be 8a 4a 96 3d 4f 5e 5d bd
       -0.32008082 -0.29113337 0.07338436 -0.054045018
000010 80 a5 85 3e ed ab 6e 3d 73 aa eb 3e 0d d5 53 3d
       0.2610283 0.05826943 0.4602848 0.051716853
000020 d1 86 a5 3e 02 a4 0f be ae 76 97 3d 6f 87 e2 3d
       0.3232942 -0.14027408 0.07395683 0.11060988
000030 88 4d d9 be fb 44 51 3d 10 3f 86 be 95 b1 81 bc
       -0.42441964 0.051091176 -0.26219988 -0.015831748

blocks.layers.0.sa.heads.1.value.weight f4 [2, 8]
000000 35 38 4d be 72 3d ac bc 94 a1 68 bd 7e fa 26 bc
       -0.20040973 -0.021025393 -0.056794718 -0.010191558
000010 88 36 5d bd 02 17 26 be 64 0f d0 bd 1f f8 67 bd
       -0.054007083 -0.16219714 -0.101591855 -0.05663311
000020 35 77 d6 bd b6 0e 2b 3e fd fb aa 3e ca e0 d8 3d
       -0.10471956 0.1670483 0.33395377 0.1058975
000030 8e c3 c7 3d f9 e8 43 be 00 ab a9 bd bb 77 48 be
       0.09754096 -0.19131841 -0.08284569 -0.19576924

blocks.layers.0.sa.heads.2.key.weight f4 [2, 8]
000000 62 16 6a be 47 c8 b2 3e f7 63 a7 3e 3d a2 03 bf
       -0.22860101 0.34918424 0.32693455 -0.5141943
000010 3c 7e ed bd 20 2a b5 3d a5 48 fc be d8 10 c2 be
       -0.11596343 0.08845925 -0.49274173 -0.37903476
000020 c9 ab 32 3e bb e8 a3 be 7e 20 8f be 65 9f 0e be
       0.17448343 -0.32013497 -0.27954477 -0.13927992
000030 80 a5 60 3e 9b eb 16 be 05 31 9b 3e cf 38 cf 3c
       0.21938133 -0.14738314 0.30310836 0.025295643

blocks.layers.0.sa.heads.2.query.weight f4 [2, 8]
000000 61 23 ba bd df 24 9e bd 36 e5 13 3f f7 cd 28 be
       -0.09088779 -0.07721876 0.57771623 -0.1648482
000010 06 bc 81 be 23 29 e7 3d 22 d1 ff bd d6 79 e5 be
       -0.25338763 0.11287143 -0.12491061 -0.44819516
000020 3c 39 6f be 5b e8 52 3e c0 dd 59 be 55 a4 bb 3e
       -0.23361677 0.20596449 -0.21275997 0.36648813
000030 27 01 b1 3e 56 67 93 bd e0 61 18 3d 13 fe ff 3d
       0.34571192 -0.07197444 0.037202716 0.12499633

blocks.layers.0.sa.heads.2.value.weight f4 [2, 8]
000000 7a c4 3c 3e 97 fc 33 be 94 18 44 3e c2 52 4f 3e
       0.18434325 -0.17576824 0.19150001 0.20246413
000010 7c f2 84 3e ae b8 00 3e e3 b1 41 3d ac 75 3f bc
       0.2596625 0.1257045 0.047288787 -0.01168577
000020 fc bb 4f 3d 25 bf 54 be d1 0d e7 bd 06 5e ec 3d
       0.050716385 -0.20776041 -0.11281932 0.11541371
000030 6a e6 3f be 22 73 ff bd 31 02 df bd 00 66 04 3e
       -0.1874024 -0.12473132 -0.1088909 0.12929535

blocks.layers.0.sa.heads.3.key.weight f4 [2, 8]
000000 4a a3 44 be c3 6f ee bc 44 0e 1d be 92 5f 01 bf
       -0.19202915 -0.029106027 -0.15337473 -0.50536454
000010 59 bd 0c bd 84 17 b4 3c 93 a6 5d be 37 49 5a 3e
       -0.034360263 0.02198387 -0.21645574 0.21316992
000020 b7 0e 25 3e 4e c4 27 3e 6e 23 60 be df d3 8d be
       0.16118895 0.16383478 -0.21888515 -0.27700707
000030 23 70 31 be 3d bc 88 be 8f c9 88 be a6 b0 22 3e
       -0.17327933 -0.26706114 -0.26716277 0.15887699

blocks.layers.0.sa.heads.3.query.weight f4 [2, 8]
000000 fb 0f 7b be 05 f7 5a 3e 6e 3b 74 be 71 6f 45 3d
       -0.24517815 0.21383293 -0.23850796 0.048201982
000010 e0 45 62 be f5 9f 0a 3e f3 1c 8e be a4 cb 5e 3e
       -0.22096968 0.13537581 -0.27756462 0.2175737
000020 a7 b9 9f 3d bd 22 ad 3e be 99 10 3e 75 97 94 3d
       0.07799082 0.33815566 0.14121148 0.07255451
000030 ec 37 98 3d 0c d3 a9 be cb fc 82 be a8 98 28 3d
       0.07432541 -0.33168828 -0.2558349 0.04116121

blocks.layers.0.sa.heads.3.value.weight f4 [2, 8]
000000 c1 39 70 3c 0e f7 6d 3d 60 78 cb 3d 10 e1 49 3e
       0.014662207 0.058096938 0.09935069 0.19714761
000010 bd 35 b4 3e 9b 26 c4 bc 95 d9 e3 bc bc a0 06 be
       0.3519725 -0.02394419 -0.027813712 -0.13147253
000020 62 87 4a 3d 83 6e 6b be 1c 5a 29 be 7c 79 99 3e
       0.049445517 -0.22991376 -0.1653828 0.29975498
000030 8c 3e 35 3e 31 bf fd bd c4 e6 96 bd 1f 22 a4 be
       0.17699641 -0.123899825 -0.07368234 -0.32057282

blocks.layers.0.sa.proj.bias f4 [8]
000000 7f 64 05 bd 75 a6 a8 3d ae fd a5 bc 48 33 58 3e
       -0.032566544 0.08234874 -0.020262565 0.21113312
000010 40 4b 16 be ed 29 7f be 1d 08 4d be 05 cc 93 3d
       -0.14677143 -0.24918337 -0.20022626 0.07216648

blocks.layers.0.sa.proj.weight f4 [8, 8]
000000 28 74 ef bd 17 78 42 3d 3e 43 e7 3c 22 89 9c 3d
       -0.11692077 0.047477808 0.028230306 0.076433435
000010 08 78 0d be 92 37 60 be b8 43 f7 bb da 69 91 ba
       -0.1381532 -0.21896198 -0.0075459145 -0.0011094168
000020 2f 58 86 be 63 14 28 bd 8e ca b1 3c 41 d7 af 3d
       -0.26239154 -0.041035067 0.02170303 0.08585978
000030 d1 5e df 3d 98 5b aa 3e f1 6c 6b be 93 74 5d 3b
       0.10906757 0.33273005 -0.22990777 0.0033791407
000040 23 28 bd bc 1e 5a 9f 3c 8b 2b ad bd 07 04 a0 bd
       -0.023090428 0.01945215 -0.08455571 -0.07813268
000050 ba fd 5a 3d f4 2b c4 bc bd 4e 04 3e 09 2f 52 bc
       0.05346463 -0.02394674 0.12920661 -0.012828597
000060 4b 7b 8b 3e 08 2c 96 be 6e bb b7 3c 5d 70 91 3e
       0.27242503 -0.29330468 0.02242824 0.2840604
000070 bc 40 92 3d 42 50 ac 3e 23 e0 b1 ba 7e 05 b1 bd
       0.07141253 0.33654982 -0.0013570826 -0.08643626
000080 36 53 78 be 10 af 55 3e 75 f0 63 3e a3 73 3c 3e
       -0.24250492 0.20867562 0.22259696 0.18403487
000090 c4 36 38 be 05 6b 85 be 32 8a b3 ba 43 9c 0c 3e
       -0.17989641 -0.26058212 -0.0013697802 0.13731484
0000a0 b8 a1 2f be 2b 4c 60 be 78 07 a4 be f0 5a 07 be
       -0.17151535 -0.21904056 -0.32036948 -0.13218284
0000b0 98 09 08 3e 5e b8 1d 3e 9f 6d 7a 3e 21 a2 a3 3d
       0.1328491 0.15402362 0.2445588 0.07989908
0000c0 8e d4 90 be 32 5b 55 be 69 d1 4f 3e f3 76 c6 bd
       -0.28287166 -0.2083557 0.20294727 -0.096906565
0000d0 c5 ad 8a 3e ea fc 18 be ca 57 56 be 5f 20 79 3e
       0.270857 -0.14940229 -0.20931926 0.24328755
0000e0 61 c8 4d 3e f5 2e 71 be 0d 00 82 3e 4b b9 1f bd
       0.2009597 -0.23553069 0.25390664 -0.03899507
0000f0 e4 c6 a6 38 69 f1 80 3d d6 b8 81 3e d2 05 6e be
       7.952543e-05 0.06296045 0.2533633 -0.23244408

blocks.layers.1.ffwd.net.layers.0.bias f4 [32]
000000 d5 0a 9f 3e aa 5e 9a be ee 01 5a 3e e4 1c a9 3d
       0.31062952 -0.30150348 0.21289799 0.082574636
000010 de 31 a3 be c4 60 0b be 9a eb 19 be 40 e3 6e bd
       -0.31873983 -0.13611132 -0.15031281 -0.05832219
000020 b0 2c 14 be de e1 73 be c7 58 70 3e ca ad 37 be
       -0.14470172 -0.2381663 0.23471366 -0.17937389
000030 8a 4e bb 3c f2 da 6d 3e 98 8e 9c 3e 9b ef bc bd
       0.022864599 0.23228052 0.3057754 -0.092253886
000040 de 14 87 3e 5b cc 54 be 7e a6 88 3e bd e8 83 be
       0.26383108 -0.2078108 0.26689523 -0.25763503
000050 59 61 c6 bd 30 6c 2a 3e 88 43 0d 3e ff fe 74 be
       -0.09686536 0.16642833 0.13795292 -0.23925398
000060 ff e6 e3 be 05 9c 6d 3e 58 b5 be be ec b1 de 3d
       -0.44512174 0.23204048 -0.3724773 0.1087378
000070 09 70 20 3e 10 08 37 3c 72 6d 34 be 0d 5a 47 3d
       0.15667738 0.011171356 -0.17619875 0.048669863

blocks.layers.1.ffwd.net.layers.0.weight f4 [32, 8]
000000 9b 53 e8 bd c6 b7 5e 3e 9e 45 8b 3e f4 8c f2 be
       -0.113440715 0.21749792 0.2720155 -0.47373164
000010 ab 9a ae be 62 dc ef 3d 33 f9 a4 bb 3b 69 d2 3e
       -0.34102377 0.117119566 -0.0050345897 0.4109591
000020 e7 ff 43 be 53 78 52 be 62 2d ec be 3c ce 8e 3c
       -0.19140588 -0.20553713 -0.46128374 0.017432325
000030 bf 11 65 be 26 d2 b7 be 08 5f 01 3d 02 9c 6b 3e
       -0.22370051 -0.35902518 0.03158477 0.23008731
000040 2f 4c cf be 1a 0a 81 bc 4e 46 b9 be 3c 2e 8a 3c
       -0.4048781 -0.015751887 -0.3618645 0.01686775
000050 d0 b8 a6 3e 8e f5 87 3e 7d cc 5f be 0b 4b ed bc
       0.32562876 0.2655453 -0.2185535 -0.028966447
000060 ea c4 be 3e 82 b8 f9 be 94 45 23 3e 4f 02 74 3e
       0.37259609 -0.4877358 0.1594451 0.23829006
000070 57 14 c5 3e 2e 7e 55 bd d6 39 9d 3d a4 12 bc 3e
       0.3849208 -0.052122287 0.07677047 0.36732972
000080 6c 74 b6 3d e1 18 92 3e c2 a8 a4 3d da 66 21 be
       0.089089245 0.28534606 0.080400005 -0.15761891
000090 6f ab 25 3e 4f 22 74 be c9 7d 12 3e 71 d4 5e 3e
       0.16178678 -0.23841213 0.14305796 0.21760727
0000a0 36 b6 89 3e 1d 56 e9 be 8d cf a5 be f3 3c fb bd
       0.26896828 -0.45573512 -0.3238491 -0.122674845
0000b0 ab a3 c1 3e 34 09 c1 bd df b8 c7 bd e5 06 5a 3e
       0.3782018 -0.094255835 -0.09752058 0.21291693
0000c0 90 3e 9b 3e af ef 9b be 9f 82 53 be dc 37 16 3e
       0.3032117 -0.30456302 -0.20655297 0.14669746
0000d0 13 79 da 3e fe 49 08 be c8 20 97 be 10 78 a5 3e
       0.42670497 -0.13309476 -0.29517198 0.32318163
0000e0 ff 77 ee 3d 08 94 4c 3e 6f 89 e3 3d 42 25 92 3e
       0.11643981 0.19978344 0.11110198 0.2854405
0000f0 83 b8 f8 bd ef 4c 9d bd 73 86 dd bc 7b 75 e3 3e
       -0.12144568 -0.076806895 -0.02704165 0.44425568
000100 91 49 2a bd 3f 5d 0e be 90 a5 d0 3e 4b 86 ab bc
       -0.041574065 -0.13902758 0.40751314 -0.02093806
000110 76 8a 89 bd 68 50 8b 3e 74 54 59 3e 3b 2e 8b be
       -0.067158625 0.27209783 0.21223623 -0.2718371
000120 3b 55 90 bc 60 03 4f be 0f 9e 02 bf e8 8e 5d be
       -0.017618766 -0.20216131 -0.5102243 -0.21636546
000130 f5 d4 d9 3e d6 40 94 3e ad 0e 12 be 3c ad 53 3e
       0.42545286 0.28955716 -0.14263411 0.20671552
000140 3e b7 a0 be 77 8a b9 be a4 09 99 3e 0d a4 07 bd
       -0.31389803 -0.36238453 0.29890168 -0.033115435
000150 2d fc 98 3c 0d 14 c8 3e 14 e5 fa 3d 58 64 72 bc
       0.018674934 0.39077798 0.122507244 -0.014794432
000160 e2 ae cc 3d ea 17 c6 be 51 7f 57 3e 46 7c d6 bd
       0.09994294 -0.3869012 0.21044661 -0.10472922
000170 1a 54 0b bd 24 7f 9e 3e 1a 46 8d be 26 08 b5 3d
       -0.034015752 0.30956376 -0.27592546 0.08839445
000180 db 10 59 3e 93 06 6e 3b e1 63 0c 3e e2 2a df 3e
       0.21197836 0.0036319837 0.13709976 0.43587404
000190 3a 09 86 bd 03 df 66 be 54 f6 92 3e 64 a1 0c be
       -0.065447286 -0.2254601 0.28703558 -0.1373344
0001a0 da 0e 2a 3b 82 ff f5 be 55 dc f7 3d 7b 87 8f be
       0.0025948794 -0.480465 0.12102572 -0.2803305
0001b0 cd 12 22 3e 90 44 c2 3d 35 35 27 3e b0 44 cf bd
       0.15827484 0.094857335 0.1632889 -0.10120523
0001c0 31 b2 6e 3e 30 8a 58 be 25 60 54 3e f9 c1 b6 bd
       0.23310162 -0.21146464 0.20739801 -0.08923716
0001d0 b1 6d 5a 3e c5 9c 2e 3e 73 2f ba 3e d9 03 4b bd
       0.21330906 0.1705199 0.36364326 -0.049564216
0001e0 60 6c 88 be 95 b0 39 be 6e 81 31 be 29 64 0f 3e
       -0.26645184 -0.18133767 -0.1733453 0.14003052
0001f0 b6 91 35 be a5 7e a4 be 29 ea 93 3e 5e 8d 2e be
       -0.17731366 -0.32127872 0.28889588 -0.17046115
000200 2d db a1 be ea 24 17 3d b8 69 19 be ff 56 91 be
       -0.3161253 0.03690044 -0.14981735 -0.28386685
000210 11 54 b2 bd f4 b6 3a 3e 47 ec 65 be 47 32 95 3e
       -0.08707441 0.18233854 -0.22453414 0.2913992
000220 de 78 ce 3d 1a d5 dc bd 69 0b 9b 3d 04 34 eb 3e
       0.10081647 -0.107828334 0.07570536 0.45938122
000230 8f be 81 be 4b 13 a1 be 88 fb 5c 3e 60 e6 f7 bd
       -0.25340697 -0.31460032 0.21580327 -0.121044874
000240 e3 af 99 bd be d1 0b be da 78 e9 bd 7a b8 09 3e
       -0.07504251 -0.13654229 -0.11400004 0.13449278
000250 cb 10 e8 bc f3 d4 ce be 82 42 76 3e 72 3f 3c 3d
       -0.02832832 -0.40396842 0.24048808 0.045958944
000260 83 09 97 3e 2a 97 36 3e 00 26 95 3d 3e 71 ea bd
       0.29499444 0.17831102 0.072826385 -0.114473805
000270 e9 95 03 be 4b 6f 88 3d 89 39 d3 be b6 88 de bc
       -0.12850155 0.066618524 -0.41254833 -0.027164798
000280 92 88 9b 3d 1f bf 7b be 1e d7 c3 bc 1c 50 b7 3e
       0.07594408 -0.24584626 -0.023906287 0.35803306
000290 d2 a7 10 be 22 06 d1 3a c5 a7 ff bd cd cb af 3d
       -0.14126518 0.0015947262 -0.124831714 0.08583794
0002a0 d0 c2 96 be e7 fa 15 be 85 9f ba be ad dc 55 3e
       -0.29445505 -0.14646493 -0.3644983 0.20884962
0002b0 eb c1 2e 3e 9f dd c6 be 19 e9 e1 3e 23 6e 82 bd
       0.17066161 -0.38840958 0.44123152 -0.06368663
0002c0 36 24 dd be f8 dd 9f 3d 03 92 4c 3d bb 61 1c 3d
       -0.4319169 0.07806009 0.049943935 0.03817914
0002d0 7b d8 8b 3e a4 8e 16 3e a8 27 80 be 5f 32 31 3e
       0.273136 0.1470285 -0.25030255 0.17304371
0002e0 b8 e1 07 3f 90 f9 91 be 73 28 03 3e e1 4d 9b be
       0.53078794 -0.28510714 0.12808399 -0.30332854
0002f0 d1 35 2e 3d ab ca d1 bd cc 09 0a bf 78 f4 35 bd
       0.042531792 -0.10243734 -0.539212 -0.044422597
000300 ea 37 1d 3e d1 eb ab 3a 78 21 f6 3d f8 4d 0d 3e
       0.15353361 0.0013116543 0.120181024 0.13799274
000310 d0 f1 1b 3e cd 41 ad bd ec e2 69 be 2d 16 07 3e
       0.15228963 -0.08459816 -0.2284047 0.13192053
000320 4b 2e 67 be 67 f6 92 bd dc 63 8b 3d c3 5b 31 be
       -0.22576253 -0.07175904 0.06806156 -0.1732016
000330 de 92 cf bd 6f 85 be 3c 1c 07 97 bd 86 f4 f0 be
       -0.101354346 0.023256985 -0.07374403 -0.47061557
000340 54 3b 32 3e ad 46 22 3e 8c 96 61 3d f3 ee 39 3d
       0.17405444 0.15847273 0.055075213 0.045393895
000350 79 3c a8 3d 2a a4 f6 3d 4d ac a5 3d 9e b7 08 3d
       0.08214659 0.120430306 0.080895044 0.033378236
000360 b9 cf 52 be 5c c2 54 be 48 12 9b 3d e4 3f ec 3d
       -0.20587052 -0.20777267 0.07571846 0.11535624
000370 2f 6a 82 be 98 05 5c 3e 58 55 b4 bd bc 71 d0 be
       -0.25471637 0.21486509 -0.088053405 -0.40711772
000380 e8 74 40 be 2a f1 db bd 3a 80 be 3e cc bc 91 3e
       -0.18794596 -0.10739358 0.37207204 0.28464353
000390 e1 9d 43 be 21 1d ed 3e 7d 5f 6e be 18 2c b1 3c
       -0.19103195 0.46311286 -0.23278613 0.02162747
0003a0 45 2f a3 3d dd df 9b 3e 75 6b 07 3e 76 81 e4 bd
       0.07968 0.30444232 0.13224585 -0.11157505
0003b0 bd ab 81 be ff e5 5a bd 43 85 d0 3e a1 db fb 3d
       -0.25326338 -0.053441998 0.4072667 0.1229775
0003c0 0b 59 51 3e 5b b5 01 bc 1c be 21 3e 49 70 3d be
       0.20444123 -0.007916774 0.15795177 -0.18499865
0003d0 44 3d ff 3d 1c ac a7 be e3 3f 95 be 5d 2f a5 3e
       0.12462857 -0.32748497 -0.29150304 0.32262698
0003e0 c4 34 66 be 72 49 a3 3e e0 5f fe bd c7 6a 10 be
       -0.22481066 0.31891972 -0.124206305 -0.14103232
0003f0 b6 f4 bf 3d fe b7 bf bd 49 0c 59 3d 18 12 0a 3f
       0.09372847 -0.093612656 0.05299023 0.5393386

blocks.layers.1.ffwd.net.layers.2.bias f4 [8]
000000 fe 66 06 be 42 5f 8f bd 22 9f db bd 8a 02 09 3e
       -0.13125226 -0.07000591 -0.107237116 0.13379875
000010 f7 a9 20 be 4f c1 09 3d 6c fe d7 bc bf 72 8e bc
       -0.15689836 0.03363162 -0.026366435 -0.0173887

blocks.layers.1.ffwd.net.layers.2.weight f4 [8, 32]
000000 3a 90 09 3e 47 10 32 be 38 f0 dc 3d 55 3f 68 3e
       0.13433924 -0.17389022 0.107880056 0.22680409
000010 7b a2 ff 3d af 1d 5d 3e cf 82 6c bc ab 1e 8e be
       0.124821626 0.21593355 -0.014435484 -0.27757773
000020 6e f5 bf bd 5f 45 36 3e 66 bc 94 3e 98 e7 ad 3c
       -0.09372984 0.177999 0.29049987 0.021228597
000030 64 ee 27 be 8d 7e 9c 3d 65 dc 7e bd 8c 59 9b 3d
       -0.16399533 0.07641325 -0.062221903 0.07585439
000040 71 5f 90 bd 7d f0 2f be b3 b4 a4 bd 01 f5 19 bc
       -0.07049454 -0.17181583 -0.08042278 -0.009396792
000050 11 44 23 3d cb e5 3c 3d d8 1a 64 3e e7 27 0c 3e
       0.039859835 0.046117585 0.22275865 0.13687097
000060 ac 8a 3b 3e d9 33 a2 bc 73 ac 0c 3d f0 a2 0e be
       0.18314618 -0.019800114 0.034344148 -0.13929343
000070 b3 a5 3b 3d a1 65 04 3d 40 da 21 be 67 ff 93 bd
       0.04581232 0.032323483 -0.15805912 -0.072264485
000080 64 fd b9 bd 27 49 27 3e 8d 3e 66 be d5 4b 07 3c
       -0.090815336 0.16336499 -0.22484799 0.008257826
000090 f1 1b 86 bc 15 04 cc be da 33 2e be b6 dd 10 3e
       -0.016370745 -0.39846864 -0.17011967 0.14147076
0000a0 3e f7 a5 3a c6 f4 b7 be a7 2d 93 bc ca 3b 69 3c
       0.0012662185 -0.35928935 -0.017966105 0.014235446
0000b0 f3 09 b4 3d e0 46 43 be c9 e2 28 be 21 01 32 3e
       0.0879096 -0.19070005 -0.16492762 0.17383243
0000c0 49 36 6d bd 4b 80 35 3e e6 d4 42 3e 3b 7b 7b 3b
       -0.0579131 0.17724721 0.19026527 0.0038373012
0000d0 e9 aa af 3d bc 66 a2 3d 09 6b e8 3b 3a 5b 3f 3e
       0.085775204 0.07929751 0.0070928377 0.18687144
0000e0 f2 22 36 be 38 83 b4 3d d6 6b ae bd 52 85 88 3d
       -0.17786768 0.088140905 -0.08516662 0.06666054
0000f0 34 3e ae 3d ea 8f 4d 3c 71 e2 46 bd 38 60 02 bc
       0.08507958 0.012546519 -0.048555795 -0.007957511
000100 5d 7e 50 3d 33 34 c7 3e bd 82 a4 3c 82 94 57 be
       0.05090176 0.38907012 0.020081872 -0.21052745
000110 ca 03 c3 3c 9c 11 47 be 41 f2 08 be 3a f7 27 3e
       0.023805518 -0.19440311 -0.13373663 0.16402903
000120 5e 64 69 3e 4f 66 17 be bc b4 8c 3e b9 ac 78 be
       0.22792193 -0.14785121 0.2748164 -0.24284638
000130 24 62 18 be 0f 9e 83 bd 7f 41 be bc 40 3a 4e be
       -0.14881188 -0.06426632 -0.02322459 -0.20139408
000140 cc 5e 1c 3d 05 cc 2c bd 13 ba 74 be ad d7 45 be
       0.038176343 -0.042186756 -0.23899107 -0.19320555
000150 11 38 4e be 43 17 21 be 96 b5 d9 3d 5f 9b 55 be
       -0.20138575 -0.1573153 0.10630338 -0.2086005
000160 78 b8 e7 bc a9 08 74 3e 38 54 07 bd 17 61 65 3e
       -0.028286204 0.23831429 -0.0330393 0.22400318
000170 c9 44 f2 3d 59 ce 00 3e cd 28 ac bd 51 8b b3 3e
       0.11829526 0.12578715 -0.0840622 0.35067227
000180 8a ea 83 be e1 f6 12 bb cd 85 00 be 74 49 23 bd
       -0.25764877 -0.0022424983 -0.12551041 -0.039864972
000190 26 76 10 3d 2a db 26 3e 64 cb 75 3e 9d e2 8d bd
       0.035268925 0.16294542 0.24003369 -0.06927989
0001a0 9d 36 70 be e6 2d ac 3d c9 94 69 be 83 58 01 3e
       -0.23458333 0.08407192 -0.22810663 0.12631421
0001b0 9a 33 96 3c 24 61 0c bb 40 95 14 3d 0b eb e6 3d
       0.018335152 -0.0021420205 0.03627515 0.112753
0001c0 00 02 b6 bd f5 3f 71 3e 93 65 78 bd b0 ac 0b be
       -0.088871 0.23559554 -0.060643744 -0.13640094
0001d0 f2 3c 0a be 5d d9 dd 3d 7f 5d 9d 3c b2 7a b3 bc
       -0.13499811 0.108324744 0.019209621 -0.021909092
0001e0 22 68 c0 bd 23 d1 d5 bb ab a9 27 be e9 8f 0a be
       -0.09394862 -0.006525175 -0.16373317 -0.1353146
0001f0 27 80 bf 3c f0 1b 50 3c 87 20 49 3e da f9 7d be
       0.023376537 0.012701973 0.19641314 -0.24802342
000200 96 09 60 be 39 94 c0 3d e7 e6 81 bd fa dd 69 bd
       -0.21878657 0.09403271 -0.06342869 -0.05709646
000210 43 e5 33 bd d9 bc a4 bd c5 ef 8c 3c 2f 89 03 be
       -0.043919813 -0.08043832 0.017204175 -0.128453
000220 a4 6b b5 3e a0 b9 bb bb 97 cd eb 3d ad 6e 35 bd
       0.35433686 -0.0057289153 0.115138225 -0.044295
000230 84 0e 0b 3c b8 5c 5b 3e de 40 91 3d 07 8d 09 be
       0.0084873475 0.21422088 0.070924506 -0.13432704
000240 f0 f3 5c be c8 00 e7 3b d7 87 b4 3a 6d 53 de bd
       -0.2157743 0.0070496537 0.0013773394 -0.10855756
000250 cd 3f ba bb 1b 9d e8 bd b2 38 38 bd 96 60 8e 3c
       -0.005683875 -0.113580905 -0.044975944 0.01738004
000260 ac 58 c1 bd 84 82 6d 3e 14 30 30 3c ed 36 8c 3e
       -0.09440741 0.23194319 0.01075365 0.27385655
000270 7d 5a 7c 3e 5a 2c 22 3d 9a 71 43 be cf ca 86 bd
       0.24643894 0.03959308 -0.19086304 -0.065816514
000280 02 1e 4f 3c 37 40 25 3e be c9 3f be 8d 7d 43 bd
       0.012641432 0.16137777 -0.18729302 -0.047727156
000290 c1 c7 54 3e 58 91 47 3d 2d 2a f8 3c a2 c5 dd bd
       0.20779325 0.048722595 0.030293548 -0.10828711
0002a0 29 30 80 be cd 8d f5 bd 24 a3 2d be c1 6a 43 be
       -0.25036743 -0.11989937 -0.16956764 -0.19083692
0002b0 d1 77 da bd 65 89 68 3d 4c 67 e6 bd f1 e8 17 3e
       -0.106673844 0.056771655 -0.11250171 0.14834954
0002c0 ab 0e 28 bd 1d 45 bb bd 1f c0 3d 3e 49 99 43 3b
       -0.041029613 -0.09144042 0.1853032 0.0029846004
0002d0 7c ed 09 3c 1b e6 f2 bd b0 56 2e 3e 05 e8 8f 3e
       0.008418437 -0.118602954 0.17025256 0.28106704
0002e0 5e b0 8e 3d f2 f5 cf bd 06 20 a8 bd 0b ae 01 bd
       0.06967233 -0.10154332 -0.08209233 -0.03166012
0002f0 89 c0 18 be cc a8 87 bd 2c 18 a0 3e 64 2e 9c 3d
       -0.14917196 -0.06623992 0.31268442 0.07626036
000300 5f dc 4f be bf e3 88 bd bb f5 50 3d 7f d5 4e 3e
       -0.20298909 -0.06684064 0.051015597 0.2019863
000310 f1 5c 46 3e 1f 6a eb 3d 80 66 84 3e 52 fb b7 3e
       0.19371392 0.1149485 0.2585945 0.3593393
000320 25 1a a0 3b a4 89 79 3e 95 9f ad 3d 13 7e 4e be
       0.004885929 0.24368912 0.084777035 -0.20165281
000330 e1 38 22 bd f2 0f 79 3d c6 ce 51 be 48 57 e6 39
       -0.039605025 0.060806222 -0.20489034 0.00043934048
000340 55 8e 92 3d 82 35 73 3d 3a 6d 21 3e 43 2a d3 be
       0.07156054 0.0593772 0.15764323 -0.4124318
000350 30 a1 b1 3d c6 0b 07 be 4b 02 de 3d 14 4e d4 bd
       0.08673322 -0.13188085 0.10840281 -0.10366455
000360 8b f3 14 be 2e 78 7a bb e8 52 87 bd e4 5e 39 3d
       -0.1454603 -0.0038218605 -0.0660761 0.04525651
000370 a8 6e ef bc 27 4f 0f 3e 07 0c 65 3e 29 1c cd 3b
       -0.02922757 0.13995038 0.2236787 0.0062594605
000380 32 fc 88 3e 4f d9 7f be 6d 3f 2f 3e 56 c1 3d 3e
       0.2675491 -0.2498524 0.17114039 0.18530783
000390 1b 15 50 3e e1 7b 32 3d 36 35 01 3e e9 b8 4b 3c
       0.20320551 0.04357517 0.12617955 0.012434223
0003a0 c8 ca c7 bd 87 e3 5a 3d de f8 b4 3d 01 71 80 bd
       -0.09755474 0.053439643 0.0883653 -0.06271554
0003b0 e1 ec 5e bd 4d 0e 09 be 86 55 27 be 95 2b 8a bb
       -0.054425124 -0.13384362 -0.16341218 -0.004216621
0003c0 28 59 6f 3d d8 ff d6 3c b9 26 d1 3d 58 26 3c bd
       0.058434635 0.026245043 0.10212464 -0.045935005
0003d0 d6 0e 08 be 33 51 22 be 7b 7d c8 bb 36 63 ce 3d
       -0.1328691 -0.15851288 -0.006118474 0.10077517
0003e0 ea ed f4 bd e4 bf eb bd 5f 6f 6a 3c 74 e6 42 bd
       -0.11959441 -0.115112096 0.0143087795 -0.04758306
0003f0 e1 cf f0 bb 8f 2a 77 3e 0a dd d2 bd e5 92 a1 3e
       -0.007349 0.24137329 -0.10296066 0.31557384

blocks.layers.1.ln1.bias f4 [8]
000000 44 55 0c 3a 40 a9 4c 3d 9c 0b 45 3c 97 08 4a 3d
       0.0005353282 0.049966097 0.012026694 0.0493246
000010 8a ee d8 bc 3a 8d ec bd 47 c8 28 3c ff 63 fb bc
       -0.026480932 -0.11550374 0.010301656 -0.03068733

blocks.layers.1.ln1.weight f4 [8]
000000 ae 54 77 3f 08 6b 7a 3f 8b e7 74 3f 18 af 75 3f
       0.96613586 0.97819567 0.95665807 0.95970297
000010 e8 cb 6c 3f cf 3d 66 3f ee 6b 71 3f 7c b6 84 3f
       0.92498636 0.8993806 0.9430531 1.036819

blocks.layers.1.ln2.bias f4 [8]
000000 52 26 45 be d4 e3 af bd ed f5 bd bc 8c 5f 9a bd
       -0.192529 -0.08588377 -0.023188556 -0.07537755
000010 12 28 a9 bd 26 be 7d 3d 57 1b 29 ba 6d 0f 99 3c
       -0.08259596 0.061948918 -0.00064509123 0.018684113

blocks.layers.1.ln2.weight f4 [8]
000000 55 f7 7d 3f 9c bf 90 3f 20 fc 69 3f f7 be 98 3f
       0.99205524 1.1308475 0.9140034 1.1933278
000010 02 ea 81 3f 6a 05 80 3f 28 52 78 3f 72 8e 9c 3f
       1.0149539 1.0001652 0.9700036 1.2230971

blocks.layers.1.sa.heads.0.key.weight f4 [2, 8]
000000 2a 18 9c be 10 05 be bd b0 b5 43 3e a8 39 ba be
       -0.30487186 -0.09278309 0.19112277 -0.36372113
000010 88 3d 81 3e 2f 6d bc 3e 24 94 0f 3e fa 53 92 3e
       0.25242257 0.3680205 0.14021355 0.28579694
000020 e8 36 bf 3c ab 9d fb be a2 bd c1 bb 30 13 e6 3e
       0.023341611 -0.4914373 -0.0059124986 0.44936514
000030 b2 02 d3 3d 6c 6f 42 be 96 62 c3 bd dc 4d ad 3d
       0.103032485 -0.18987817 -0.09540288 0.08462116

blocks.layers.1.sa.heads.0.query.weight f4 [2, 8]
000000 ae c9 3b 3e 99 15 48 be b6 91 ea bd 34 42 88 3e
       0.18338653 -0.19539489 -0.114535734 0.2661301
000010 40 29 84 bd f5 39 79 be 40 f9 09 be 5f 6e 19 be
       -0.0645318 -0.24338515 -0.13473988 -0.1498351
000020 f5 9e d5 be 46 31 4b bd 2e 69 d7 be 0d d1 3d be
       -0.41722837 -0.049607538 -0.42072433 -0.18536778
000030 b6 88 83 be 45 09 87 3d 6e c2 9a 3d 96 23 54 3b
       -0.2569024 0.06593565 0.07556616 0.0032369844

blocks.layers.1.sa.heads.0.value.weight f4 [2, 8]
000000 f6 45 a2 3d e0 cf a4 bd 6a bd ed bc 8b 03 83 be
       0.079235 -0.080474615 -0.029020984 -0.2558864
000010 dc 81 95 be d4 0a 08 3e 18 b7 93 3e 1d 7f ab bd
       -0.29200637 0.1328538 0.28850627 -0.08373854
000020 79 b5 0b be 3b 17 8f bd 03 3f 49 bd 2d 3e 82 be
       -0.13643445 -0.06986853 -0.04913236 -0.2543806
000030 e2 37 80 ba 80 39 94 be 59 b1 ca 3d 77 dc bf bd
       -0.0009782279 -0.2895012 0.09897108 -0.09368222

blocks.layers.1.sa.heads.1.key.weight f4 [2, 8]
000000 ae 38 96 bd ab 7b b8 be 7c 0e 9a bd 0f cd c2 be
       -0.073350295 -0.3603185 -0.07522294 -0.38047072
000010 5b 41 03 3e 4b 68 6b be 4a ff 85 be a8 fe b6 be
       0.128179 -0.22989003 -0.26171333 -0.35741162
000020 d0 69 01 be d9 1c 25 3d 82 f7 1d 3e 5c 3f ac be
       -0.1263802 0.040310714 0.15426448 -0.3364209
000030 fb 0a 38 be f9 3d d0 bd d3 75 7d 3e 2f a1 51 be
       -0.17972939 -0.1016807 0.24751978 -0.20471643

blocks.layers.1.sa.heads.1.query.weight f4 [2, 8]
000000 46 eb 75 be 51 57 15 bc 12 f8 fe 3e e6 c8 a3 3d
       -0.24015531 -0.009115056 0.49798638 0.07997303
000010 b0 7e b8 be ad 7d fc 3d 18 e7 5a bd d3 04 3e be
       -0.36034155 0.12328658 -0.053443044 -0.18556528
000020 2e b4 1a 3e 42 23 fe 3d 41 d8 7c 3e 9d 12 b1 be
       0.15107796 0.12409069 0.2469187 -0.34584513
000030 4a 2c 1a 3d a7 6e 83 be 02 39 6d be 7e be 52 bc
       0.037639894 -0.2567036 -0.23166278 -0.0128628

blocks.layers.1.sa.heads.1.value.weight f4 [2, 8]
000000 be f6 c8 bd 74 74 72 be 98 ca 25 3d 27 6d 55 3e
       -0.09812687 -0.23677236 0.04047641 0.2084242
000010 c3 70 0f 3d 2f 0e 96 3d 78 8e a2 be 1a 54 11 3d
       0.035019647 0.07326924 -0.3174932 0.035480596
000020 93 e5 93 be d3 14 15 3e dc c8 5a be 71 a0 89 3e
       -0.2888609 0.14558725 -0.21365684 0.2688022
000030 01 8c 40 bc a0 b9 9d bc 3d 13 ae be cf 3a 3f 3e
       -0.0117521295 -0.019253552 -0.33999053 0.18674777

blocks.layers.1.sa.heads.2.key.weight f4 [2, 8]
000000 00 c6 61 3d 59 be 3f be 6c 66 90 be 4a 80 42 3e
       0.05512047 -0.18724956 -0.28203142 0.18994251
000010 c0 4e 4a 3e b9 eb b4 3e a4 e4 04 be 26 be 5d 3e
       0.19756603 0.35336092 -0.12977844 0.21654567
000020 8e 24 d3 be 7a b0 b1 be be 0b 9e 3d 0a 7a c9 3e
       -0.41238827 -0.34704953 0.077170834 0.3935092
000030 b0 70 59 be 2b c9 e1 3d 58 45 41 3d 33 44 d3 be
       -0.21234393 0.11024698 0.047185272 -0.4126297

blocks.layers.1.sa.heads.2.query.weight f4 [2, 8]
000000 7a 3b e4 3d 29 6e 92 3c e8 76 c2 3d 22 7a b1 be
       0.11144157 0.017874794 0.09495336 -0.34663492
000010 aa 27 ce 3e 9d 59 e8 bc 3a e3 29 3e 4a e3 22 bc
       0.40264636 -0.028363043 0.16590586 -0.009941885
000020 0d dd 00 3d 0f c3 b2 3e d7 b3 47 bd 91 e5 d3 3e
       0.03146081 0.34914443 -0.048755493 0.41386083
000030 2c 18 49 3d 77 df b9 be c8 00 29 3e 41 f9 82 3e
       0.049095318 -0.36303303 0.16504204 0.2558079

blocks.layers.1.sa.heads.2.value.weight f4 [2, 8]
000000 5e 4c e0 3d d9 28 08 3d 7a db 69 be b2 5b 64 be
       0.10952066 0.03324208 -0.2283763 -0.22300604
000010 bb c1 59 be f2 3a a8 bc d3 e3 a0 3d 88 29 44 3e
       -0.21265309 -0.02053592 0.07855954 0.19156468
000020 70 3e 60 be 42 ee 58 be c3 8b d7 3d 62 16 a8 3c
       -0.21898818 -0.21184638 0.10524704 0.020518485
000030 1a 6d d2 bd 1e 38 20 be 41 29 f4 3d 37 9e b3 be
       -0.10274716 -0.15646407 0.11921931 -0.35081646

blocks.layers.1.sa.heads.3.key.weight f4 [2, 8]
000000 56 01 4b be 85 d0 54 3d 94 cf 2a 3e 6b 98 9a be
       -0.19824728 0.051956672 0.16680747 -0.3019441
000010 4a 11 1f 3e d6 12 81 3e db fa 9c 3e 40 5b 1c be
       0.15533939 0.25209683 0.30660138 -0.15269184
000020 a2 99 77 3e 80 3f b5 3e a7 0b 88 3e be f1 6e be
       0.241797 0.3540001 0.2657139 -0.23334405
000030 e3 45 e0 3e 57 84 b2 bb 00 18 4c 3d 94 bb d0 be
       0.4380332 -0.005447905 0.049827576 -0.4076811

blocks.layers.1.sa.heads.3.query.weight f4 [2, 8]
000000 b3 0f 1d 3d fb ef 08 be a9 a5 a3 3e 48 36 3a 3e
       0.03834505 -0.13372795 0.31962326 0.18184769
000010 03 3f ab be 33 61 9e 3e af a9 87 be 42 7a f5 be
       -0.33446512 0.30933532 -0.26496646 -0.47944838
000020 e5 d5 db bd 6a 81 c5 3e 2f b8 ef 3d 56 37 93 3e
       -0.107341565 0.38575298 0.11705052 0.28753155
000030 f4 b1 a9 bd f6 b0 7c 3e dd 46 42 3e 7b e5 e6 be
       -0.08285895 0.2467688 0.18972345 -0.45096955

blocks.layers.1.sa.heads.3.value.weight f4 [2, 8]
000000 b6 6d b5 bd f2 be c2 3d 30 a1 24 bd 2b d8 38 3e
       -0.08858816 0.09509076 -0.040192783 0.18051212
000010 fa ea 49 3e 76 0e c7 bd 7c 6a 78 bd 95 fd 0e be
       0.19718543 -0.09719555 -0.060648426 -0.13963921
000020 10 e6 83 3c d1 20 8d bb c7 3c 47 be 6d 95 a2 3e
       0.016100913 -0.0043068905 -0.19456778 0.31754628
000030 6b b3 86 bc 22 ca 1a be 1c 80 50 be e2 a8 2f 3e
       -0.016442975 -0.1511617 -0.2036137 0.17154267

blocks.layers.1.sa.proj.bias f4 [8]
000000 0c d1 87 3e 64 7c f5 bc 2d 6f 46 3e 76 b5 12 3d
       0.26526678 -0.02996654 0.19378348 0.035817586
000010 e8 f4 01 bd 3d 2c 45 be 25 d9 02 be fa 9a 10 be
       -0.0317277 -0.19255157 -0.12778147 -0.14121619

blocks.layers.1.sa.proj.weight f4 [8, 8]
000000 16 5c 54 be 75 28 58 bd a5 c6 9b 3b b0 0f 12 be
       -0.20738253 -0.052772958 0.004753905 -0.14263797
000010 3d 22 e6 bd 40 ea 96 be b9 5c ee bc 03 3d 38 3e
       -0.11236999 -0.29475594 -0.029096948 0.17992024
000020 6c c7 93 3d 0a e2 2d be 2b 60 80 3e d8 e5 7d be
       0.07215771 -0.16980758 0.2507337 -0.2479471
000030 6e 98 9e 3e 09 6e 7c 3e fe 8a 25 be 2a 94 89 be
       0.3097567 0.2465135 -0.16166303 -0.26870853
000040 cc 74 6c be dc f8 8c bd b2 10 3a bd 43 78 dd 3a
       -0.2309143 -0.06883404 -0.04542608 0.0016896803
000050 b5 46 34 3e e0 4e 41 be e8 11 5c 3e 05 77 55 be
       0.17605098 -0.18877745 0.21491206 -0.20846184
000060 89 6c ef bd 3c 02 7b 3e 97 fb c8 3d a7 50 87 3e
       -0.11690623 0.24512571 0.09813612 0.2642872
000070 78 0e 32 3e f1 a1 36 3e b3 47 77 be d7 1b 81 be
       0.17388332 0.17835213 -0.24148445 -0.25216553
000080 e5 83 37 3e dc d1 fc 3d 27 e1 46 3e 98 f5 5c be
       0.17921408 0.12344715 0.19421826 -0.21578062
000090 38 8e 49 3e cd 07 23 bd 19 68 91 3d cd b4 5e be
       0.19683158 -0.03980236 0.07099933 -0.21748658
0000a0 82 05 88 3e 51 32 80 bd 47 9b c4 be 3c 1e e5 bd
       0.26566702 -0.06259597 -0.38399717 -0.111874074
0000b0 2a 07 ed 3d ad 71 44 3e 0e b5 7d 3e 29 c9 c9 3d
       0.11573632 0.19183989 0.24776098 0.098528214
0000c0 b6 83 67 be ec 1f 34 be cc 3b 96 bd 81 27 72 bd
       -0.22608837 -0.17590302 -0.07335624 -0.059119705
0000d0 83 69 c6 3c 93 05 69 3e ed a5 9a 3e 2a e5 98 3e
       0.024220234 0.22756033 0.30204716 0.29862338
0000e0 01 c8 35 be da af 77 3e 01 64 b3 be b2 64 4b bc
       -0.17752077 0.24188176 -0.35037234 -0.012414144
0000f0 a2 29 80 be 10 d3 44 be 10 04 40 3c 4f 0a 06 bd
       -0.25031763 -0.19221139 0.011719719 -0.032724675

blocks.layers.2.ffwd.net.layers.0.bias f4 [32]
000000 c6 7b bb bd 54 8f 93 bd 12 51 7e 3d ed db 92 3d
       -0.09154467 -0.07205072 0.062089033 0.07170854
000010 10 26 6f be 44 86 9e bd bf 3d 95 3b 68 11 5d 3c
       -0.23354363 -0.07740453 0.00455448 0.0134929195
000020 51 b9 6e 3e e8 f1 e2 bd c7 30 08 bf 8f 86 67 3e
       0.2331288 -0.11081296 -0.5319943 0.22609924
000030 05 95 9a be db 66 e3 bd 4c d4 56 be 2d a5 7e be
       -0.30191818 -0.111036025 -0.20979422 -0.24867697
000040 3e 7b 9c 3e af d9 ed 3d fb 69 66 be cf f7 e5 bd
       0.30562776 0.116137855 -0.22501366 -0.11228906
000050 5b 14 01 be e1 3d 5a be c3 8b 4f 3d 00 be 90 be
       -0.12605421 -0.21312667 0.050670397 -0.28269958
000060 4f 89 46 3d f4 72 1e bd d2 ae 27 3c b4 10 c3 be
       0.04847079 -0.038683847 0.0102345515 -0.3809868
000070 48 c8 99 be 13 3e 52 3d c3 72 9c 3e 24 92 3a 3e
       -0.30035615 0.05132873 0.30556306 0.1821981
