weights_s2s.safetensors (safetensors, 113058 bytes, 188 tensors)

decoder_stack.0.ca.heads.0.key.weight f4 [4, 16]
000000 9a bb 6b 3e 80 b6 55 3c a3 a4 7f bc 6c d8 b2 bd
       0.23020783 0.013044 -0.015603217 -0.087326854
000010 c5 98 52 be ab ba f5 bd 57 af 42 be 52 6c 69 be
       -0.2056609 -0.11998495 -0.190122 -0.22795227
000020 2a 5b df bd 81 29 da 3d f2 10 17 3d 0b 46 37 be
       -0.1090606 0.106524475 0.036881395 -0.17897813
000030 f4 57 97 be bd 25 47 bd d8 65 3d be a1 25 aa 3d
       -0.2955929 -0.048619974 -0.18495882 0.083079584
000040 f1 c2 5f be e9 5f 82 be c7 40 7a 3d 7c 6b cb be
       -0.21851708 -0.254638 0.061096933 -0.39730442
000050 6e bd 81 3e d2 76 87 be e0 5e 82 bd ba 38 99 bc
       0.25339836 -0.2645784 -0.06365752 -0.018703807
000060 32 be 97 3d 38 39 0c be ee 1e 80 be 44 d3 91 be
       0.07409324 -0.13693702 -0.25023597 -0.28481495
000070 d2 c2 34 3e 3d a5 99 3d e0 da 83 3b 8c 0c a3 bd
       0.17652443 0.0750222 0.0040238947 -0.079613775
000080 2c ea 0b be 31 7c ed 3c 1c e6 a0 3d 23 31 a3 bc
       -0.13663548 0.028989883 0.0785639 -0.019920891
000090 a3 3c 1c be ee 24 08 3e 70 c7 e1 bc b7 c2 d3 be
       -0.15257506 0.13295338 -0.02756092 -0.41359493
0000a0 a0 39 0f 3c 66 2b 6a 3e 18 b5 9f be 85 5b 00 be
       0.008741766 0.22868118 -0.3119285 -0.12534912
0000b0 44 0f ae bd d6 d0 6d 3e e5 39 27 3e ba de 8a 3e
       -0.084990054 0.23224196 0.16330679 0.27123052
0000c0 e1 a6 b7 3e 5e 4c 94 3b 7b f2 c0 bd 23 a9 87 3d
       0.35869506 0.0045257052 -0.094212495 0.06624057
0000d0 80 cd de 3d 18 24 d9 3d fb 6a 99 3c 3d f7 e8 3e
       0.1087904 0.106025875 0.01872777 0.45501128
0000e0 39 11 af bd 29 65 0b 3d 49 79 5c 3e 10 18 fe 3b
       -0.08548207 0.03403202 0.21530642 0.0077543333
0000f0 04 8e 05 3e 8b d6 6b 3e 7a bf e2 bd b2 57 1c 3e
       0.13042456 0.2303106 -0.110716775 0.15267828

decoder_stack.0.ca.heads.0.query.weight f4 [4, 16]
000000 6e 46 0b 3e df ea 19 3a 5e cf 1a be c3 fd 82 3d
       0.13601086 0.00058714853 -0.15118167 0.063960575
000010 03 ef be 3d 15 5a a8 3d 0e 1f cf bd 70 29 00 be
       0.093229316 0.08220307 -0.10113345 -0.12515807
000020 4f 04 9f 3e f3 ff 6a bd 1d 29 1a 3d b6 6c a7 3d
       0.31057975 -0.057373 0.037636865 0.08175032
000030 e1 df 02 be 6c 8b 6d be 44 6d 77 3e 76 43 cd bd
       -0.12780716 -0.23197716 0.24162775 -0.10022633
000040 21 04 86 3e d4 66 94 3e 4f d7 3a be ce e6 98 bd
       0.26175025 0.28984702 -0.18246196 -0.074658975
000050 99 07 5a 3d cc 45 fa bd 86 42 5a 3d 69 12 0a 3e
       0.053229902 -0.12220344 0.053286098 0.13483585
000060 a3 56 00 be b6 ca c7 bd 6e 29 08 be aa 2b 69 bd
       -0.1253305 -0.09755461 -0.13297054 -0.056926407
000070 a2 1f 29 be 03 d3 a7 3e 37 b0 2f be 54 5c 78 3d
       -0.16515973 0.32778177 -0.17157064 0.060634926
000080 ce 43 a4 3e 7b 79 95 3d 70 d1 18 be f7 e0 18 be
       0.3208298 0.07298561 -0.14923644 -0.14929567
000090 3e 8d 8a 3e f2 1a d7 bb 84 5a ea bc f4 c2 73 be
       0.27060884 -0.0065644914 -0.028607614 -0.23804837
0000a0 ae 6f 03 bd ee fd 3e bd d6 49 32 3e 1b 6d a2 be
       -0.032088928 -0.046628885 0.17410979 -0.31723866
0000b0 05 da 03 3d 92 09 fe bd fb c2 3a be 8c 60 b1 bc
       0.03219034 -0.12404169 -0.18238442 -0.021652482
0000c0 51 57 e6 bd 23 96 63 be 8e 17 0b 3e d4 6e 91 3e
       -0.11247123 -0.22225241 0.13583204 0.28404868
0000d0 2b dc 48 be 2f c6 19 be 6f ab 44 be ef 0c ac 3e
       -0.19615237 -0.15017007 -0.19206022 0.33603618
0000e0 f3 49 ab 3e 2f da 8a 3e b1 e5 cf bd 07 c6 5c bd
       0.33454856 0.27119586 -0.10151232 -0.05389979
0000f0 8e 1a 98 bd a3 08 01 be a0 98 23 bb 6f 50 98 3e
       -0.0742694 -0.12600951 -0.0024962798 0.29748866

decoder_stack.0.ca.heads.0.value.weight f4 [4, 16]
000000 6e c1 6a be 4d 1e 7e be aa aa 02 be d3 81 85 bd
       -0.2292535 -0.24816246 -0.12760416 -0.06518903
000010 5a 81 19 3e 2c 04 0a be 78 c5 32 3e bb b1 27 be
       0.1499075 -0.13478154 0.17458141 -0.16376393
000020 db 11 27 3e cb 0b 33 3e 78 4a af 3d 8e ea 38 3e
       0.16315405 0.17484967 0.08559126 0.18058226
000030 48 88 4c 3e 1f b2 db bd 6f 20 77 bb eb b1 e8 bd
       0.19973862 -0.10727333 -0.003770854 -0.1136206
000040 94 f2 1b 3e 90 50 39 bd 37 81 cc 3d 74 ba 0e 3e
       0.15229255 -0.045242846 0.09985583 0.13938314
000050 33 2f 42 be 44 47 b8 3d 43 40 3c be f8 05 59 3d
       -0.18963318 0.08997968 -0.18383889 0.052984208
000060 27 ab 37 3e 24 50 27 3e 87 a8 91 bc 80 73 24 3e
       0.17936383 0.16339165 -0.017780555 0.16059685
000070 22 19 26 3e c3 48 21 3d 81 db 02 3e fc 6b 6b be
       0.16220525 0.03937603 0.12779047 -0.22990412
000080 93 6f 17 be 60 72 1a 3e 49 fa ac 3d 01 7c 47 be
       -0.14788656 0.15082693 0.084461756 -0.19480897
000090 ea a7 d4 3b f7 7c 61 bd 17 9f 87 bc f2 8d 00 3e
       0.0064897435 -0.055050816 -0.016555352 0.12554148
0000a0 5a 0b 29 be d6 21 28 be a1 30 50 3e 5f 5a a9 3d
       -0.16508237 -0.16419157 0.2033105 0.0826919
0000b0 3f 40 7e 3d b5 40 28 3e fe 0a f5 bc e5 19 8c bd
       0.06207299 0.16430934 -0.029912468 -0.068408765
0000c0 9e 7a f2 bc 77 a8 cb bd c2 8e 86 bd a3 44 c6 3c
       -0.029599484 -0.099442415 -0.06570198 0.02420265
0000d0 31 1d 86 3e 60 28 07 3e af e1 b1 be d8 10 40 bd
       0.26194146 0.13198996 -0.34742495 -0.046891063
0000e0 b6 ce e0 3d 82 8b 61 be 72 8e 2b 3e 96 69 9d 3d
       0.10976927 -0.22025874 0.16753557 0.076861545
0000f0 94 3a c7 bd c1 88 4c bd 2b 91 96 3d b9 d8 39 3e
       -0.0972797 -0.049935106 0.07351907 0.1814908

decoder_stack.0.ca.heads.1.key.weight f4 [4, 16]
000000 07 5d e2 bc bb 45 51 be 88 8c 94 3e 4f 75 fb be
       -0.02763225 -0.20436756 0.29013467 -0.49112937
000010 86 fe e6 3d 6a ca 7c bd d1 87 75 bd ec 72 cf bd
       0.11279015 -0.061716475 -0.059943978 -0.101293415
000020 18 b7 cf bd 54 f0 a7 3d 05 61 83 3e 9a 82 5a 3e
       -0.10142344 0.08200136 0.25659958 0.21338883
000030 4b 25 7f be 9e 77 ba 3e 0b 39 28 3d 78 e3 8d 3e
       -0.2491657 0.36419386 0.041070025 0.27712607
000040 18 2e bc 3d fb 6f 89 3e 22 1e 39 be 7f 65 ca 3e
       0.09188479 0.26843247 -0.18077901 0.3953056
000050 6c f5 0f 3d a3 78 31 bc 71 49 a4 be d4 46 06 bd
       0.035146162 -0.010831985 -0.3208728 -0.03278239
000060 5c c4 73 3a 23 3a e3 bd c3 66 dd bd 31 25 66 3e
       0.0009298974 -0.11095073 -0.10810616 0.22475125
000070 ee cd 60 be 37 2c 76 3d 8e a6 b2 be a2 d5 48 3e
       -0.21953556 0.06010076 -0.34892696 0.19612744
000080 cd b9 64 3e a6 59 e0 3d b0 92 17 be 2a 7b b9 3e
       0.22336502 0.10954599 -0.1480205 0.3622678
000090 05 f6 83 3e f1 84 b9 3d b0 82 ad bd d7 4b a2 3e
       0.25773636 0.0905856 -0.08472192 0.31698486
0000a0 4f 82 dd bc c2 ef b8 be f3 6e 9d 3d 8f 41 23 bd
       -0.027039675 -0.3612042 0.076871775 -0.039857443
0000b0 09 62 66 3e c4 6e a8 be 58 88 de 3d a0 9a 45 be
       0.22498335 -0.32897007 0.10865849 -0.19297266
0000c0 7a 4a 28 be 9f 3e cd 3d bd 91 a7 3a 4e 6b e6 bb
       -0.1643466 0.1002171 0.0012784522 -0.0070318347
0000d0 49 0e 34 3e 07 db 3f be 29 62 d1 bc f8 64 af 3d
       0.17583574 -0.18735896 -0.025559502 0.0856418
0000e0 96 09 94 be ae 4c 34 bd ef a6 34 bd b3 36 31 3e
       -0.28913563 -0.04401844 -0.044104513 0.17306022
0000f0 e2 8e 24 be ab 59 86 3e 29 c2 28 be 7c 94 9d 3e
       -0.1607013 0.26240286 -0.16480316 0.30777347

decoder_stack.0.ca.heads.1.query.weight f4 [4, 16]
000000 42 5b 89 3e c3 97 99 be d0 97 93 3e 75 92 84 3e
       0.26827437 -0.29998598 0.2882676 0.25892988
000010 d4 10 8d 3d 43 2a 16 be 8c c2 3c bc 4c f1 68 be
       0.06887975 -0.14664559 -0.011520993 -0.22748297
000020 26 ba e0 bd 55 93 a1 be a2 c1 8d bd a4 f2 b1 be
       -0.10973005 -0.31557718 -0.06921698 -0.34755433
000030 c7 59 f3 be 5c 22 25 3e 66 eb 92 3e de 74 a8 be
       -0.47529432 0.16126388 0.2869522 -0.32901663
000040 da c1 20 3e 07 ca 24 3e e4 a2 48 be 4c 9d 01 3e
       0.15698949 0.16092692 -0.19593388 0.1265766
000050 39 37 b8 3d 7b b1 3f 3d 45 bf 86 be e2 24 82 bd
       0.08994908 0.046800118 -0.26317802 -0.06354691
000060 bb 0a c5 bd 0f b8 0e 3e b2 69 73 3e f4 1b 0f 3e
       -0.09621187 0.139374 0.23770788 0.13975507
000070 c0 67 e5 3d f7 8f e8 3c 6b f6 8a be 2c 7b c3 bd
       0.11201429 0.02838896 -0.27141127 -0.095449775
000080 1e 55 57 bc f5 c3 d5 bd 0f c7 dd 3d c6 31 a1 be
       -0.013142852 -0.104377665 0.10828983 -0.31483287
000090 c7 3c b6 be 77 20 c8 3b c7 d7 23 3e 62 14 90 3e
       -0.35593244 0.0061073857 0.16000281 0.2814055
0000a0 86 fb 49 3c 6d d7 c8 3e ac 05 a7 bc 7f 35 59 bc
       0.012328034 0.39226857 -0.020388447 -0.013257383
0000b0 d8 1a 49 3e bc 56 ec be ae 0e 9e be c6 7b 9e bd
       0.19639146 -0.46159923 -0.30870575 -0.07738452
0000c0 b5 3f 19 be 6f a0 91 3e fe 36 c3 3d 91 14 21 3e
       -0.14965709 0.28442714 0.09531973 0.15730502
0000d0 93 08 a5 3e 75 07 7c 3e a8 84 47 3e 98 5a a1 bb
       0.32233104 0.2461222 0.19484198 -0.0049241297
0000e0 b0 03 86 bd 57 2b 16 be 94 4e 69 3d 04 d4 37 3e
       -0.06543672 -0.1466497 0.056959704 0.17951971
0000f0 b7 94 93 3c 61 46 b2 bc d7 20 b4 bc f6 d9 14 be
       0.018015249 -0.021762075 -0.021988316 -0.1453627

decoder_stack.0.ca.heads.1.value.weight f4 [4, 16]
000000 43 ef cc 3d 8a 97 ae bd 28 9d 43 be 0b b9 f2 3d
       0.10006573 -0.085249975 -0.19102919 0.118517004
000010 3d de c7 3b bc 29 8d 3e ba 3e 6b be cf 6c b9 3d
       0.006099491 0.27570903 -0.22973147 0.09053957
000020 3d d2 ae bc cc 87 1f be f6 0b eb bc 1c 03 f6 bd
       -0.021340484 -0.15579146 -0.028692227 -0.12012312
000030 d7 8d 05 3e 0c 2e 1b 3e 56 2d a6 bd 59 2a 87 3d
       0.13042389 0.15154284 -0.08114116 0.06599874
000040 9f 25 59 3e d0 fe 85 be e8 73 8d 3e af 6a 15 bc
       0.21205758 -0.2617097 0.27627492 -0.009119674
000050 4e 83 0b be ce 6f 11 3e 5a 7f d6 bc 0d 81 93 3c
       -0.13624308 0.14202806 -0.026183773 0.018005872
000060 47 6c 1f be 59 f3 ac bd 12 70 5c be 43 52 b1 3c
       -0.15568648 -0.084448524 -0.21527126 0.02164567
000070 ff 4a 5a bd 7e d7 80 be 02 45 82 be 69 60 e1 bd
       -0.053294178 -0.25164407 -0.25443274 -0.11004717
000080 07 e3 41 be 37 02 c6 bc df af cf 3d f3 74 54 3e
       -0.1893426 -0.024170978 0.101409666 0.20747738
000090 59 0f de 3d 2e 41 81 be 66 97 1b be 6e dc 18 be
       0.10842771 -0.2524504 -0.15194473 -0.14927837
0000a0 76 d1 87 be 56 42 f0 bd d7 86 d1 bd d9 60 f7 3d
       -0.26526994 -0.117314026 -0.10230797 0.12079019
0000b0 2c 1c 14 3e ea a7 5a bc 85 f5 6c 3e d5 89 de bd
       0.14463872 -0.013345698 0.23140533 -0.10866133
0000c0 d9 4f 44 be b1 8f 92 3e 15 ba a2 bb 98 c9 28 3e
       -0.19171084 0.28625253 -0.0049660304 0.16483152
0000d0 dc 49 9b be fb 65 56 be 61 6b 39 be ec 0d 13 3e
       -0.30329788 -0.2093734 -0.18107368 0.1436078
0000e0 f2 73 84 3d af fe 11 be a2 4b 9d 3d 01 0c 05 3e
       0.06467427 -0.1425731 0.076804414 0.1299286
0000f0 5b 3a 64 3e b9 bb 11 be 3f 19 c5 bd 8b a3 17 3e
       0.22287886 -0.14231767 -0.09623956 0.1480848

decoder_stack.0.ca.heads.2.key.weight f4 [4, 16]
000000 c3 36 c5 bd f1 19 79 3d 6b f0 c5 bd a6 c7 5e 3e
       -0.096295856 0.060815755 -0.09664997 0.21755847
000010 f6 af 89 3e 7a 92 94 be b3 f2 5a 3d 03 53 52 bc
       0.2689206 -0.29018003 0.053454112 -0.012837174
000020 9f 42 db bc a6 2a c7 3d 44 de 30 3e 57 36 91 3e
       -0.026765166 0.097249314 0.17272288 0.2836177
000030 b1 2e ee bd bf 89 51 3e 66 8d 43 3e a2 15 34 3e
       -0.116299994 0.20462702 0.19096908 0.17586377
000040 78 50 40 3e fe 37 d8 3c 27 57 8c be c4 f1 43 3e
       0.18780696 0.026393887 -0.27410242 0.19135195
000050 ae 9a 59 3e af e7 56 3e 89 54 06 3e f1 e3 52 3d
       0.21250412 0.20986818 0.13118185 0.051486913
000060 ab 64 a9 bd 64 70 bf 3d f9 14 c4 3e 84 ae bc 3d
       -0.08271154 0.09347609 0.3829725 0.09212974
000070 e4 88 f8 bd cb a9 9f bd 1a 2a 6d 3d ae 44 93 3c
       -0.12135485 -0.07796057 0.05790148 0.017977085
000080 f8 3f 80 bd f6 e6 22 3e b2 05 84 3e 26 fa 99 3e
       -0.06262201 0.15908417 0.25785595 0.3007366
000090 15 15 11 3e 7b 1b 12 3e 90 1a 46 3e 0e e0 f2 3d
       0.14168198 0.14268295 0.1934607 0.11859141
0000a0 ce ea df bc 47 64 2f bb 66 f1 5f be a5 ad 5a be
       -0.027333643 -0.002676265 -0.2186943 -0.21355303
0000b0 a7 50 a8 bd 23 cb d0 bd 27 7e 85 be 91 88 b1 bd
       -0.08218508 -0.10194995 -0.2607281 -0.08668626
0000c0 ce 71 83 be 87 22 23 be 1c 6c 31 3d 3a 0c dd 3d
       -0.25672764 -0.1593114 0.04331599 0.10793348
0000d0 7a 7a 04 be 1a aa 84 be 0e d9 49 3d fb e5 ce bd
       -0.12937346 -0.25911027 0.049279265 -0.10102459
0000e0 74 ed 6b 3e 87 35 f7 bd 07 b3 08 be 3d 76 99 3e
       0.230398 -0.120707564 -0.13349544 0.2997302
0000f0 07 1b b2 3d cf 35 6f 3e de 79 4d 3b 3b 5c 39 be
       0.08696561 0.2336037 0.0031353156 -0.1810159

decoder_stack.0.ca.heads.2.query.weight f4 [4, 16]
000000 98 c9 2c be 59 65 01 3d dd bd a7 3d b6 36 13 3e
       -0.16873777 0.031590793 0.081905104 0.1437634
000010 ff 6c 85 be 5f cf c9 3d 1c 89 f8 3d be b0 5c 3e
       -0.2605972 0.09854006 0.121355265 0.21551797
000020 ca 0e 30 bd ee ff 43 3e 7f 1d 40 3d 1c 27 2f 3e
       -0.042982854 0.19140598 0.04690313 0.17104763
000030 82 f3 50 be 10 5c a2 3e 13 77 be 3d ab 77 4f 3e
       -0.20405391 0.31710863 0.09300055 0.20260493
000040 d0 9a 72 3e d7 15 0f 3e b8 6e ad bd 99 c6 ff bd
       0.23691869 0.13973175 -0.084683836 -0.12489051
000050 18 68 af bd 89 e2 7d 3b 09 f3 ee 3d e3 5e c4 bd
       -0.08564776 0.0038739762 0.11667449 -0.09588411
000060 af 80 56 be 7f 6d ff 3c a0 a8 16 3e 17 08 99 bd
       -0.20947526 0.031180141 0.14712763 -0.07472246
000070 26 03 88 be 39 52 89 be d5 dc bd 3d a5 e1 1d 3e
       -0.26564902 -0.26820543 0.09270636 0.15418108
000080 72 cd 33 3e cb 4e 5a 3e 85 23 19 3d 1b 23 6e be
       0.1755884 0.2131912 0.03738739 -0.23255579
000090 f2 08 08 be 17 4c 6f 3d 4c 1c 90 bb 95 d3 e8 bd
       -0.13284662 0.058422174 -0.0043979045 -0.11368481
0000a0 71 df 8a 3d da a6 6c bc 62 16 3f 3e 27 e6 07 be
       0.06780899 -0.014444077 0.18660882 -0.1327139
0000b0 83 62 8d 3e a9 b7 ea bd 84 1a ac 3e e3 74 3a 3e
       0.2761422 -0.11460812 0.3361398 0.18208651
0000c0 1e d4 d0 bd e6 dd 57 3e a9 53 cd bd dc fb 6c 3d
       -0.10196708 0.21080741 -0.100257225 0.05785738
0000d0 da ca f8 bd bd ba 8b 3d f0 2e 5e 3e 7b 88 93 bb
       -0.12148066 0.06822727 0.21697593 -0.0045023537
0000e0 ad cd 73 3d bd ef 8b 3b 51 c3 05 3e 54 ef 54 3e
       0.05952232 0.0042705224 0.13062789 0.20794421
0000f0 e2 03 57 be 25 b3 76 bd 24 d5 6c be 18 23 03 3c
       -0.20997575 -0.06022944 -0.23128182 0.0080039725

decoder_stack.0.ca.heads.2.value.weight f4 [4, 16]
000000 d1 db 09 3d 96 ff 42 3e 59 9b 67 3e 09 a1 3c 3e
       0.0336569 0.19042811 0.22617854 0.18420805
000010 65 95 46 bc b3 ae 2d 3d d0 d4 81 bd 3b b9 82 be
       -0.012120579 0.042402934 -0.06339419 -0.25531945
000020 b2 84 ad 3c 1b 53 56 3d 94 04 09 be 5d 12 11 be
       0.021181438 0.05232535 -0.13380653 -0.14167161
000030 42 6e 2c be 4b 7e c7 bd 03 ea 07 3b c2 97 1f be
       -0.16838935 -0.09740885 0.0020738847 -0.15585235
000040 c4 13 77 3e d0 e7 94 bd b4 da 88 3d c2 bb 64 3e
       0.24128634 -0.07270777 0.06682339 0.22337249
000050 30 5e 3c be bc fa 78 bd 1b e5 1d 3e 3d 94 50 bd
       -0.18395305 -0.060785994 0.15419428 -0.05092262
000060 f6 5c 8f be ee 5d 62 be 8c ee 61 3d b6 f4 3e be
       -0.2800061 -0.22106144 0.055159137 -0.18648037
000070 58 1a a2 bd a9 71 48 bc a8 f1 85 be a8 bb 5f be
       -0.07915181 -0.01223413 -0.26160932 -0.21848929
000080 bf 83 61 3d c4 f5 7a 3c 77 9d d7 bd b8 4e 7a be
       0.055057283 0.015317384 -0.10528081 -0.24444091
000090 06 20 fb 3c 10 5c 13 be 67 c6 d1 39 de b7 f0 3b
       0.030654918 -0.14390588 0.00040011408 0.0073461374
0000a0 52 35 0f be a1 e6 06 3e 5b 82 8f bd 33 f2 14 3d
       -0.13985184 0.13173915 -0.07007285 0.03636379
0000b0 2e c5 37 be 6c 05 7b bc 73 aa 07 3e e2 38 d0 3d
       -0.17946312 -0.015321117 0.13248615 0.101670995
0000c0 92 13 60 3e 2b df 45 3e f3 80 2d 3e a0 24 9f 3c
       0.21882465 0.19323413 0.16943721 0.019426644
0000d0 ca 60 bc bd 8d da 05 3e 0c 8a 3f 3e 0d 05 88 bc
       -0.091981485 0.13071652 0.18705004 -0.01660397
0000e0 e6 42 f0 bd 6b e1 7b 3d 18 2c 18 be 9a d5 bb 3e
       -0.1173151 0.061494272 -0.1486057 0.36686403
0000f0 b6 92 91 bd 7c 5b 44 be ca 84 1d 3b a3 89 c3 bd
       -0.07108061 -0.19175524 0.0024035447 -0.095477365

decoder_stack.0.ca.heads.3.key.weight f4 [4, 16]
000000 ef e0 61 3e 0f 02 76 3d f2 50 51 bd ff 6f 00 3d
       0.22058462 0.060060557 -0.051102586 0.031356808
000010 af 1f 61 3d 07 fe 6b be 97 e2 5f 3e 03 8e e6 3d
       0.054961856 -0.23046122 0.21863781 0.11257555
000020 f3 58 22 3e ec b9 10 3e a8 e9 03 3e 12 81 a2 be
       0.15854244 0.14133424 0.12882102 -0.31739098
000030 11 40 57 3e 05 80 a1 be c1 9c 22 bd 20 8d 0e be
       0.21020533 -0.31542984 -0.039700273 -0.13921022
000040 eb 00 80 3e 98 e5 6c 3d 44 53 a8 3e 37 cf 6b be
       0.250007 0.057836145 0.32876027 -0.23028265
000050 4f d0 91 3d b0 a5 1a 3e 39 cb 2f 3e b0 a1 28 3e
       0.0711981 0.15102267 0.17167367 0.16467929
000060 64 5a c1 bb 86 33 cb bd c2 92 d2 3e 08 c6 65 3e
       -0.005900668 -0.09921937 0.41127592 0.22438824
000070 7e a0 7a be 26 ac b4 bd 4f ac c1 3d 09 8f ab 3d
       -0.24475285 -0.08821897 0.094566934 0.08376891
000080 a4 2a 7c bd d6 99 8b 3d 1e 3c 64 3e 29 7a b7 be
       -0.061564103 0.06816451 0.22288558 -0.35835388
000090 fd 6f d0 3d 1f 92 f6 3d 20 8a 8f 3d 07 de a1 bd
       0.1017761 0.12039589 0.07008767 -0.079036765
0000a0 93 16 b7 be 47 1d d1 3e 4f fd e8 3a 2c 2e 3c be
       -0.3575941 0.4084265 0.0017775687 -0.18376988
0000b0 c2 66 26 bd 87 a2 57 bd 80 c0 fd bd c9 05 bb 3e
       -0.04062534 -0.052645233 -0.12390232 0.3652785
0000c0 3b af 00 3e 35 c2 a6 3e 97 0a 89 3e 85 25 89 bd
       0.12566845 0.32570043 0.26765892 -0.066966094
0000d0 7a 71 ee 3c 33 c4 38 be 4c 94 64 bd 90 5a f6 bd
       0.029106844 -0.18043594 -0.05580549 -0.12028992
0000e0 10 ee 23 be 60 3e ff 3d 32 0d 7a be 24 76 36 3d
       -0.16008782 0.12463069 -0.24419096 0.04454626
0000f0 98 21 36 3e 4a a0 c5 3e fa cc 79 3d a9 2d b6 3e
       0.17786252 0.38598853 0.060986497 0.3558171

decoder_stack.0.ca.heads.3.query.weight f4 [4, 16]
000000 30 9c a4 3a 47 4f 15 3e 20 9f 38 bd b7 1d af be
       0.0012558755 0.14581023 -0.04507363 -0.34202358
000010 44 d4 5b be 7c 0f ab be 6b b6 38 3e a2 56 33 be
       -0.21467692 -0.3341025 0.18038337 -0.17513517
000020 5b 2a 16 3e ad 98 06 3e 91 b6 f9 3d 66 a2 63 3e
       0.14664595 0.13144179 0.12193025 0.22229919
000030 a2 22 8b bd 51 db 84 bd 4a 6a 3f 3e 5a 72 2f 3e
       -0.06793715 -0.06487144 0.1869289 0.17133465
000040 c2 c8 92 3e 11 c8 4d bd 8c 19 d3 3d 27 e3 63 be
       0.2866879 -0.050239626 0.10307607 -0.2225462
000050 d4 cd 5c 3e 6c 8a 74 3e c3 fc fd 3d 75 1c 08 3e
       0.21562892 0.23880929 0.12401726 0.13292105
000060 d4 99 ce 3d 44 2d 62 3d 4d 5c 9d bd 36 57 08 be
       0.10087934 0.05521895 -0.076836206 -0.13314518
000070 c0 d0 11 be 16 0e 14 bd ed 77 1e be a8 9c 3a 3e
       -0.14239788 -0.036146246 -0.15475436 0.18223822
000080 1d 03 94 3e 8a df a0 bd 53 e6 1f 3d bf 04 90 3e
       0.28908625 -0.07855137 0.039038014 0.2812862
000090 85 d6 82 3e b2 6d af 3e c2 17 3a 3e a8 5c 19 bd
       0.2555429 0.34263378 0.18173125 -0.03744188
0000a0 ee 85 b4 bd fc 18 a8 be a0 cd 80 3e 6e 78 87 3d
       -0.088146076 -0.32831562 0.2515688 0.06614767
0000b0 76 a1 4c be 66 b6 70 3e 39 30 8e 3e cc 16 13 3e
       -0.19983467 0.2350708 0.27771166 0.14364165
0000c0 cb c8 a0 3e 09 6a 55 be 9e f0 d9 bd 44 4c 3d 3d
       0.31403193 -0.2084123 -0.10641597 0.04621531
0000d0 d6 3b 17 3e 49 40 23 bc 28 fc ff bd a0 0e 9b be
       0.1476892 -0.009964057 -0.12499267 -0.30284595
0000e0 dc 7c 35 3d ab 40 a5 be fc 18 f0 3c ba 09 39 be
       0.04430853 -0.322759 0.029308788 -0.18070117
0000f0 a4 87 e9 bd 11 61 ec 3e 28 51 2b 3e d9 80 6f be
       -0.114028245 0.46167806 0.16730177 -0.23388995

decoder_stack.0.ca.heads.3.value.weight f4 [4, 16]
000000 69 3b 81 3d b1 cb 8b be d1 12 f7 bd 9c 9f 85 3d
       0.0631016 -0.27303842 -0.12064136 0.06524584
000010 6d 3f 40 be ef cf 5a 3a ca 08 19 3e 6e 8a b1 be
       -0.18774195 0.00083470246 0.14944759 -0.34675926
000020 17 85 ca 3d 11 b1 ea bd 13 c5 34 be bc 12 06 be
       0.09888666 -0.11459554 -0.17653303 -0.13093084
000030 34 7f b9 3e b5 05 07 3d 47 a9 02 3e d1 bd ba 3d
       0.3622986 0.032964427 0.12759887 0.09118236
000040 b2 e8 71 be 38 fa 1d 3e 63 fb be bd ae f6 0c be
       -0.23623922 0.15427482 -0.09325292 -0.13765976
000050 2f 02 4a 3e 7d 4e be bd 47 c3 56 3e 27 c3 bb bd
       0.19727395 -0.09292314 0.2097293 -0.09168082
000060 e0 52 6f be 2f d0 42 be f1 b0 3e 3e c5 af 1b 3e
       -0.23371458 -0.19024728 0.18622185 0.1520377
000070 bf cb 07 bd 2c ce 2b 3e 99 a8 cd bd 44 78 29 3d
       -0.03315329 0.16777867 -0.10041923 0.04137446
000080 63 80 38 be fc 7a c5 3c 41 80 b4 bd 72 31 87 3e
       -0.18017726 0.024106495 -0.08813525 0.2640491
000090 d0 c5 47 3e 19 4e 63 3e 80 a9 d8 3c 5e 6d b5 be
       0.19509053 0.2219776 0.026448011 -0.35435003
0000a0 43 d4 f4 3d ec 0e 8a 3d 00 c0 90 be 3c 16 44 3e
       0.11954548 0.06741127 -0.28271484 0.19149107
0000b0 95 7b d3 bd 35 df bb 3d 3e 20 13 3e 5b 3e 4b be
       -0.10326306 0.09173433 0.14367768 -0.19848005
0000c0 39 1d 97 3e e7 6d 69 bc b9 c0 82 3e 38 5a 98 bd
       0.29514483 -0.014247394 0.2553766 -0.07439083
0000d0 3e 0f 63 3e 18 75 44 be 08 7a 88 bd 84 4f 88 3e
       0.22173783 -0.19185293 -0.066639006 0.26623166
0000e0 f2 83 27 bd 03 98 8c 3e 27 b9 8d 3e 72 76 8c 3e
       -0.040897317 0.27459726 0.27680323 0.27434117
0000f0 c8 20 70 3e c6 13 04 3e 09 50 8d 3b ac e8 bc 3d
       0.23450005 0.12898168 0.0043125194 0.09224066

decoder_stack.0.ca.proj.bias f4 [16]
000000 ff 9d 5b be 1c 1e 4b 3e d1 66 a8 3d cf 2b 8b 3d
       -0.2144699 0.19835705 0.08222736 0.06795465
000010 f3 28 56 3e 48 e3 04 3e 12 de fa 3b 39 7b 18 3c
       0.20914058 0.12977326 0.0076558674 0.009306722
000020 e2 7c 71 be de d8 1d 3e 3b d9 82 bd 1a ed 30 3e
       -0.23582795 0.1541476 -0.0638909 0.17277947
000030 2c fe 00 3e 10 12 54 be 26 5c 3d be c7 b9 1f 3e
       0.12596959 -0.20710015 -0.18492183 0.15598212

decoder_stack.0.ca.proj.weight f4 [16, 16]
000000 41 b0 f0 3d 4c 52 c1 bd 10 b9 83 bd 16 ff 87 3e
       0.11752368 -0.09439525 -0.06431782 0.26561803
000010 9c 6a 1b be 5c 87 34 3e ba f5 aa bd 20 17 81 3d
       -0.15177387 0.1762976 -0.0834765 0.06303239
000020 62 10 48 3e 42 f9 13 3e e1 12 1f be 5b 65 e7 bd
       0.195375 0.14450553 -0.15534545 -0.11298629
000030 77 27 01 bd dc 00 f0 bc 59 9d 8b be 90 93 05 3e
       -0.031531777 -0.029297285 -0.27268484 0.13044572
000040 ef 7c 12 be a8 24 5b 3e 06 ca 95 bd 3e 7a 4c 3e
       -0.14305471 0.21400702 -0.073139235 0.19968507
000050 b7 35 3e be dd 66 67 be cb dc 1a 3d 41 33 c8 bd
       -0.18575178 -0.22597833 0.03780822 -0.09775401
000060 9d 51 fa 3c 0d 36 c3 3d f7 13 cf 3c 4d 36 57 be
       0.030556494 0.09531794 0.025278075 -0.21016808
000070 79 5d b4 3d 11 71 4d 3e 71 ff 12 3d 0e 55 61 3e
       0.08806891 0.20062663 0.03588814 0.22005102
000080 ae b0 8c bd 54 76 16 be 7e 84 56 3e a1 8b b3 bd
       -0.068696365 -0.14693576 0.2094898 -0.087668665
000090 a4 9c 30 3d 07 27 53 be db 32 73 be 12 7a d1 bd
       0.043118134 -0.20620357 -0.23749869 -0.10228361
0000a0 27 05 49 3e b5 db 3d 3e b7 48 16 3d ae af ad 3d
       0.19630872 0.18540843 0.03669044 0.08480774
0000b0 1a 5f 6f 3e 8c e5 63 be 9d be 0b be c6 f3 16 be
       0.23376122 -0.22255534 -0.13646932 -0.1474143
0000c0 65 23 7b 3e a5 29 78 3d 2c b3 24 be 92 c6 2d 3e
       0.2452522 0.06058659 -0.16083974 0.1697028
0000d0 08 77 48 be 7d ee dc bd 8e ed 6e 3e 1c b2 6d be
       -0.19576657 -0.107876755 0.23332807 -0.23212475
0000e0 5c 19 b5 3d 09 d7 38 3d fc 26 59 3e 1c da a4 3d
       0.088427275 0.04512695 0.21206278 0.080494136
0000f0 47 9e 07 3e 8c ff a8 bd 6c b8 54 3e fd 33 10 3d
       0.13243972 -0.08251867 0.20773476 0.03520583
000100 38 73 35 3e 62 6b a6 3d 42 b8 95 bb e6 28 d4 3d
       0.17719734 0.081259504 -0.0045690844 0.10359363
000110 b9 ee 5e be b4 a7 c3 3c 4b a1 6f bd ba a6 d3 3d
       -0.21770753 0.023883678 -0.05850343 0.10334535
000120 f4 a1 3a 3e 97 33 18 be 58 33 a4 3c 1e c6 54 be
       0.18225843 -0.1486343 0.020044014 -0.207787
000130 c0 5e f4 3d 47 51 b1 bd 85 92 f3 3b 26 91 12 3e
       0.11932135 -0.086580805 0.007433238 0.14313182
000140 af 83 1a be 53 1a 64 be 13 6a bc 3c 58 39 2c be
       -0.15089296 -0.22275667 0.022999799 -0.1681875
000150 96 f7 14 bd 2c 39 e2 3d d7 e9 e9 bd 47 4f a5 bb
       -0.03636893 0.11046061 -0.114215545 -0.005044851
000160 f1 1d fc bd 8d 18 1a 3e 87 a2 7f be fe 23 66 bd
       -0.12310398 0.15048428 -0.24964343 -0.05618667
000170 a1 28 24 3e 6f ad 44 be c2 95 b0 be f1 d1 11 3e
       0.16031124 -0.19206785 -0.34489256 0.14240243
000180 11 c1 6b bd 6b bd cb bd fe 71 f5 3d b9 34 8f be
       -0.05755717 -0.09948238 0.11984633 -0.27969912
000190 25 2a 20 3e e6 61 48 be 79 3c ee bd 8a f1 68 3e
       0.15641077 -0.19568595 -0.11632628 0.2274839
0001a0 cf 94 79 3e bf 7c 4e 3c e4 82 74 3b 3a 65 ab bd
       0.24373172 0.012602984 0.0037309462 -0.08368917
0001b0 3f f1 5a 3e c7 6f 3d 3e a3 30 57 3e 1d 9b 4b be
       0.2138109 0.18499671 0.21014647 -0.1988339
0001c0 47 6f 44 be a3 4e 3a 3d 6d 07 08 3d 7b 7d 74 3d
       -0.19183074 0.04548515 0.033210207 0.05968998
0001d0 51 0e 49 3e d4 92 c4 3d 05 26 cf 3c 58 b5 52 3e
       0.19634368 0.09598318 0.025286684 0.2057699
0001e0 1e 1f 63 3e 1f 89 8b 3e 43 11 4a 3e e4 dc 5b bd
       0.22179839 0.27253053 0.19733147 -0.053677455
0001f0 ff f4 f5 3d 15 86 8a 3d 90 29 d7 3d 8d 2b 95 be
       0.1200962 0.06763855 0.10505974 -0.2913479
000200 8f 7c 98 3e 10 99 9d 3e 6b d9 e0 3c 8d dc 9b 3d
       0.2978253 0.3078084 0.027447423 0.07610426
000210 8c 8d a1 bd 66 c5 88 be ae 55 7f bd 25 91 f9 bd
       -0.07888326 -0.26713103 -0.06233757 -0.12185887
000220 58 c7 5c be e5 15 1c be e9 b1 18 3c 87 8d 93 3e
       -0.21560419 -0.15242727 0.009319761 0.28818914
000230 59 2b 80 be 57 c5 db 3d 11 71 0a be e5 46 8b 3e
       -0.25033072 0.10730999 -0.13519694 0.27202526
000240 3c c7 41 bb 7b 65 86 3d 58 96 3b be 0a 82 94 be
       -0.0029568216 0.065623246 -0.1831907 -0.29005462
000250 9a f2 09 3e f4 16 7f 3c d4 98 0b bd 0d 28 0f 3e
       0.13471451 0.015569437 -0.034081295 0.13980122
000260 0f 13 15 be bb 6e 75 bd 1f 2b fe bd fc 2d 45 bd
       -0.14558052 -0.059920054 -0.124105684 -0.048139557
000270 5d 3f 56 3e b3 3e c7 3d c8 b8 8b bc 4e 7d f8 3c
       0.20922609 0.09728756 -0.017055884 0.030333187
000280 e8 25 4f 3e c8 4d 3c be db 1c 3c 3d ee e8 6d be
       0.20229304 -0.18389046 0.045925956 -0.23233387
000290 a8 10 00 bd fa e9 1c be 43 94 9e 3d 4d 1e e2 bc
       -0.031265885 -0.1532363 0.077431224 -0.02760234
0002a0 90 cf b6 bd 32 40 e2 3d fd 15 64 3c 4d 6a b8 3d
       -0.08926308 0.110474005 0.013921258 0.0900465
0002b0 8e 8f 1e 3d 6c 0c ee 3c 32 cd 62 be 0c d4 5e be
       0.038711123 0.029058658 -0.22148588 -0.21760577
0002c0 1f fd 83 3e 59 57 49 be ee 53 39 3e 1a 65 9a be
       0.25779054 -0.19662227 0.18098423 -0.3015526
0002d0 fc 73 a1 3d 6a 85 14 3e 8c 4f 69 3e 14 d2 1d 3d
       0.078834504 0.14504018 0.22784251 0.038530424
0002e0 54 02 0f be 16 47 86 bc 5e 31 82 be 08 62 c3 bd
       -0.13965732 -0.016391318 -0.2542829 -0.09540182
0002f0 3a b5 23 3d 75 ed 87 3d 21 f0 5d bd 1e 2f 31 3e
       0.039967753 0.06637088 -0.054184083 0.1730313
000300 7b e6 ee 3d 39 d0 61 bc 7f 43 af 3d c9 03 43 bc
       0.116650544 -0.013782554 0.08557796 -0.011902758
000310 2e 1b 31 3e 82 1d 35 be f1 2f 74 3e ef d1 80 3e
       0.17295524 -0.17687038 0.23846413 0.25160167
000320 04 f2 15 be 4e 72 54 3e fc 09 2f 3e 3a 26 0f 3e
       -0.14643103 0.20746729 0.17093652 0.13979426
000330 99 01 1d be ec 97 75 3d 24 0d a1 bd 8d c0 2d be
       -0.1533264 0.059959337 -0.078638345 -0.16967984
000340 90 6e c6 bd 76 da 6c be 36 91 e2 bd 04 8a 46 3e
       -0.09689057 -0.23130211 -0.11062853 0.19388586
000350 e3 f2 40 3e 55 55 55 3e 0f b5 04 be 75 d5 8c 3d
       0.18842654 0.20833333 -0.12959693 0.06876651
000360 1a af 9e bd f2 c3 cf bd 8f 68 e7 3d b2 0a 33 3d
       -0.07748242 -0.101447955 0.1129924 0.04371137
000370 f9 70 69 be 51 ba 49 be 08 88 df bd 6b 3b 91 bc
       -0.22797002 -0.1969998 -0.10914618 -0.017728528
000380 ec 44 0f be 59 07 83 bd af a7 f3 3d 95 6c 58 be
       -0.13991135 -0.06397886 0.118972175 -0.21135171
000390 75 a1 67 3e a1 c0 47 3e ac c9 56 bd 33 fc aa ba
       0.22620185 0.19507076 -0.052438423 -0.0013045132
0003a0 9f 97 95 3d 36 af 1c be 61 a7 f1 3d 19 b5 84 be
       0.0730431 -0.15301213 0.11799503 -0.25919417
0003b0 b5 a0 82 3e 45 ad 14 bc 39 c3 65 3e d0 a9 7e be
       0.25513235 -0.009074514 0.22437753 -0.24869466
0003c0 6a f5 0e 3e f5 cf da bd ad 57 52 3e 2d 30 48 be
       0.13960806 -0.10684196 0.20541258 -0.19549628
0003d0 96 65 2c 3e c2 f6 76 3d e5 4a eb 3d 76 22 a3 3e
       0.16835627 0.06029392 0.114888944 0.3186223
0003e0 16 b8 92 be 0a 43 12 3e fe 77 e9 bd 91 4b 51 3d
       -0.2865607 0.14283386 -0.1139984 0.051097456
0003f0 ac 52 b0 3d cd 53 ad 3c de ef 93 be 4f 76 8c bd
       0.086095184 0.021158123 -0.28893942 -0.06858503

decoder_stack.0.ffwd.net.layers.0.bias f4 [64]
000000 a6 74 56 3e 53 a1 e1 bc 27 54 02 bd b7 0b 8a 3e
       0.20942935 -0.027542746 -0.031818535 0.26962063
000010 b2 20 69 bd 0c 02 0b bd bd c8 ec 3d 11 24 3b 3e
       -0.056915946 -0.0339375 0.11561725 0.18275477
000020 e0 cb 97 bd d6 6e e1 bb ce e8 f5 3d d7 be d0 bd
       -0.07411933 -0.0068796678 0.120072946 -0.1019265
000030 c7 e7 40 bb 8e 31 90 be e5 44 3f bd 72 b4 ad bd
       -0.0029435025 -0.28162807 -0.046696562 -0.08481683
000040 02 1b 7d be 46 bf f9 3d c4 07 e7 3d a3 94 21 bc
       -0.24717334 0.12194686 0.11280778 -0.009862098
000050 a6 14 93 3a 7b d8 95 bd 49 c0 ec 3d ab e5 5b 3e
       0.0011221364 -0.07316681 0.11560113 0.2147433
000060 32 73 69 3c 7a 4d 32 be 16 5f 8c 3d 49 c1 5c 3e
       0.014248656 -0.17412367 0.06854074 0.21558107
000070 65 81 19 3d 5c 90 23 be 98 df 8a 3d cf 30 e3 3d
       0.037476916 -0.15973037 0.067809284 0.11093294
000080 63 af 35 3e 9d d1 7f bd a4 84 37 be 20 3c 7d 3e
       0.17742686 -0.062455762 -0.17921692 0.24729967
000090 15 40 78 3d 6f f5 81 3d 4a 77 35 3c 5f a4 76 be
       0.06060799 0.06345641 0.011075804 -0.2408614
0000a0 56 02 36 3e 12 01 78 be 34 86 90 bd 57 9a 27 be
       0.17774329 -0.24219158 -0.07056847 -0.1636747
0000b0 22 ff 1c bd 40 6b 51 3e ff 07 ac 3d a5 35 59 be
       -0.03832925 0.20451069 0.08399963 -0.2121187
0000c0 0e ce 49 be 41 0a 5b 3e 98 68 8b 3d bb 1b f5 3d
       -0.1970751 0.2139063 0.06807059 0.1196818
0000d0 7f ac dc 3d 27 5e 0e 3e 12 5e 5a bd 6c 84 6c bc
       0.107750885 0.13903104 -0.05331237 -0.014435869
0000e0 db b5 fb bd 12 f7 a0 bd 45 9b df bd 1e 4d 53 be
       -0.122905456 -0.07859625 -0.10918287 -0.20634887
0000f0 23 43 fe bd 52 43 24 bd 78 e4 5f be a4 bf ba bd
       -0.12415149 -0.040103264 -0.21864498 -0.09118584

decoder_stack.0.ffwd.net.layers.0.weight f4 [64, 16]
000000 ba d8 42 be fe 22 8b 3e 15 38 0d be 23 d5 98 bd
       -0.19027987 0.27175134 -0.13790925 -0.074625276
000010 cb b1 3e 3e 24 0f 9b 3d 6f 26 00 3e a6 37 67 bd
       0.1862251 0.07571247 0.12514661 -0.056449555
000020 fe c2 b3 3d be b1 fc 3d 60 d6 e6 3d ef c7 f6 bd
       0.08777426 0.12338589 0.112713575 -0.12049853
000030 be 89 51 3e ef c5 51 bc 9a 11 81 be 8e ae 5a be
       0.204627 -0.012803539 -0.2520874 -0.2135565
000040 e7 8f b2 3d b8 08 88 3e 22 17 40 3d c1 15 bd bd
       0.087188534 0.26569152 0.04689706 -0.09232665
000050 cc ad 42 3e 8a d3 70 be e1 06 6d 3d 75 37 54 3e
       0.19011611 -0.23518196 0.05786789 0.2072428
000060 57 96 23 3e 87 a7 00 be 64 bc 10 3e 9c c0 11 3e
       0.15975319 -0.12563907 0.14134365 0.14233631
000070 03 19 c6 3d 9d 25 58 be 94 2d 81 be aa 70 6a be
       0.09672739 -0.21108098 -0.25230086 -0.2289454
000080 93 6f 49 3e 41 0c 9b be b5 d7 92 3d b1 2d 91 bc
       0.19671468 -0.30282786 0.07170049 -0.017721983
000090 97 df 07 3e 69 e8 4d 3e 63 1e ce bc a0 3e b1 3e
       0.13268887 0.20108189 -0.025160974 0.34618092
0000a0 cd a2 19 3e 33 d3 51 be 19 7c 3a be 2e 28 b6 be
       0.1500351 -0.20490722 -0.18211402 -0.3557753
0000b0 49 77 58 be 15 d6 46 bd a3 cb 0b 3e 3b 69 61 be
       -0.21139254 -0.04854401 0.136519 -0.22012798
0000c0 c6 a6 42 3d cf 20 9f 3e 8a 11 9a bc 04 3d 31 3e
       0.04752233 0.31079718 -0.018807191 0.17308432
0000d0 5c a6 d6 3c 70 c1 03 bc 5e 4c d7 3d e3 90 0c be
       0.026202373 -0.008041725 0.10512613 -0.13727145
0000e0 e7 bd 0f be fb 28 49 be 42 0e 64 be 88 75 59 be
       -0.14037286 -0.19644539 -0.22271064 -0.21236241
0000f0 d1 dd 91 3e e4 32 83 bd 81 aa 20 bc 58 93 d9 bd
       0.28489545 -0.06406191 -0.009806276 -0.10623807
000100 1f d5 5e bd e6 72 25 3e ff 07 03 3e 88 04 a7 3e
       -0.054402467 0.16157112 0.12796019 0.32620645
000110 fd 40 18 be f5 45 6f bc 7a aa 0b 3d 34 21 3a 3e
       -0.14868541 -0.014604081 0.034098126 0.18176728
000120 83 ac b2 bd 34 0c 44 3e ca 34 c8 bd c2 d9 23 3e
       -0.0872431 0.1914528 -0.09775694 0.16001037
000130 ba 3c ab be db 8f 8c 3e 21 92 be 3e a5 b8 a6 be
       -0.33444768 0.27453503 0.37220863 -0.32562748
000140 c0 a4 7f 3e 44 6f 49 be 19 b2 c3 3d bd 98 76 3e
       0.24965191 -0.1967135 0.09555454 0.24081703
000150 c1 0f c3 bb 61 88 6d bc 0e 5f 3b be 4f a6 87 3d
       -0.0059528057 -0.014497847 -0.18297979 0.06623518
000160 14 f3 4f be 2a 4d 3f bd cf cc b6 3d 8c 7c 43 3e
       -0.2030757 -0.04670445 0.08925783 0.1909048
000170 34 6c 3e 3d 57 b7 44 be 2f 1f d8 3d e7 88 e8 3d
       0.04648991 -0.19210564 0.10552823 0.11354237
000180 2b 52 41 3e 74 4f 29 3e cd 2e 74 bd cf 67 3a be
       0.18879001 0.16534215 -0.059614945 -0.18203662
000190 fe e0 d2 bd 71 f0 a4 be a1 c3 10 be 2c c1 52 3e
       -0.1029682 -0.32214692 -0.14137127 0.20581502
0001a0 38 d7 43 3e 03 0b 3f 3e 32 c5 f9 bb be 53 e7 3d
       0.19125068 0.18656544 -0.0076223845 0.112952694
0001b0 c7 9b 45 be 31 59 4e be 6c 85 46 3d 6c c7 10 bd
       -0.19297706 -0.20151211 0.048467085 -0.035346434
0001c0 59 37 43 3b e9 0b f6 3d af 32 46 be bf 41 02 be
       0.0029787628 0.120139904 -0.19355272 -0.12720393
0001d0 80 0d 77 3e e7 84 86 bd 4f e9 9f 3e 20 13 8f be
       0.24126244 -0.06568318 0.31232688 -0.2794428
0001e0 cd b2 54 be 0b a3 03 3e 67 e8 4f 3d ee db 49 be
       -0.20771332 0.12855165 0.050758746 -0.19712803
0001f0 71 f2 3e 3e cf 2b 29 3e 5b c4 47 3d f8 8f 64 be
       0.18647172 0.16520618 0.048771244 -0.22320545
000200 5e fb da 3d 6a 80 98 3d 98 eb 2e 3e c4 35 03 be
       0.10692476 0.07446368 0.1708206 -0.12813479
000210 32 6a 26 3e 3f 5d 89 bd d1 69 31 3e 5a 02 8d be
       0.16251448 -0.067072384 0.17325522 -0.27540857
000220 18 75 a2 bd 24 af c0 3d 3a b2 b5 bc 80 e5 e3 bd
       -0.0793249 0.094084054 -0.022179712 -0.11127758
000230 9e 10 d6 bd 73 e4 c9 3e 74 99 2f be e7 e6 0b be
       -0.10452388 0.39432105 -0.17148381 -0.13662301
000240 42 e4 bb 3c 9c f2 4e be 66 f8 95 3b 24 61 58 bc
       0.02293599 -0.20209736 0.0045767305 -0.013206754
000250 76 4b 79 3e e9 68 d6 bd 2b 1a 7e be 10 5b 38 be
       0.24345192 -0.10469229 -0.2481467 -0.18003488
000260 fa f1 17 be 34 31 91 bc 86 73 9c 3d cc ae 53 3e
       -0.148384 -0.017723657 0.07639222 0.20672148
000270 1a 40 31 be 6c d7 d9 3c c4 ae df bd a3 ea 21 be
       -0.17309609 0.026591979 -0.10922006 -0.15812163
000280 96 63 65 3d 33 d7 b7 ba ba fc 04 3c cb b2 b8 3d
       0.056003176 -0.0014025926 0.008116895 0.09018477
000290 e1 34 f4 bc c1 44 57 3c ed 2c ab be 3a cf 29 be
       -0.02981037 0.013138951 -0.33432713 -0.16582957
0002a0 e1 ee 66 3e 4d 33 97 3e 33 75 8b be 2a db 0c be
       0.22552063 0.29531327 -0.27237853 -0.1375548
0002b0 1e 18 07 3e b1 0f 32 bd 71 6e ec bd 38 1d c2 3d
       0.13192794 -0.043471996 -0.115445025 0.09478229
0002c0 58 c8 cd 3d fb 49 06 3e ac 1d 17 3e 39 47 89 be
       0.10047978 0.13114159 0.14757413 -0.2681215
0002d0 2f 66 e0 bd c8 43 22 be f1 a2 f2 bd 56 12 4e 3c
       -0.1095699 -0.15846169 -0.11847485 0.012577614
0002e0 ba 8e fa 3d 4a cd 89 bd d4 52 66 bd 8d ec a4 3c
       0.12234254 -0.06728609 -0.056231335 0.020132327
0002f0 83 81 24 3e e4 c6 11 be 0e 62 55 be 13 a5 50 be
       0.1606503 -0.14236027 -0.20838186 -0.20375471
000300 76 6b 57 3e 80 8d d6 bc a9 02 3a bc f0 4a 4d be
       0.21037087 -0.02619052 -0.011353173 -0.20048118
000310 1f 67 1d 3e 56 26 2a bd 13 e3 78 3d 90 19 a7 bc
       0.15371369 -0.041540466 0.06076343 -0.020397931
000320 67 d0 02 be 76 9f 2f 3e 64 a0 18 bd 72 dd 59 3d
       -0.12774812 0.17150673 -0.037262335 0.053189702
000330 13 b1 53 be c3 b9 39 bd 45 2c 00 be f2 9f 62 3e
       -0.20673017 -0.04534317 -0.12516887 0.22131327
000340 fa 87 84 3d d4 d0 37 be 0d d0 ba 3c 46 b6 06 be
       0.06471248 -0.17950755 0.022804284 -0.1315547
000350 26 97 90 3d 2e b9 3a be b2 8e b6 bd 51 e3 00 3c
       0.07060079 -0.18234703 -0.08913936 0.007866696
000360 b4 9e 31 3e f6 b1 aa 3d 19 56 db bb 9f ae 5f 3e
       0.17345697 0.083347246 -0.0066936132 0.21843956
000370 2b fe 91 be ee 3b 01 be 64 85 4a be 78 3e 09 be
       -0.28514227 -0.12620518 -0.19777447 -0.13402736
000380 04 f5 29 be c5 39 1e 3e f5 58 f9 3a 8f 4f 16 3e
       -0.16597372 0.15451725 0.0019023704 0.14678787
000390 12 18 9f 3e 17 8f 62 3e 24 aa 09 3e 5d 95 51 be
       0.31073052 0.22124897 0.1344381 -0.20467134
0003a0 c7 cb d8 ba 45 29 54 3e c2 72 81 3e 7e 26 55 3e
       -0.0016540223 0.20718868 0.25282866 0.20815465
0003b0 0c 42 25 3d 94 fe 65 be be 1d 49 bb 80 1e 27 be
       0.04034619 -0.22460395 -0.0030687894 -0.16320229
0003c0 b7 ce ed bc 59 c2 84 bd a6 86 a8 3c 1d 2d 42 3e
       -0.029029233 -0.064823814 0.020572018 0.18962522
0003d0 75 a2 63 be df 4c b0 3e da 3c 9f be e9 45 45 3e
       -0.22229941 0.34433648 -0.31101114 0.1926495
0003e0 0d b3 b4 3d b4 47 82 be ee 2f 29 3e 0d c8 57 be
       0.08823214 -0.2544533 0.1652219 -0.21072407
0003f0 ba 8f 0f be b1 3b 73 3d 2d 16 db 3e 51 49 1e 3e
       -0.14019671 0.059383098 0.42790356 0.15457655

decoder_stack.0.ffwd.net.layers.2.bias f4 [16]
000000 ca 7c 5f bd 8f 9f 56 bd da 5d d0 3c 0e ed dd bc
       -0.054562367 -0.05239826 0.025435377 -0.027090576
000010 4f a3 8e 3d 14 9b bf bd a1 b4 4c 3d 7e da 51 bd
       0.069647424 -0.09355751 0.04997695 -0.05123376
000020 ac 16 d8 bd 90 ea 42 bd 9c 70 dc bc b0 f6 a9 bd
       -0.10551199 -0.047586977 -0.026909165 -0.08299005
000030 04 f3 48 bd ab 3f 14 3b 19 2b 1c bc aa 6e 79 bd
       -0.049059883 0.0022620957 -0.00953176 -0.060896553

decoder_stack.0.ffwd.net.layers.2.weight f4 [16, 64]
000000 b8 5e 2e 3e 5a d9 d2 bd 22 3b f7 bc a0 41 92 3d
       0.1702832 -0.10295363 -0.030179564 0.07141423
000010 93 13 96 bd 1c d5 58 3d d7 d1 9a 3d 19 f7 23 3e
       -0.07327952 0.052937612 0.07559555 0.16012229
000020 15 b3 02 bd 49 d9 56 bd d4 34 98 3d d6 b9 21 ba
       -0.031909067 -0.052453313 0.07431951 -0.00061693543
000030 70 6f c1 3c f2 d8 f5 bd 35 cc 19 bd 08 26 22 3e
       0.023612708 -0.1200427 -0.037548263 0.1583482
000040 ba 4f c6 bd 7b 47 87 bd 08 7c 0b be d2 93 ed bd
       -0.096831754 -0.06605431 -0.13621533 -0.1160046
000050 b0 6e ec 3d 33 68 ab 3d 3d dd 10 be 87 ae d5 bd
       0.115445495 0.08369484 -0.14146896 -0.10433679
000060 f5 bb df bd 22 9a 8b bd 82 f7 5c bd 90 f0 57 3d
       -0.10924522 -0.06816508 -0.05394698 0.052719653
000070 21 67 05 3d 74 29 f5 bd 7f a0 c6 bd 23 c4 2b bd
       0.032569055 -0.11970797 -0.09698581 -0.041935097
000080 64 e8 75 3d 9a 8a a1 3d 5e 61 c9 3d 66 d5 18 bd
       0.060036078 0.07887764 0.098330244 -0.037312888
000090 c8 90 67 3c 63 30 54 bd 5a af 90 3d e0 b0 e6 bd
       0.01413364 -0.051803958 0.07064696 -0.11264205
0000a0 60 10 d6 bd 80 61 aa bd 2f 77 7b 3c 6e 15 7b 3b
       -0.10452342 -0.08319378 0.01534824 0.0038312334
0000b0 d3 71 1f bd 93 ac 98 bd f2 2a e1 bd 9a 0c c6 bd
       -0.03892691 -0.07454791 -0.10994519 -0.09670372
0000c0 3f 42 31 3c 06 f2 e8 bd c6 48 c5 3b e3 f1 bf 3c
       0.010819017 -0.11374287 0.006020638 0.02343077
0000d0 45 77 8a 3b 64 52 46 bd a0 bd c3 bd ee 0d dd bc
       0.004225644 -0.048418418 -0.095576525 -0.026984181
0000e0 a4 a1 9c 3d 11 3e 01 bc 42 d0 78 3d a9 7f 9f 3d
       0.07648018 -0.007888333 0.060745485 0.07788021
0000f0 34 84 fb bd 6d c7 bf bc 77 09 33 3e 31 90 82 3e
       -0.12281075 -0.023410523 0.1748408 0.25500634
000100 e2 d5 8e bd 36 4e cd bd ca 2f 27 3e 75 56 87 be
       -0.06974389 -0.10024683 0.16326824 -0.2643315
000110 df b2 aa 3d 6c 34 61 bd c3 cd 96 3d e1 ee cd bc
       0.08334898 -0.054981634 0.07363465 -0.02513832
000120 b7 ad 47 be 38 53 41 3e a8 ef 6f 3d 62 84 53 bd
       -0.1949986 0.18879402 0.058578163 -0.051639922
000130 76 70 15 3c a2 41 0c 3c 0e b1 99 3d 2a f5 1c bd
       0.009121051 0.00856057 0.075044736 -0.038319744
000140 49 53 d1 bc c1 a5 25 be 17 ea 47 3c 99 52 bd 3e
       -0.025552409 -0.16176511 0.012201807 0.3697708
000150 dc 23 f5 3d 4e df a2 3d cf 5c de 3d 6c 57 b9 3d
       0.1196973 0.07952748 0.108575456 0.090498775
000160 db 6d 8c bc 7f f2 eb bd 9b 54 dc 3d da b5 d2 bd
       -0.017142227 -0.11520862 0.10758325 -0.10288592
000170 1e 26 01 ba 3c 8a ac bd a4 74 89 bd 25 89 d9 bd
       -0.00049266394 -0.084248036 -0.067117006 -0.10621861
000180 2a 66 70 bd d1 73 ef 3a d2 6e 3d 3d 03 30 89 3d
       -0.05869118 0.0018268769 0.046248265 0.06698611
000190 1b 01 da bb 7d 91 bc 3d 4c d5 56 3d fb 66 2c bd
       -0.006652964 0.09207437 0.05244951 -0.042090397
0001a0 e2 af 3d bc 6b 68 d1 bd 8a ff a0 3e f8 9e 00 be
       -0.011577578 -0.10224994 0.3144496 -0.12560642
0001b0 02 d7 56 3d d6 58 e6 bd b8 4e c8 3d 1c 9c a0 3d
       0.05245114 -0.11247413 0.097806394 0.078422755
0001c0 92 3b 03 be 07 1b 12 3d b1 86 b7 bb 0c f0 2e be
       -0.12815693 0.035670307 -0.0056007733 -0.17083758
0001d0 65 75 70 bc 12 ea 32 be 7d 19 6e 3d 76 5c 13 3e
       -0.014676427 -0.17472103 0.058129776 0.1439074
0001e0 7e 2c 31 be 67 0d d7 3d 1e 90 8a bd eb 91 34 3c
       -0.17302129 0.10500603 -0.067657694 0.011021118
0001f0 fb b9 51 3d bf ab 8a 3d 51 79 a9 3d a7 10 1c be
       0.051202755 0.06771039 0.082750924 -0.15240727
000200 0b 4d c0 bd f9 9e 1b be 5d a5 1d bd 43 03 cb bd
       -0.09389695 -0.15197362 -0.03848778 -0.099127315
000210 f1 9f 3d 3e 33 05 6c 3d 77 73 32 be 25 01 01 be
       0.18518044 0.057622146 -0.17426859 -0.12598093
000220 b9 c0 31 be d0 5e 2e be 7a 5b 22 3d 44 a9 9f bd
       -0.17358674 -0.17028356 0.03963802 -0.07795957
000230 35 9c f8 bd e6 86 14 be 52 53 48 bd 76 81 29 be
       -0.12139169 -0.14504585 -0.048907585 -0.16553292
000240 fc 27 80 3d e4 81 21 be 77 26 d9 3d fd c6 da bd
       0.062576264 -0.15772206 0.1060304 -0.10682485
000250 3b ea 50 bd 40 e6 cf 3d b3 a8 3b bd 06 34 b8 3c
       -0.05100463 0.101513386 -0.04581518 0.022485744
000260 75 92 e0 bd 84 a0 7c 3d 59 c0 03 be de 06 6d 3d
       -0.109654345 0.061676517 -0.12866344 0.057867877
000270 9a 94 28 be 84 50 9a bc 4b 7b a8 3d f8 45 cb 3c
       -0.16462937 -0.018837221 0.08226641 0.024813637
000280 f5 15 04 be 9f 47 06 3e d2 b5 a1 3d be e0 0d be
       -0.12899001 0.13113259 0.078960076 -0.13855264
000290 b7 5c 80 3d 76 88 83 bd 69 b4 ec bd 47 78 09 bd
       0.06267684 -0.06422512 -0.11557848 -0.03356197
0002a0 a1 f2 bf bd 47 f1 86 3d a9 5e b2 bc 91 62 46 bc
       -0.0937245 0.06588989 -0.021773653 -0.012108461
0002b0 07 1d 75 3b 76 25 ec 3c 39 e4 05 bd 1b b5 b9 bd
       0.0037401335 0.028826457 -0.032688353 -0.09067746
0002c0 51 17 ce bd 2f e1 1f bd eb fc 39 3e 47 3d 6f 3d
       -0.10063041 -0.03903311 0.18162887 0.058408048
0002d0 7f 05 15 bd b6 7b 73 3d 4f b1 ee 3d 66 15 3f bd
       -0.036382195 0.05944415 0.11654913 -0.046651267
0002e0 cf 59 0b 3b b1 0d c2 bc ea 57 45 be 50 da f2 bc
       0.0021263247 -0.02368817 -0.19271818 -0.029645115
0002f0 aa cc b4 3d d2 66 c7 ba 3b ca e1 3d 76 de d4 bc
       0.08828099 -0.0015213138 0.110249005 -0.025984984
000300 e1 4c 0e 3e 3b 74 2e bc fe 75 72 3e 6b 0d 3a bd
       0.13896514 -0.010647829 0.23677823 -0.045422953
000310 1f c6 1f be 24 df 98 bb 18 fd d7 bd f9 76 65 3e
       -0.15602921 -0.0046652723 -0.10546321 0.22408666
000320 5c 05 18 3e 67 a4 96 3d 78 a8 a3 bd 4e 7c e9 bd
       0.14845794 0.07355576 -0.07991117 -0.11400662
000330 a4 24 67 bd 22 33 80 bc db f5 ab bd 6f a6 22 3e
       -0.056431428 -0.015649382 -0.083965026 0.15883802
000340 94 1d 53 3e fb 4d 6d 3d 26 6b d9 3d ae 5d 30 3d
       0.20616752 0.057935696 0.1061614 0.04305809
000350 44 0e ae 3d 7e de 4c 3e 0b 27 60 3d ba 6d 3e bd
       0.08498815 0.20006749 0.054724734 -0.046491362
000360 d0 a0 48 3c 59 83 dc 3b ad 39 cd 39 f3 08 ed bd
       0.012245372 0.006729525 0.0003914362 -0.115739726
000370 88 0a b0 3d 28 e7 b7 3d 91 58 66 3d 82 94 71 bd
       0.08595759 0.089796364 0.056236807 -0.05897952
000380 52 4f bb 3d a0 25 18 be bf 19 b5 38 81 fe 4e 3d
       0.091459885 -0.14858103 8.635548e-05 0.050535683
000390 ad 38 5b 3c 76 c4 99 bc 21 53 fa 3d 30 25 ac 3d
       0.013380212 -0.018770438 0.12222887 0.084055305
0003a0 cb a0 da 3d 4e 72 96 3d f2 40 16 be a8 66 be bb
       0.106752 0.07346021 -0.14673212 -0.0058105774
0003b0 40 e2 0e 3e d6 4a d0 3d 36 2e 7e 3d fd 3d 21 3d
       0.13953495 0.10170524 0.06205579 0.039365757
0003c0 61 00 62 3d b0 b4 98 3d 5f c6 8f bd a2 69 b1 bb
       0.055176143 0.074563384 -0.07020258 -0.0054142037
0003d0 f7 9f 7e bd de a5 b7 3d 63 63 1c be 8c bb 13 3e
       -0.062164273 0.089671835 -0.15272288 0.14427012
0003e0 07 9f fb bc ce 12 0b be b3 8e b4 bd c6 47 12 be
       -0.030715479 -0.13581392 -0.0881628 -0.14285192
0003f0 43 c4 be bd 12 a8 10 3e c8 e5 8c bd 9e ed 08 3e
       -0.09314778 0.14126614 -0.06879765 0.13371894

decoder_stack.0.ln1.bias f4 [16]
000000 47 2b 1a bd cd d6 07 3b 76 20 02 bd ff a4 14 bd
       -0.03763893 0.0020727396 -0.03176924 -0.036290165
000010 49 99 69 bc 4a d3 2e bc 48 40 9b bc f8 be ca 3b
       -0.014257737 -0.010670492 -0.01895155 0.006187316
000020 64 19 10 bb a4 84 83 bc 1c 19 09 3d 05 ac f8 3c
       -0.002198779 -0.016054459 0.03347121 0.030355463
000030 75 83 19 3d f5 f3 85 ba a9 73 fa 3c 9c 5b 53 bc
       0.037478883 -0.00102198 0.03057273 -0.012900259

decoder_stack.0.ln1.weight f4 [16]
000000 6a 31 6f 3f 96 73 6a 3f 81 10 7e 3f 15 85 96 3f
       0.93434775 0.9158262 0.9924393 1.1759363
000010 b8 25 84 3f 90 41 66 3f de 29 81 3f d0 d8 6d 3f
       1.0324011 0.8994379 1.0090902 0.92908955
000020 15 8f 7a 3f 3f fd 80 3f ef 97 80 3f 46 3b 82 3f
       0.97874576 1.0077285 1.0046366 1.0174339
000030 b4 2c 80 3f 1d ed 8e 3f e1 c6 6a 3f 75 b3 7a 3f
       1.0013642 1.1166111 0.91709715 0.9793008

decoder_stack.0.ln2.bias f4 [16]
000000 3a 69 b9 bd cd 5e f0 3c af 21 93 bd bf fb ef bd
       -0.090532735 0.02934208 -0.07184159 -0.11717939
000010 86 88 ea bd 1d 69 44 bd 6b 15 d6 b9 af 5c 03 3e
       -0.11451821 -0.047951806 -0.00040833218 0.12828325
000020 98 7b 3d 3d e1 21 7b 3e 30 ac 24 3d 9c 52 19 3d
       0.046260446 0.24524643 0.040203273 0.037432298
000030 99 29 ea 3d cd dc 16 be b0 b1 ea bd ec ed 08 3a
       0.114337154 -0.14732666 -0.114596725 0.00052234414

decoder_stack.0.ln2.weight f4 [16]
000000 ab 36 93 3f 45 b3 90 3f 6f 3c 50 3f 6d c8 91 3f
       1.1501058 1.1304709 0.81342214 1.138929
000010 90 21 8e 3f bb cb 76 3f 87 ce 5f 3f a6 6f 8c 3f
       1.1103992 0.9640462 0.8742451 1.0971572
000020 d5 3b 88 3f a0 2d 9c 3f b4 fe 83 3f 9e c3 85 3f
       1.0643259 1.2201424 1.0312104 1.0450323
000030 37 56 97 3f 79 ca 9a 3f 91 db 95 3f 39 0d 7d 3f
       1.1823186 1.209304 1.1707631 0.988483

decoder_stack.0.ln3.bias f4 [16]
000000 ab e2 eb bc 41 5f 5e 3d 89 3d 5b bd 07 37 ec 3c
       -0.028794607 0.05429006 -0.05352548 0.028834833
000010 a6 50 1f bc d2 38 3d 3d cc a6 e7 3c 9c 93 24 bd
       -0.009723818 0.046196766 0.028277777 -0.040179834
000020 d3 38 76 bc 60 78 0a bc 67 fc 49 3d c3 d8 9e 3b
       -0.015028196 -0.008451551 0.049312975 0.0048476174
000030 05 63 48 bc 27 97 28 ba a4 6d 24 3d c9 d2 c0 bc
       -0.012230639 -0.0006431215 0.040143624 -0.02353801

decoder_stack.0.ln3.weight f4 [16]
000000 ba 6c 88 3f 85 ad 75 3f 17 11 77 3f 39 82 7d 3f
       1.0658181 0.95967895 0.9651045 0.9902683
000010 bd 64 7b 3f 8e 32 82 3f 5d 57 73 3f 50 58 83 3f
       0.9820059 1.0171678 0.9505518 1.0261326
000020 92 e6 80 3f 38 58 7d 3f 1a f8 81 3f b4 68 8a 3f
       1.0070364 0.98962736 1.015384 1.0813203
000030 e0 6b 89 3f 75 a9 88 3f 4f 38 82 3f 35 d0 81 3f
       1.0736046 1.0676714 1.0173434 1.0141665

decoder_stack.0.sa.heads.0.key.weight f4 [4, 16]
000000 ba a5 83 bd 3c 81 ac 3d af ce 82 3e 3d 35 2b be
       -0.06428094 0.08423087 0.25548312 -0.16719528
000010 59 3e bc bd 53 4e 59 bd 86 a7 51 3d 66 67 fc bd
       -0.09191579 -0.05305321 0.051185153 -0.12324409
000020 01 7e 19 3e 6c 08 f9 3a bc 68 90 3d cf 3b 18 3c
       0.14989473 0.0018999702 0.070512265 0.009291603
000030 41 c8 f9 3d cb b6 85 3e a7 a1 27 3e 35 c1 b0 3d
       0.121963985 0.26116022 0.16370259 0.08630601
000040 77 7c d0 3d 81 17 06 be b9 43 09 be 37 79 6e 3e
       0.1017999 -0.13094904 -0.1340474 0.23288427
000050 e6 c7 c5 bd a5 cd 9f 3d 47 13 9e be c8 89 ab 3e
       -0.09657268 0.078028955 -0.30874082 0.33503556
000060 a2 9b 1f be d1 ae 17 be 68 31 6b 3e e3 19 a4 be
       -0.15586713 -0.14812781 0.22968066 -0.32051
000070 15 04 72 3d 60 05 95 3d 74 a4 22 3e 0c d3 3a be
       0.059085924 0.07276416 0.15883046 -0.1824457
000080 c4 be 85 bd 73 7f ae 3d d8 6e fd 3c ee 74 d7 bd
       -0.06530526 0.08520403 0.030936643 -0.105203494
000090 80 91 82 3e d6 a5 39 3e 06 ec 4e bd a8 cc 70 bd
       0.25501633 0.18129668 -0.05051806 -0.058788925
0000a0 6a 7b b4 bb 3c 13 23 bd fe 86 f0 3d eb 54 b5 bd
       -0.005507876 -0.039813265 0.11744498 -0.088540874
0000b0 d3 b7 00 be 7f c3 07 3e eb 4f a2 3e d8 60 44 3e
       -0.12570123 0.1325817 0.31701598 0.19177568
0000c0 88 b2 9a bd 86 6d 6f 3c 65 9c 84 be c3 8b 90 3d
       -0.075535834 0.014613515 -0.2590057 0.070579074
0000d0 cf c8 14 be d2 c7 b0 3e 68 7b f3 3d ed e2 b5 be
       -0.14529727 0.3452745 0.11888772 -0.35524693
0000e0 42 67 29 be 63 bb 33 3e 07 64 92 be 1e 0c bf 3e
       -0.16543296 0.17551951 -0.2859194 0.37313932
0000f0 eb 01 f3 3c 0b a4 81 3e a2 7d 52 be 08 19 5a bd
       0.029664 0.25320467 -0.20555738 -0.053246528
