weights.safetensors (safetensors, 48998 bytes, 72 tensors)

blocks.layers.0.ffwd.net.layers.0.bias f4 [64]
000000 07 98 df bb 00 77 8e be c1 c1 68 be c0 68 08 3e
       -0.006823543 -0.27825165 -0.22730161 0.13321209
000010 65 43 b3 3d 67 0b 87 3c c8 a2 8c 3c 1c 73 de bd
       0.08753089 0.01648493 0.017167464 -0.10861799
000020 6c 35 cc 3d 00 e6 fa bd 4e ad 61 3e e6 27 13 be
       0.09971127 -0.122509 0.22038767 -0.14370689
000030 5f a6 07 3e 43 76 80 3e 1e 05 1d 3e 12 87 84 bc
       0.1324706 0.25090227 0.15333983 -0.016177688
000040 d5 78 82 be 9d d7 18 bd 4b 8f e5 ba ed 49 20 3c
       -0.25482813 -0.037315 -0.0017514018 0.00978325
000050 43 25 3e bc 52 84 78 bc c0 f9 31 3e 4d ca bd 3d
       -0.011605564 -0.015168266 0.17380428 0.092671014
000060 bc 07 69 bd 2e 70 be 3c 64 15 03 3e a7 49 04 be
       -0.05689214 0.02324685 0.12801129 -0.12918721
000070 22 f0 2d be 99 5c 1e be 8b 60 c8 3d 1f a7 73 3d
       -0.16986135 -0.1546501 0.09784039 0.05948555
000080 fd 3d 70 be ec dc e2 3d 29 af 1b 3e 8d 24 c2 bd
       -0.23461147 0.11077294 0.15203537 -0.09479628
000090 7c 46 f6 bd 97 f1 8c 3e 8c 92 f8 bd da 29 13 3e
       -0.120251626 0.27528068 -0.121373266 0.14371434
0000a0 c3 b5 80 be b8 f7 0a be df 0c 14 3d f3 b3 5e 3e
       -0.25138673 -0.1357106 0.036145087 0.21748333
0000b0 48 f9 31 be 4c 77 b7 3c 31 71 19 be 25 5f 0f 3d
       -0.1738025 0.022395752 -0.14984585 0.035002846
0000c0 16 cf 3e 3d e4 9a 3e 3e 32 46 84 bd 35 5f 5c be
       0.04658421 0.18613774 -0.06458701 -0.21520694
0000d0 f8 7f 9c 3c ee 48 1d 3e 0b d9 83 3e ac ff 65 3e
       0.019103989 0.15359852 0.25751528 0.22460812
0000e0 2f c5 26 3e 65 47 eb bd 23 c6 8a 3e a6 d9 ef bc
       0.16286157 -0.11488227 0.2710429 -0.029278588
0000f0 5b 5f 3f 3e 05 3b 5d bd 3f 5b f9 3d c3 ad c6 bc
       0.18688719 -0.054011364 0.12175607 -0.024252778

blocks.layers.0.ffwd.net.layers.0.weight f4 [64, 16]
000000 d3 0a 1c 3e 7c 2a 0f 3e ff bd 5a be 32 0b 76 be
       0.15238504 0.1398105 -0.2136154 -0.24027708
000010 bd 26 4a bd 24 3b c3 bc 31 78 40 bd 18 0c 57 3d
       -0.04935335 -0.023831911 -0.046989623 0.052501768
000020 e0 89 dc bd 74 28 20 3e 81 07 8b bd e2 2d 93 3e
       -0.10768485 0.15640432 -0.06788541 0.28745943
000030 74 0d f3 bd 8b 46 16 be 4c fb 9e be 44 94 87 bd
       -0.118678 -0.14675348 -0.310511 -0.06620076
000040 ae d3 31 3e ba ef 97 bd 5f f0 f0 3d 46 a1 de bc
       0.17365906 -0.07418771 0.11764597 -0.02717651
000050 fe 3a ca 3c af 5c 36 3e a8 9b 6c bc 8a a5 2e be
       0.024686333 0.17808793 -0.014441408 -0.17055336
000060 c9 30 2a be 5d 99 2b be 87 b9 75 bb a0 de 8e bd
       -0.16620173 -0.16757722 -0.0037494616 -0.06976056
000070 a6 1c 8e bd 80 38 55 be 6a c1 1f 3e 2d 31 2c 3e
       -0.06939058 -0.20822334 0.15601125 0.16815634
000080 c3 39 24 3c 07 3a 89 3c 48 1d 2b bd 6c 71 f6 bb
       0.010023537 0.016751302 -0.04177597 -0.007520845
000090 e4 a4 3a bd 68 3e 09 3e a2 c0 a3 3d 0a e6 96 bb
       -0.04556741 0.13402712 0.07995726 -0.0046050595
0000a0 64 fb 0f 3d c4 1e f5 bd 85 39 38 bc c1 fe 70 bd
       0.035151854 -0.11968759 -0.0112441825 -0.058836702
0000b0 e5 bf 90 bd 94 aa 40 bb 42 ff 78 3d b8 b1 07 be
       -0.07067851 -0.0029398547 0.060790308 -0.13251388
0000c0 41 37 0e 3e 84 56 2b 3e 08 5f b7 3d 87 0e 19 be
       0.13888265 0.16732222 0.08953673 -0.14946948
0000d0 dd 04 9a bd 8c 45 c9 3e 93 fd 58 3e 8d 74 6a bd
       -0.07520459 0.39310873 0.21190481 -0.057240058
0000e0 e1 2a da be ff 9e 4a be df d8 17 3d f8 9a 45 3e
       -0.4261084 -0.19787215 0.03707206 0.19297397
0000f0 3d 4f 02 3b 34 dc d5 3d ca 3d 97 bd c8 53 17 3e
       0.0019883655 0.10442391 -0.07384832 0.14778054
000100 13 33 45 3d a4 0f 01 be 1c 5f a4 3e cf 57 15 3e
       0.04814441 -0.12603623 0.32103813 0.14584278
000110 49 dd 05 be 0c 59 57 3d 6b b1 39 3e fa 1c 2e 3e
       -0.13072695 0.052575156 0.18134086 0.17003241
000120 62 63 a6 be bf 83 13 be e6 2c 03 3e e8 67 5e be
       -0.32497698 -0.14405726 0.12810096 -0.21719325
000130 b8 d1 6d be 17 42 13 3e 5f b8 76 3d 5c 26 40 3e
       -0.23224533 0.1438068 0.060234424 0.18764633
000140 c6 6c c2 be 40 75 1d be 55 bf fb bd 6a fd 10 3e
       -0.37973613 -0.15376759 -0.12292353 0.1415917
000150 6b 9a a3 be 94 2d 4d 3e c3 c0 93 3d 25 08 ab 3d
       -0.3195375 0.20036918 0.07214501 0.08351163
000160 46 8c 8c 3e 21 2b fc 3d 96 94 34 bd 78 63 a5 be
       0.2745077 0.12312914 -0.044087015 -0.3230245
000170 c5 64 c2 3d 6e cc 41 3e d6 61 2d bd 54 df 33 be
       0.094918765 0.1892564 -0.04232963 -0.17565662
000180 35 c0 69 bd f4 bc 4b 3e fa 7c ef bc 40 35 fe bd
       -0.05706807 0.19896299 -0.029234398 -0.124125004
000190 d8 e7 eb 3d 21 7d 7b bc 86 de 94 3d f1 eb 62 be
       0.1151883 -0.015349657 0.072690055 -0.22160317
0001a0 67 b3 79 bd 4d 5a 39 3e 2b 9c 59 3d 9a 57 2a 3e
       -0.060962107 0.18100853 0.05312745 0.1663498
0001b0 25 c8 89 be bc 06 6f be 86 a7 cc 3c d9 56 4c bd
       -0.2691051 -0.23342413 0.024982225 -0.049887512
0001c0 59 78 5a be 1c b0 61 3d 3d d0 af be 0e 4d 56 3e
       -0.21334971 0.05509959 -0.3433856 0.20927832
0001d0 9b df 4c 3d 03 05 7a bd 14 ee 35 be 0b b2 4d 3e
       0.050017934 -0.061039936 -0.17766601 0.20087449
0001e0 95 cb ef ba 58 78 00 be 81 f1 15 bd 81 69 a5 3e
       -0.0018294925 -0.12545907 -0.03660727 0.32307056
0001f0 e3 1d 1f 3e 61 a1 5e 3e 01 cb f4 3c 0a 67 9b 3e
       0.15538745 0.21741249 0.029881956 0.3035205
000200 53 3c ae 3c 44 29 2e 3d 48 5a 5a 3e fa 34 3e bc
       0.021269 0.042519823 0.21323502 -0.01160931
000210 42 fb 3d be cd 76 a9 3e 35 ee 46 bd c8 6e 96 3c
       -0.18552878 0.3309845 -0.048567016 0.018363371
000220 9f 76 8b be 6c 5b 8b bd e7 36 13 3e c0 75 2b be
       -0.27238938 -0.06804547 0.14376412 -0.16744137
000230 46 2c 35 3d 6d d8 5d bd 72 a1 a9 3d 67 1f d6 3e
       0.044231676 -0.054161478 0.082827464 0.41820833
000240 7a 50 a0 bb 2a 0f 68 3e a7 a6 33 bd fb 8c b8 3d
       -0.004892406 0.22662035 -0.043860104 0.09011265
000250 aa 2b 65 be 49 9c ae bd 02 4d 8c 3d cb b2 57 be
       -0.22379938 -0.08525903 0.068506256 -0.21064298
000260 9a 32 4d be 1d 45 ad be bb 63 0a be 59 82 86 bb
       -0.20038834 -0.33841792 -0.13514607 -0.004104894
000270 a7 42 d2 be 53 db 97 3e 8b 2e 27 be cc 08 70 3d
       -0.41066477 0.2965952 -0.16326348 0.05860214
000280 4e c7 8b be 56 51 cc bc fb cf 58 3e 43 71 a7 3e
       -0.27300495 -0.024941128 0.21173088 0.327036
000290 63 eb d7 3d 50 30 14 be e3 30 3e 3e 75 ef 7e 3a
       0.10542943 -0.14471555 0.18573336 0.0009725013
0002a0 79 e2 df 3d b2 4f 59 3e 5e 57 2d be 6d 51 1b 3d
       0.10931868 0.21221808 -0.16927859 0.03791945
0002b0 17 5f 4f 3e 5f 84 ad bd 9d 64 6c 3d bd f8 d3 3c
       0.20251118 -0.084725134 0.05771314 0.025875444
0002c0 2b d2 b5 bd 17 4a a5 3e 7d de 18 be 13 38 06 3e
       -0.08877977 0.3228309 -0.14928623 0.13107328
0002d0 6c 34 4c be d5 6e 83 3d c0 dc 4a be 88 f3 82 be
       -0.19941872 0.06417624 -0.19810772 -0.25576425
0002e0 11 d2 00 3e 2c 15 ba 3e 78 57 cf 3d bd db 63 3e
       0.12580134 0.36344278 0.10124105 0.22251792
0002f0 fd 73 83 3e dc f6 bf 3d 78 07 a1 bd 8d 86 04 be
       0.2567443 0.093732566 -0.07862753 -0.12941952
000300 73 2e 58 3e d8 43 3b 3e b5 91 d2 bd 9a 21 48 3c
       0.21111469 0.18287599 -0.10281698 0.0122150425
000310 d8 63 35 3e 08 dc bd bd ae 06 c0 3d f3 ef be be
       0.17713869 -0.09270483 0.09376274 -0.37292442
000320 5b 9c ad 3d b6 7e ae 3e 02 60 8d be 15 24 a3 bd
       0.08477088 0.34081048 -0.2761231 -0.079658665
000330 c2 7e 04 3e 25 1e a0 bd 75 8f 8b 3e 69 cb 41 be
       0.1293898 -0.078182496 0.27257887 -0.18925251
000340 aa 60 96 bc 18 5b 83 3e 94 57 71 3e 2c f3 74 be
       -0.01835664 0.25655437 0.23568565 -0.23920888
000350 a4 5d 26 3c 2c 7e 88 3e ab 9d b5 be c6 38 98 bc
       0.010154162 0.26658762 -0.35471854 -0.01858176
000360 9e cd d9 3c d0 f7 d6 3d 6f ad 03 be df ca bb be
       0.026587304 0.10496485 -0.12859128 -0.36678216
000370 c5 95 b7 3d c8 a3 69 3e 87 c5 88 be 22 34 4c 3a
       0.08964113 0.22816384 -0.267132 0.0007789751
000380 e2 2f 59 3e bb 24 7b 3e 12 8a 2d 3e 39 bb ff bc
       0.21209672 0.2452573 0.16947201 -0.031217204
000390 46 89 85 3e e9 ec 85 bd b0 6f 1f be 70 d7 48 3e
       0.26081294 -0.06539328 -0.15569949 0.19613433
0003a0 a2 aa 02 3e 6f 53 ed bd 4c d9 66 3d 75 cd 0f 3e
       0.12760404 -0.11588179 0.056359574 0.1404322
0003b0 34 77 29 3e 93 9a 25 3d 88 18 3b 3e c1 09 87 bd
       0.16549379 0.040430617 0.18271077 -0.06593657
0003c0 1c 81 72 3d 67 ab fb bd b0 97 42 3e 9f 60 a4 3d
       0.05920516 -0.12288552 0.19003177 0.080262415
0003d0 68 84 ca bc 20 92 3a be 34 f3 ca 3c e6 cf 90 be
       -0.02472134 -0.18219805 0.024774171 -0.28283614
0003e0 d8 d1 50 bd 5f 04 07 bd e8 bf 8c bd ab c7 8a be
       -0.050981373 -0.032963153 -0.06872541 -0.2710546
0003f0 75 c1 70 3b 87 0d 2b be e7 aa 26 be 53 2e 95 bd
       0.0036736403 -0.16704379 -0.16276132 -0.07284226

blocks.layers.0.ffwd.net.layers.2.bias f4 [16]
000000 b6 c9 8e 3b 9e c7 41 3d 49 71 91 3d e1 92 9f bc
       0.004357542 0.04730951 0.071016856 -0.019479217
000010 55 2d 25 be ff 12 77 3b 67 f0 5a 3d 37 bf ab 3d
       -0.16130574 0.0037700532 0.05345192 0.08386081
000020 c3 43 47 bd 4f 52 33 bd cb 15 0e 3e f9 e9 13 be
       -0.048648607 -0.043779667 0.13875501 -0.14444722
000030 61 e8 a8 bd ba 2a 00 3d fd 82 83 3c 12 1c 8f bd
       -0.08247448 0.031290747 0.016053671 -0.06987776

blocks.layers.0.ffwd.net.layers.2.weight f4 [16, 64]
000000 1b ce 9b bd 6e 10 a8 bd 07 96 15 bd eb 93 e9 bd
       -0.07607671 -0.08206259 -0.03652003 -0.11405166
000010 60 57 d8 bd fe b8 01 be 1e 1f e8 bd 69 a5 ea bd
       -0.105635405 -0.12668225 -0.1133406 -0.11457331
000020 74 e5 ba bc 13 79 37 bd 40 38 9e 3d 27 f9 67 bc
       -0.02281449 -0.0447932 0.077255726 -0.014158524
000030 09 61 4c 3e a4 14 e4 bd 97 32 3c 3d a8 65 b4 ba
       0.19958891 -0.111367494 0.045946684 -0.0013763206
000040 80 d2 9c bd 37 d8 1a 3d 42 64 7d bd 57 bc dd bc
       -0.07657337 0.037803855 -0.06186319 -0.027067346
000050 82 14 ea bc 54 6b 56 3d e7 9d d3 bd dd 1d 9a bd
       -0.028574232 0.05234845 -0.10332852 -0.07525227
000060 9e ea d0 bd 4c 5b f4 bd 97 68 23 3d d2 87 5e bd
       -0.10201 -0.11931476 0.039894667 -0.054328747
000070 91 0f 17 3e 53 14 92 3d ed 75 9e 3d b7 ac fc bd
       0.14752032 0.07132783 0.07737336 -0.1233763
000080 f5 9e a0 bd 0e 33 4f bd 77 09 ef 3c ef dd d0 bd
       -0.07842819 -0.0505858 0.029179318 -0.101985805
000090 ca 78 27 3d ce 1f f5 bd 20 40 11 be 2f 05 32 3d
       0.040886678 -0.11968957 -0.14184618 0.043461975
0000a0 94 ab fd bd 57 8e 0a be d5 68 95 3d 74 5d 9c bd
       -0.123862416 -0.13530861 0.07295386 -0.07635012
0000b0 77 fd 45 be b7 b7 09 be cc 4e 96 bd 28 5d d9 bc
       -0.1933497 -0.13448988 -0.07339248 -0.026533678
0000c0 ec 82 bd 3d f0 1f 69 3d 99 37 b3 3d 5a 24 41 3c
       0.09253487 0.056915224 0.08750839 0.011788452
0000d0 ae dd 91 3b 3a 6c bc bd e2 4d 35 bd 8a 6f de 3b
       0.004451475 -0.0920033 -0.044263728 0.006788199
0000e0 a4 ad 66 3d 8e b7 e9 bc 69 21 d8 3d 5d 70 54 3c
       0.05631794 -0.028529909 0.105532475 0.012966243
0000f0 db 25 8f bd 67 4f ff 3d 42 ab b5 3d 78 fc 03 3e
       -0.06989642 0.12466317 0.088705555 0.12889278
000100 3c d0 da 3d d6 d0 08 3e c0 19 3c 3d 03 de 39 3e
       0.10684249 0.13360915 0.045922995 0.18151097
000110 56 1d 24 3e 61 2e 0c 3e 5d 1c eb bc f6 79 1c bd
       0.16026816 0.13689567 -0.028700048 -0.03820225
000120 e1 78 39 3e d6 dc 8f 3d 05 cd 2a 3d aa d4 0b bc
       0.18112518 0.07024543 0.041699428 -0.00853459
000130 df b7 0e bd 41 59 40 3e da af dc bd 0b 84 76 3d
       -0.034843322 0.18784048 -0.107757285 0.06018452
000140 c6 2c 83 3d d1 79 9d bd 1b da 53 3d 26 fa 49 3d
       0.06405024 -0.0768925 0.051721673 0.049310826
000150 7a a2 cb 3d d9 e2 a7 3d ed 0a e4 3d 21 4c 9a bd
       0.09943099 0.08197565 0.111348964 -0.07534052
000160 75 64 19 bb e4 02 03 be 89 6b 69 3d dd a0 ed bd
       -0.0023405824 -0.12794071 0.05698732 -0.11602948
000170 e2 a3 6d bd 99 3d 3a 3d 46 73 86 bd 59 b0 91 3d
       -0.05801762 0.0454689 -0.065649554 0.07113714
000180 a6 70 06 3d a8 a7 37 3c ea 46 5d be dc ff f7 3d
       0.032822274 0.011209406 -0.21609083 0.12109348
000190 ec a2 50 be 01 4a 06 3c 55 44 ac bd 3d 78 22 bd
       -0.2037465 0.008196355 -0.08411471 -0.03966545
0001a0 19 a0 02 bc 60 62 28 3e 48 19 f0 3d 60 2a 7e bd
       -0.007972741 0.16443777 0.11723572 -0.06205213
0001b0 16 e3 04 bd 58 52 02 3e e2 e7 c1 3d 5b 2b 29 bd
       -0.03244313 0.12726724 0.09468056 -0.041301113
0001c0 e0 4b f2 bd ba 35 2b 3e 40 86 14 3e 3e 24 04 3e
       -0.11830878 0.16719714 0.14504337 0.1290445
0001d0 da 36 c1 3d 78 a5 41 3d 2f 68 2a be 03 01 ee 3d
       0.0943429 0.047276944 -0.16641305 0.11621287
0001e0 96 d8 de 3c a3 c9 c6 3d 63 87 51 3e c3 1b e6 3d
       0.027202886 0.09706428 0.20461802 0.11235764
0001f0 fc 07 84 3d 12 73 c0 bc e3 81 23 3e c8 01 32 3e
       0.064468354 -0.02349237 0.15967517 0.17383492
000200 ae b6 6a 3d a3 3c 37 3d df 10 98 3c a5 ce 47 bd
       0.057303123 0.044735562 0.018562732 -0.048781056
000210 1a 2a 29 bd 16 d5 b9 3d 05 77 51 bd 7d 53 53 3c
       -0.041299917 0.09073846 -0.051138896 0.012898323
000220 b3 48 ce 3c 9a c6 33 3c 64 f7 1c be da 8a 7c bc
       0.02518115 0.010972643 -0.15328747 -0.015413964
000230 21 1c 23 be 3b 75 8e bd 37 04 30 be e2 c3 02 be
       -0.15928699 -0.06955954 -0.17189108 -0.12770036
000240 1b 8f a9 3b c4 13 57 be 12 51 ad 3b 3e 3f 1e be
       0.00517453 -0.21003634 0.0052892053 -0.15453812
000250 6a 7c 63 be cf f9 b8 bc 00 67 7b bd 11 37 de 3c
       -0.22215429 -0.022580056 -0.061377525 0.027125867
000260 51 12 3a 3d c1 57 b7 bd d6 73 a7 bd 00 2c e9 bd
       0.045427624 -0.089522846 -0.08176391 -0.113853455
000270 eb 9c 24 be b1 f0 c6 bd f1 52 0b be 7a e0 cb bc
       -0.16075484 -0.09713877 -0.13605858 -0.024887312
000280 4d 6a 2e be 29 d7 b1 bd 4a 83 58 bd af 7e 20 be
       -0.17032738 -0.08683617 -0.052859582 -0.15673326
000290 30 3c c2 bd 66 cc d2 3c 81 5d b7 3b 8a 7c 1d 3d
       -0.09484136 0.02573223 0.0055958633 0.038448848
0002a0 20 7b d0 3d fe e3 02 be 7c f8 d1 bd 9c e0 17 be
       0.10179734 -0.12782285 -0.10252473 -0.14831775
0002b0 f2 05 27 3d b5 2c c3 bd 66 f8 5f 3d 0e 0b 41 bd
       0.040777154 -0.095300116 0.05468025 -0.047129683
0002c0 81 07 22 be fb ab 1f be a3 13 6c bd 96 81 8c 3d
       -0.15823175 -0.15592949 -0.057635915 0.06860654
0002d0 68 2e ab 3d 3e a1 11 be d6 bb bb bd 6c 9b a0 3d
       0.08358461 -0.14221665 -0.09166686 0.07842144
0002e0 89 6a 06 be a9 8f a0 3d a8 94 9c 3d 72 cd bb 3d
       -0.13126577 0.07839901 0.076455414 0.09170045
0002f0 6b 13 b7 bd af dd 46 3d d4 28 64 be 9a c2 8c bc
       -0.089392506 0.048551258 -0.222812 -0.017182637
000300 ca 35 39 3e 40 fd 27 bd bc 5a 35 3b 68 74 18 be
       0.18086925 -0.041013002 0.002767249 -0.14888155
000310 e3 b7 80 bd 59 aa 40 be 48 58 31 3e 98 0e e7 bd
       -0.062850736 -0.18814982 0.17318833 -0.112820804
000320 9d 15 65 be cd 30 da bd a4 8d b9 bd 80 ea 2f 3e
       -0.22371526 -0.10653839 -0.09060219 0.17179298
000330 de 6b e6 3c 4f 59 0d 3e c2 68 34 3e a2 f4 3d bc
       0.028127607 0.138036 0.17618087 -0.01159397
000340 26 7e b2 bd d5 c0 99 3e bf 7e 54 be 41 d7 61 3d
       -0.08715467 0.30029932 -0.20751475 0.055136923
000350 58 51 20 3e 89 22 af bc 27 61 dd bd ca ba ca bd
       0.1565603 -0.021378772 -0.10809546 -0.098989084
000360 41 ac 08 be b4 c7 4c be 92 b3 80 be ea 9a 39 be
       -0.1334696 -0.19998056 -0.25137 -0.18125501
000370 36 fa 9d 3c 77 3c 84 bd c6 6f 10 3e cc 2a 21 be
       0.019284349 -0.06456845 0.14105138 -0.15738982
000380 ae b6 1b bc d1 db 36 be 94 c1 15 3e 98 ed 76 be
       -0.009504003 -0.17857291 0.14624625 -0.24114072
000390 e3 cd 01 3e ed 94 2d 3e c5 9c bb bd 42 c6 89 bd
       0.12676196 0.16951342 -0.09160761 -0.06727268
0003a0 a5 75 f8 3d 3b 9c c3 bd 9d c9 12 3d 5e 37 a5 3d
       0.12131814 -0.09551283 0.035836805 0.08067201
0003b0 e6 05 49 be fa bd 62 bd 61 57 4f 3a 82 7a 8e 3e
       -0.19631156 -0.055356957 0.0007909444 0.2782784
0003c0 e3 7d 5d bd b1 8c c8 3d 9f d6 04 3e a0 53 fa 3d
       -0.054075133 0.0979246 0.12972496 0.122229815
0003d0 63 54 1c be 39 dd bd bd 72 e2 90 bd 48 21 43 be
       -0.15266566 -0.092707105 -0.07074441 -0.19055665
0003e0 fd ac 55 3e ce 14 3e be 0e 4c 27 3e 15 1b 9e 3d
       0.20866771 -0.18562624 0.16337606 0.07720009
0003f0 ce 8c 03 3e 4d 88 fa 3d 3c d8 a7 3e e3 ae fd 3d
       0.12846681 0.122330286 0.3278216 0.123868726

blocks.layers.0.ln1.bias f4 [16]
000000 2f 4e 93 bd 0f a0 4f bc 1a 3a 0a 3c c4 dd b6 3c
       -0.07192647 -0.012672438 0.008436704 0.022322543
000010 40 cf 91 3d 49 35 7d bd 44 e3 8a 3c 05 5b b6 3d
       0.07119608 -0.061818395 0.016954072 0.08904079
000020 81 0b 8d bc 0d 6d 6e bc 0f d7 2a 3d d7 86 f9 bc
       -0.0172174 -0.014552367 0.041709002 -0.030459804
000030 9f df 85 3d 0b 37 3e bc 06 b9 88 bd 27 a3 1b bd
       0.06536793 -0.011609803 -0.066759154 -0.03799739

blocks.layers.0.ln1.weight f4 [16]
000000 ac a6 70 3f e7 24 80 3f 86 08 84 3f 5b 0a 7c 3f
       0.9400432 1.0011262 1.0315101 0.984533
000010 d5 19 6a 3f e5 aa 6f 3f 5b 25 81 3f 5a 20 66 3f
       0.91445667 0.9362014 1.0089525 0.89893115
000020 70 69 5e 3f 62 d4 81 3f 64 24 6f 3f c5 b6 77 3f
       0.86879635 1.0142939 0.934149 0.9676326
000030 84 78 61 3f 96 4c 76 3f 5b 9a 73 3f f0 82 6f 3f
       0.8807452 0.9621061 0.951574 0.9355917

blocks.layers.0.ln2.bias f4 [16]
000000 87 45 05 bd f9 30 8d 3b 91 1b 83 bc 62 a7 e5 bc
       -0.03253701 0.0043088165 -0.016004356 -0.028033916
000010 53 c0 f8 3c 6a da 75 3d 0a 80 c4 bc f1 73 31 bd
       0.030365145 0.06002275 -0.023986835 -0.04332346
000020 65 70 d6 3c a2 f6 0a 3d aa 75 92 bd ec 24 4c 3d
       0.02617664 0.033926614 -0.07151349 0.0498399
000030 de 33 7a 3d ad dc 04 bd 44 51 53 3d e1 56 8f bd
       0.06108462 -0.032437015 0.051591173 -0.06998993

blocks.layers.0.ln2.weight f4 [16]
000000 37 78 80 3f 15 b4 89 3f 93 a5 89 3f f2 4e 81 3f
       1.0036687 1.0758082 1.0753654 1.0102217
000010 10 73 88 3f 63 45 9a 3f ac 14 90 3f 1d 37 68 3f
       1.0660114 1.2052425 1.1256309 0.90709096
000020 bd 84 89 3f 90 87 97 3f f8 c7 6c 3f 35 69 94 3f
       1.0743634 1.1838245 0.9249263 1.1594607
000030 d2 42 8f 3f c5 4d 85 3f c7 e3 68 3f 57 d0 93 3f
       1.1192267 1.0414358 0.9097256 1.1547955

blocks.layers.0.sa.heads.0.key.weight f4 [4, 16]
000000 f2 1e 59 be 88 3a 9f be 20 05 97 bb a1 f0 96 bd
       -0.21203211 -0.31099343 -0.0046087652 -0.07370115
000010 29 2a a3 bd aa 8f 89 3e a1 ec 1e bd 9a af 0c 39
       -0.07967026 0.2686742 -0.038799886 0.00013416857
000020 05 4a a7 bd 1f a7 af bc 04 65 cb be 1d b0 88 be
       -0.08168415 -0.021441994 -0.39725506 -0.26696864
000030 11 5d 0d be b4 f3 4a be 4c 6b 06 3e 09 44 ac 3e
       -0.13805033 -0.19819528 0.13126868 0.33645657
000040 34 dd 78 3e 2a eb 8b 3e 0b 2b bf 3d 08 05 9d bd
       0.24303132 0.27327853 0.09334382 -0.07666975
000050 fb 21 bf 3d 8f c9 d5 bd 7b bc fd bd e1 5b 92 3d
       0.09332653 -0.10438835 -0.123894654 0.07146431
000060 c6 45 b0 3d eb 35 61 be ad 14 10 3e 0e d6 22 3e
       0.08607058 -0.21993224 0.14070387 0.15901968
000070 2e dc d6 3d 01 34 a8 bc a6 72 70 be 74 82 ab be
       0.10491215 -0.02053261 -0.23481235 -0.33497965
000080 ea ab ab 3e 2e 41 0c 3e ad c5 df 3d fe 50 72 3e
       0.33529598 0.13696739 0.109263755 0.23663709
000090 5f 04 86 be 7e 12 87 3d fc 44 05 be a5 39 52 be
       -0.2617521 0.06595324 -0.13014597 -0.20529802
0000a0 22 9a a7 be 22 01 31 be 86 3f 10 be 10 e4 00 3d
       -0.32734782 -0.17285588 -0.14086732 0.031467497
0000b0 04 96 27 be 18 d0 ed 3d a5 eb 44 3c 4c 59 23 bc
       -0.1636582 0.11611956 0.012019073 -0.0099700205
0000c0 f2 ec 86 3e 71 8d 28 3e d2 71 4f 3e b9 a7 99 be
       0.2635265 0.16460206 0.20258263 -0.30010775
0000d0 02 e5 76 3d 6f 31 33 3b 8d 36 d4 3c 6b 51 66 be
       0.060276993 0.0027342697 0.025904918 -0.22491996
0000e0 7f 97 88 3e 34 f3 87 3e 63 71 9c bd 56 57 8d be
       0.26678082 0.26552737 -0.07638814 -0.27605695
0000f0 89 84 43 3e a8 9b f2 bc 0c a6 d3 bd 97 ba b6 3d
       0.19093527 -0.029615238 -0.10334405 0.08922308

blocks.layers.0.sa.heads.0.query.weight f4 [4, 16]
000000 40 39 20 be 83 2b 03 be cb 54 83 3d 5b ab 07 3d
       -0.15646839 -0.12809567 0.06412657 0.0331224
000010 55 ea 89 be 71 bf 85 be de ec 67 3e 1a 04 9a 3e
       -0.26936594 -0.2612262 0.22648951 0.30081254
000020 7f 52 01 be e8 7b 6d be 5c 95 14 3d a1 8f d9 bd
       -0.12629126 -0.23191798 0.036275253 -0.10623098
000030 90 09 4b 3d ef dd 82 3e bb 6d 29 be 46 94 a3 3e
       0.049569666 0.25559947 -0.16545765 0.3194906
000040 15 c3 18 3e 29 44 8f 3e e3 55 bc 3c ea 91 93 be
       0.14918168 0.2798169 0.022990173 -0.2882226
000050 23 34 8f 3b 9e 0e 0f 3e a2 e7 00 be 0c 49 32 be
       0.004370229 0.1397042 -0.12588361 -0.17410678
000060 f0 78 88 3c 8a 82 11 3e 77 fc 28 be fe 9f 1a 3e
       0.01665923 0.14209953 -0.16502558 0.15100095
000070 0e 1d 18 bd 28 70 41 be 56 ee 44 3e 24 4a 57 3e
       -0.037137084 -0.1889044 0.19231543 0.21024376
000080 bc d6 b9 be f3 d7 5c 3e a7 d1 88 be c2 d6 38 3d
       -0.36296642 0.21566753 -0.26722452 0.045126684
000090 bb 30 92 3d c8 d9 83 be 59 7f fa 3d f9 91 74 be
       0.07138201 -0.2575209 0.12231321 -0.23883809
0000a0 9c 12 ac bc 3a 23 aa bd 7f e2 53 bd 48 3e 1c 3e
       -0.021004967 -0.083075 -0.051729675 0.15258133
0000b0 cf 9e 9b bd 50 46 82 3e f3 36 10 bd b7 f1 d8 be
       -0.0759865 0.2544427 -0.035208654 -0.42371914
0000c0 48 2e 1e 3e 58 bc 2b 3e e1 84 64 3e 77 d8 ba bd
       0.15447342 0.16771066 0.22316314 -0.09123319
0000d0 91 95 87 bc bb 2c fd bd 6e 1d 2c be ff a8 34 3e
       -0.016550811 -0.12362047 -0.16808102 0.17642592
0000e0 63 05 57 be e2 4c 06 3e f1 fe 8e be 5f db ae 3e
       -0.20998149 0.13115266 -0.2792888 0.34151742
0000f0 ee d0 7a 3d b9 22 2e 3e 6d 69 b5 be 3d 68 7d 3e
       0.061234407 0.17005433 -0.35431996 0.24746795

blocks.layers.0.sa.heads.0.value.weight f4 [4, 16]
000000 5c f5 72 3d 2f 46 2f 3e 70 fe 7b be 37 4a e7 3d
       0.059316024 0.17116617 -0.24608779 0.11293452
000010 4d f5 41 bd 7e d2 28 3e 4f c0 30 3d 8e 89 8b 3e
       -0.047353078 0.16486546 0.04315215 0.27253383
000020 d8 5f 67 3e aa d4 1d 3e 5c 5a 43 3e c5 ba f6 bc
       0.22595155 0.15413156 0.19077438 -0.030118356
000030 a9 a6 ee 3c 7e 63 90 3d ea f8 2b be 98 17 0e bd
       0.029132204 0.07050227 -0.16794172 -0.03469047
000040 15 c7 5b bd b8 4e 64 be 28 7a 45 be 7b df 1a bc
       -0.053656656 -0.22295654 -0.1928488 -0.009452696
000050 b1 ac 6b bd e7 ae 69 3e 93 38 67 3e 25 c2 eb bb
       -0.05753774 0.22820626 0.22580175 -0.0071947747
000060 5b e3 75 bc f6 21 4c bd a1 3f df bd 7f 95 62 be
       -0.015007819 -0.049837075 -0.10900808 -0.2212734
000070 fa 9d 8b 3c 31 08 9c bd 6d 37 2e be 06 9a b7 3d
       0.017043103 -0.0761875 -0.17013331 0.089649245
000080 03 40 30 3e 25 08 1c 3c 7b fb d7 bd 82 cc a6 3d
       0.17211919 0.009523426 -0.10546013 0.081444755
000090 5f b0 96 3d 51 74 a3 3d ff 08 1b be f0 63 66 be
       0.07357859 0.0798117 -0.1514015 -0.2249906
0000a0 14 b4 70 3d 33 0d f1 3c 6c c4 eb b9 78 a7 7e bd
       0.058765486 0.02942524 -0.0004496904 -0.06217143
0000b0 f8 81 ad bc 0b f6 27 bc a7 49 80 3b de 71 c2 bc
       -0.021180138 -0.010251532 0.00391503 -0.023735937
0000c0 50 a0 24 3e b9 57 34 be ba d2 14 be 4c 2f 11 3e
       0.1607678 -0.17611589 -0.14533511 0.14178199
0000d0 d5 d1 16 be 6d a0 36 3e 1f d5 41 bd 49 f4 ef 3b
       -0.14728482 0.17834635 -0.04732239 0.007322822
0000e0 d7 ac 08 be f4 f2 63 bd 6e 99 18 be 7a 38 43 3e
       -0.13347183 -0.05565162 -0.14902279 0.19064513
0000f0 d0 0d ab 3d 4d c9 73 3e 3a 7f 1c 3e 4e 5d e9 3d
       0.08352244 0.23807259 0.15282908 0.113947496

blocks.layers.0.sa.heads.1.key.weight f4 [4, 16]
000000 7e 5d 8f 3d 43 e6 e5 bc 88 d7 77 3e ec 68 5b be
       0.07000254 -0.028063899 0.24203312 -0.21426743
000010 31 cf ac bd 42 bc b1 3e d6 52 85 3e fb dd 1d be
       -0.08437956 0.34713942 0.2603976 -0.1541671
000020 d1 5c 84 bc 05 80 46 3c 40 08 42 3e 9a 11 ff 3d
       -0.01615754 0.012115483 0.1894846 0.12454529
000030 2a 0a 69 3e 54 64 fe 3d e4 ac 3c 3d 5f e3 34 be
       0.22757784 0.1242148 0.04606332 -0.1766486
000040 10 84 62 bd 6d db 81 3e 2d 49 62 3e 44 bf 7f 3c
       -0.055301726 0.2536272 0.22098227 0.015609566
000050 b0 19 fa 3d 89 12 11 3e 00 ac d5 bd 39 34 1c 3e
       0.12211931 0.14167227 -0.10433197 0.15254296
000060 7b 41 dc bd ea a2 c2 bd 43 09 33 3c ea a9 59 3e
       -0.10754677 -0.0950373 0.010927501 0.21256223
000070 79 9a 45 be 45 a4 b4 3c 05 0b 16 3e 2b 24 ef 3d
       -0.19297208 0.022050986 0.14652641 0.1167682
000080 61 57 90 3d 68 ca 6b 3e f2 a6 a3 3c 65 cb 2d 3a
       0.07047916 0.2302643 0.019977067 0.00066297344
000090 92 46 2e be e1 64 e2 bd fd 12 42 3d 16 21 88 3d
       -0.17019108 -0.110543974 0.04738139 0.06646936
0000a0 a8 90 20 3e 8d 66 5d bb 7a 60 92 3e 2a 0d 8f 3e
       0.15680182 -0.003378305 0.2858923 0.2793973
0000b0 fa 30 1a 3e 0c 81 64 3e 48 4b 10 3e 85 77 20 3e
       0.15057746 0.22314852 0.14091218 0.15670593
0000c0 af b4 46 be 6c 9b 22 3c ee 66 a6 3c c0 59 a6 3d
       -0.19404863 0.009924751 0.020312753 0.08122587
0000d0 4f 9a 7d 3d f5 47 5c be 2d 55 78 3d c4 98 36 be
       0.06191474 -0.21511824 0.060628105 -0.17831713
0000e0 2c 25 71 3e 25 34 9c bd 98 1b da 3c 50 08 df bc
       0.23549336 -0.07627133 0.026624486 -0.027225643
0000f0 8d 40 a5 bd f9 1e b2 be ba 1a 9b 3e 3b 7e 3f be
       -0.08068953 -0.34789255 0.30293828 -0.18700497

blocks.layers.0.sa.heads.1.query.weight f4 [4, 16]
000000 1f 3b 88 be 21 fe 13 be 1c 0b 84 bc ba ca ab 3e
       -0.26607606 -0.14452411 -0.016118579 0.33553106
000010 c3 cb 44 be e1 47 f3 bd 94 7e 04 be a5 a9 b4 3c
       -0.19218354 -0.11878944 -0.1293891 0.022053549
000020 c6 f7 85 3e d4 3a 12 be d7 80 59 3e ec fa bd bc
       0.261656 -0.14280254 0.21240555 -0.023190938
000030 37 da 31 bd 8f 79 46 3e fd 91 80 3d 4a 80 ab 3e
       -0.043420997 0.19382308 0.06277845 0.33496314
000040 e9 bd 27 3d 7b 63 a3 bc f9 60 42 3e ba 51 b6 be
       0.040952597 -0.019944897 0.18982305 -0.35609227
000050 e9 a6 26 bd 61 49 27 3e ff 16 ad 3c 7a 14 56 bd
       -0.04068652 0.16336586 0.02112913 -0.05226562
000060 31 cd 49 be 95 0a 4e 3d e6 d5 86 3e e8 7c 85 be
       -0.1970718 0.05030306 0.26335067 -0.26071858
000070 df bb da 3d 32 cb a6 bd fa 9b 50 3e 01 fb 73 be
       0.10680365 -0.08144225 0.20372 -0.23826219
000080 d5 3f ab 3d 50 34 6d 3d d1 dc 0e be 64 0e c6 bc
       0.08361784 0.057911217 -0.13951422 -0.024176784
000090 dd d1 ef bd 9c 82 90 be fc f1 06 bd 7e 5e 41 bd
       -0.1170995 -0.28224647 -0.032945618 -0.047209255
0000a0 7e e8 1b 3d e7 b1 78 bd 15 db 67 3e af 19 9f 3d
       0.03806352 -0.060716536 0.22642167 0.07768571
0000b0 ee d5 4b 3e 24 7f 67 3e 31 b9 12 be 50 ba 60 be
       0.19905826 0.22607094 -0.14328457 -0.21946073
0000c0 af 24 d3 bd 37 d7 5a be a0 bb 79 3e 26 1c 88 3e
       -0.10309731 -0.2137116 0.2438798 0.26583976
0000d0 2e a9 92 3d c9 ee 3c 3e f3 33 d8 3d 9b e6 12 3e
       0.07161175 0.18450464 0.105567835 0.14345782
0000e0 ad d4 d9 3d b0 c7 32 3e 79 75 24 be 21 14 b5 bd
       0.10636268 0.17458987 -0.16060437 -0.0884173
0000f0 4e e6 74 bd d2 1c 75 bd b8 91 14 be 3d e5 96 3e
       -0.05978995 -0.05984194 -0.14508712 0.2947177

blocks.layers.0.sa.heads.1.value.weight f4 [4, 16]
000000 90 98 0f 3d 0e 9c eb 3d cb 1c d0 3d f2 e9 c3 3d
       0.035057604 0.115043744 0.10161742 0.09566106
000010 ff cb 7e 3d 70 cd 3b be 60 bd 73 be 02 f7 0c be
       0.062206265 -0.18340087 -0.2380271 -0.13766101
000020 16 bb c5 3c 4f 55 09 be 4e 3d 43 3d 16 87 03 3e
       0.024137061 -0.13411449 0.047665887 0.128445
000030 59 02 01 be f7 8f 22 be b4 0d 11 be 22 29 c9 3d
       -0.12598552 -0.1587523 -0.14165384 0.098222986
000040 fd bd f1 3b ee 2d 32 3d 09 80 30 be 16 94 6f bd
       0.0073773847 0.043500833 -0.17236342 -0.058490835
000050 5e 41 f2 bd 10 a6 b8 3a c4 b7 7d be 6a 31 7a 3d
       -0.11828874 0.0014087576 -0.24777132 0.06108228
000060 1c e6 60 bd f7 7c 7d 3d 12 a5 20 3d 59 30 b8 bd
       -0.05490695 0.061886754 0.039219923 -0.089935966
000070 27 67 23 3e 86 d5 8f 3e 36 6f 72 bc 11 6c 1c be
       0.15957318 0.28092593 -0.014797023 -0.15275599
000080 d7 f0 6a bd 4b 8a 44 3e b2 b2 f1 3d 76 4b 1a be
       -0.05735859 0.1919338 0.118016616 -0.15067849
000090 56 15 8b bd c9 08 7e bd a6 6e a4 bd 2a e2 1f bc
       -0.06791179 -0.062020097 -0.08028917 -0.009758512
0000a0 5a bc 58 3b 03 d8 4f 3d 0d 8b ff 3d 6b d2 8d 3d
       0.003307125 0.050743114 0.12477694 0.069249
0000b0 41 04 ac 3e 30 21 83 bd cd fb 1a 3d 5e 77 24 be
       0.33596995 -0.064028144 0.037837792 -0.1606116
0000c0 e2 8b 9a bd b0 50 9f be 20 78 31 3d e5 b6 31 be
       -0.07546212 -0.31116247 0.04332745 -0.17354925
0000d0 b6 90 af 3d 19 1a 50 3e fb b8 74 3d 2d 57 ea 3d
       0.08572523 0.20322455 0.059746724 0.11442409
0000e0 74 8b 2b bd 03 d2 63 be 86 30 94 3d 41 5e 3f be
       -0.04188104 -0.22248082 0.072358176 -0.18688299
0000f0 e8 21 78 3e c7 57 ec bd 83 df 40 bd 50 22 32 bc
       0.24231684 -0.1154018 -0.047088157 -0.010872439

blocks.layers.0.sa.heads.2.key.weight f4 [4, 16]
000000 88 c8 f0 3d 7c aa 01 3e 6f d5 1d 3e 1e f5 fd bd
       0.11756998 0.12662691 0.1541345 -0.12400268
000010 1a 54 ac bb 46 61 c1 3d db 6e 90 bc 0a 2a 28 3c
       -0.005259049 0.094423816 -0.017630985 0.010263929
000020 03 cb 6f 3e 49 d4 91 3b a8 b0 16 be 3d 7d a1 bc
       0.23417287 0.004450355 -0.14715827 -0.019713039
000030 f2 bb a6 3d 44 12 b3 3d 02 8f 63 bd 1c cb 7c bd
       0.081413165 0.08743718 -0.055556305 -0.061717138
000040 ad 6e b4 be 1c a8 77 be a2 ec 3e 3e 27 6f cd bd
       -0.3524069 -0.24185222 0.18644956 -0.10030966
000050 f8 75 85 3e 62 89 93 bd 52 f5 d9 bc 4f 1b 32 3e
       0.26066566 -0.07203938 -0.026606236 0.1739323
000060 49 34 93 bd 24 a1 1f be 1d f3 76 be e7 d3 1f be
       -0.07187707 -0.15588814 -0.24116178 -0.15608178
000070 9c f1 03 be b6 0c e4 bd f5 67 b2 3c 58 80 0b 3c
       -0.12885135 -0.11135237 0.021778086 0.008514486
000080 1c 64 c0 3d 7b f5 8c 3e 94 6e ba 3d 6d 80 78 be
       0.09394094 0.27531037 0.09103122 -0.2426774
000090 61 99 bf bd 58 46 18 be 17 a8 c4 bc 7c 37 59 be
       -0.093554266 -0.14870584 -0.024005933 -0.21212572
0000a0 39 7d 20 bd b4 52 47 3e 4c b4 8d 3d bf df d5 bc
       -0.03918192 0.19465142 0.069191545 -0.026107667
0000b0 9b d1 6d 3e eb 6c 11 3b 07 fb 91 3d 16 36 8a bc
       0.2322449 0.0022190164 0.07127958 -0.016871493
0000c0 91 8c 88 be fa 54 2d bd ce ea 92 3e d3 bb 8e bb
       -0.26669744 -0.042317368 0.28694767 -0.0043558865
0000d0 65 03 39 3e 66 ff 1b be 4d 53 57 3e 38 40 02 3e
       0.18067701 -0.15234146 0.2102787 0.1271981
0000e0 8a 1c a7 bc ad 65 c4 be 35 7e 27 3e b9 33 da be
       -0.02039935 -0.38358822 0.16356738 -0.42617586
0000f0 43 30 95 3e 76 e3 8a 3d e3 ae 91 3e 93 e3 05 bc
       0.29138383 0.06781666 0.2845374 -0.008171934

blocks.layers.0.sa.heads.2.query.weight f4 [4, 16]
000000 c9 43 17 be 8f da 29 bd 26 26 45 3e 03 aa 68 bd
       -0.14771952 -0.0414682 0.19252834 -0.05680276
000010 3c 7d ba 3d 2f 1b 94 bd 35 8f c2 3d b5 e5 1c 3e
       0.09105918 -0.07231747 0.09499971 0.15322001
000020 b7 41 8f be 45 3c 52 3e 2c f7 b0 bd 0a 70 24 3e
       -0.27979824 0.20530804 -0.08640894 0.16058365
000030 19 64 63 3e 09 e0 09 3d 2c f0 80 bc 44 ff a0 be
       0.22206153 0.033660922 -0.015739523 -0.31444752
000040 88 99 5f be 12 8b 16 3e 72 24 24 3e 82 06 ce 3d
       -0.21835911 0.14701489 0.16029528 0.10059835
000050 69 7a c5 3d 85 2d 4a 3e 34 cd e4 3d 96 28 32 3e
       0.096424885 0.19743927 0.11171952 0.17398295
000060 c5 99 01 be 3c 6f d5 3e c2 91 63 3d 79 0c 90 3e
       -0.12656315 0.41686428 0.055558927 0.28134516
000070 27 80 2d be bc 35 24 3e a3 6a 57 be a9 6d 70 be
       -0.16943417 0.16036123 -0.21036772 -0.23479332
000080 3f e2 d9 bd 48 35 21 be 07 04 96 3d cf fd 27 be
       -0.10638856 -0.15742981 0.07324987 -0.16405414
000090 9a a1 ac 3e 54 a7 79 3d 04 02 76 3d ff ab 04 be
       0.33717042 0.060950592 0.060060516 -0.12956236
0000a0 5d a4 27 3e d0 f5 8b be ec e9 06 3e a0 b1 eb 3d
       0.16371293 -0.27335978 0.13175172 0.11508489
0000b0 1f 79 52 be 16 2d 82 bd 65 fe 56 3e 48 0e a0 bd
       -0.20554017 -0.06356256 0.20995481 -0.07815224
0000c0 be 12 96 be ca aa 01 3e 56 d0 c6 3d fe 66 7a be
       -0.29311174 0.12662807 0.09707706 -0.24453351
0000d0 d6 34 2b bd 69 70 fc 3d 51 29 8f 3c ad bb ba be
       -0.041798435 0.12326128 0.017475756 -0.3647131
0000e0 5e 05 32 be c5 be 84 3e fa 82 af bd 73 3e 75 3e
       -0.1738486 0.25926796 -0.08569904 0.23949604
0000f0 af 02 99 bd bf 30 88 3e 2e c3 96 3e cf be a4 3d
       -0.07471215 0.2659969 0.29445785 0.08044206

blocks.layers.0.sa.heads.2.value.weight f4 [4, 16]
000000 3d 28 7e be 4d f3 21 3e ef 36 ef bd 97 dd 3a 3e
       -0.24820037 0.15815468 -0.116803996 0.18248592
000010 34 41 bc bd f4 6e d5 bd 5f 70 6d 3d 2e e9 c9 3d
       -0.09192124 -0.10421553 0.057968494 0.098589286
000020 f3 c1 14 3c 9d a6 e9 bd a0 d3 29 3d 65 40 dd bd
       0.009079444 -0.11408732 0.041461587 -0.10803298
000030 cc 29 2b 3e 0a 18 97 bd 11 3c f0 3c 48 69 92 bd
       0.16715163 -0.07377632 0.029325517 -0.07148987
000040 d1 a4 62 3e eb 82 af 3d 7a 7a 5b be 6e 86 30 3e
       0.22133185 0.085698925 -0.2143344 0.17238781
000050 b6 6e c0 bd 71 e6 8d 3d d0 04 14 bc c0 6a e9 bd
       -0.093961164 0.06928719 -0.0090343505 -0.11397314
000060 f9 bc 31 bd 11 66 1a 3e 23 ea d0 3d e5 45 60 3e
       -0.04339311 0.15077998 0.10200908 0.21901663
000070 e2 f4 22 3e c0 0f 2b 3e 76 c4 36 be b0 28 b1 bd
       0.15913728 0.16705227 -0.17848381 -0.08650339
000080 93 c1 83 3d 2f eb 9f 3d bb cc 77 3d 1f a3 85 be
       0.06433406 0.078085296 0.06049798 -0.26101014
000090 40 42 16 be c4 e3 51 be 63 07 8d 3d c7 14 e8 bd
       -0.1467371 -0.20497042 0.068861745 -0.11332088
0000a0 cc 19 2b be 71 d0 6e bc 3a a3 cd 3d 78 4c 30 be
       -0.1670906 -0.0145760635 0.100408986 -0.1721667
0000b0 43 2f ac bd f2 3e ab 3c 0f 71 09 3e f9 01 a4 bb
       -0.08407452 0.020904038 0.13422035 -0.005005118
0000c0 79 27 60 be 1d 7a 5b 3b 63 f1 85 3d 01 60 4a 3d
       -0.21890058 0.0033489533 0.065401815 0.049407963
0000d0 21 c2 7c 3c 4c 69 3d 3d 99 a7 14 3d cc c9 f1 3d
       0.015427143 0.046242997 0.036292646 0.11806068
0000e0 b8 81 17 3e 91 36 ec 3d ec aa 04 bc 45 5b 43 be
       0.14795578 0.11533845 -0.008097392 -0.19077785
0000f0 9a 73 18 be 16 e5 03 3e b8 4f 40 3e 09 c4 4a be
       -0.14887848 0.12880358 0.1878041 -0.19801344

blocks.layers.0.sa.heads.3.key.weight f4 [4, 16]
000000 e0 36 4c 3e 2a c0 73 3e 19 88 46 3c 40 2e 71 be
       0.19942808 0.23803774 0.012117409 -0.23552799
000010 7f a4 7b 3d 71 50 89 be 70 26 6a be 22 04 7f 3e
       0.061436173 -0.26819184 -0.22866225 0.2490392
000020 68 06 92 be c7 46 fa 3d 9f a9 e7 bc bd 08 c4 3d
       -0.28520513 0.12220531 -0.028279124 0.09571979
000030 41 5f 98 3d 6c 45 d8 3d 99 7e 3a bd 0f c8 f8 3d
       0.07440043 0.10560116 -0.04553089 0.12147533
000040 e0 7a cc bc d9 4c 79 be 04 a7 7b 3d f3 72 3e 3e
       -0.024960935 -0.24345721 0.061438575 0.18598537
000050 c9 4a 5b bd 74 4e 84 3e e9 f5 c7 3c a7 a9 3d be
       -0.053538118 0.25841105 0.024409251 -0.18521748
000060 48 e9 87 3c 16 c8 4e 3c a1 89 9b 3d 8d 37 d9 3e
       0.01659073 0.012620946 0.0759461 0.42425194
000070 d8 b6 b9 be 98 29 95 be a6 d5 49 be 61 dd 3d 3e
       -0.3627231 -0.29133296 -0.19710407 0.1854148
000080 78 77 74 3d a0 73 9a bd 87 de 9b bd 60 31 1f 3e
       0.059684247 -0.07541585 -0.07610803 0.15546179
000090 62 6e 8c be 78 1d fe bc 06 2e 5f 3e 85 43 b4 3d
       -0.27427965 -0.031019911 0.217949 0.08801941
0000a0 99 d2 66 3e 4b de 0d 3e c4 18 a7 bb d2 fd 42 3e
       0.22541274 0.1385433 -0.005099388 0.19042137
0000b0 de b5 a0 bb f5 99 46 be d9 1a 1d 3d 07 ad b8 ba
       -0.0049044928 -0.19394667 0.038355682 -0.0014089652
0000c0 82 2a 2c bd 3e 66 49 bb 36 f4 14 3d 2d 94 59 bd
       -0.042032726 -0.0030731107 0.03636571 -0.053119827
0000d0 c1 b9 af be 20 8f b2 bd 39 47 31 be 1e 4f 2f 3e
       -0.34321406 -0.08718705 -0.17312326 0.17120025
0000e0 35 80 6e be 52 0a c2 3e 13 93 4e 3e 9a c2 c3 3e
       -0.23291095 0.378985 0.20173292 0.38234407
0000f0 de 9c c4 3d 67 c3 c0 3c 71 89 c8 3d 2c 69 1a be
       0.096002325 0.023530675 0.0979184 -0.15079182

blocks.layers.0.sa.heads.3.query.weight f4 [4, 16]
000000 31 aa b1 3e 26 94 94 3e e6 44 47 3e 6a 49 32 be
       0.34700158 0.29019278 0.19459876 -0.17410818
000010 e4 8a 78 3e 7e b0 e5 3d b4 7f 77 be b1 e9 45 bc
       0.24271733 0.11215304 -0.24169809 -0.012079642
000020 59 7c 60 3e e3 c8 c3 3c 9f 7a b9 3d d0 38 03 bd
       0.21922435 0.023899501 0.09056591 -0.032036602
000030 0b f4 30 bd 82 3e 84 bd 69 5d c9 3d 4d 23 97 be
       -0.043201488 -0.06457235 0.0983227 -0.2951912
000040 ba 15 69 bc 43 1c a2 bd 69 6c b0 be 2a 24 4a 3e
       -0.014226371 -0.07915547 -0.3445771 0.19740358
000050 fb c0 b5 bd d4 60 f5 bc 27 ef 6e 3e 26 f4 53 3e
       -0.08874699 -0.029953398 0.23333417 0.20698604
000060 5c c5 d3 3d 9f c5 e2 3d c1 97 90 be 8d 2f 76 be
       0.10340378 0.110728495 -0.2824078 -0.24041577
000070 e3 96 9d 3e d7 40 c9 3d 9a 3b 90 3e 58 65 2d bd
       0.3077918 0.0982682 0.28170472 -0.042332977
000080 a0 6e 81 be 3a ce c7 bd e1 3b 17 bd 82 05 33 be
       -0.25279713 -0.097561315 -0.03692234 -0.1748257
000090 30 16 f6 3d d2 0f 87 3d 02 16 2c 3d a6 12 0e be
       0.12015951 0.06594814 0.042013176 -0.13874301
0000a0 d6 8a ab 3d 39 81 55 3e 0a a7 d0 be 76 a4 02 3e
       0.0837609 0.20850076 -0.4075244 0.1275805
0000b0 cd 50 43 3e 4e c9 01 3e 0f 46 a3 bd e0 e7 a3 be
       0.19073792 0.12674448 -0.07972347 -0.32012844
0000c0 36 8c 3e 3e 1a c6 7c 3d ff 76 46 be 4a 57 c9 be
       0.18608174 0.061712362 -0.19381331 -0.3932441
0000d0 17 95 59 3e 24 c6 5a bc ed 1f 8d 3e bc 98 4e 3e
       0.2124828 -0.0133529045 0.2756342 0.20175451
0000e0 44 c3 b5 3d 25 a1 d7 3d 9c 4b 09 3e 49 b3 7a be
       0.088751346 0.10528783 0.13407749 -0.24482454
0000f0 67 ca 5e 3b 59 ef 58 3e d4 48 64 3e c4 3e 9b be
       0.0033995153 0.21185054 0.22293407 -0.30321324

blocks.layers.0.sa.heads.3.value.weight f4 [4, 16]
000000 db d4 b6 bd ae 5e 2e be 30 12 40 bc ea 9d 98 3c
       -0.08927318 -0.17028305 -0.011723086 0.018629987
000010 24 8a 59 3e b3 d5 15 3e 1b 9a a2 3d 94 bd 5f be
       0.21244103 0.14632301 0.079395495 -0.21849662
000020 e3 25 c6 3d 6b 16 5a be a0 bb 26 3e 75 8a 91 3d
       0.09675195 -0.21297614 0.16282511 0.07106487
000030 94 9c 2c 3b 26 82 8f 3d ce 88 2b 3e 37 01 06 3e
       0.0026338445 0.07007246 0.16751406 0.13086401
000040 a0 93 69 3e 61 a2 36 be 4b f2 02 3d 47 47 13 3e
       0.2281022 -0.1783538 0.03196935 0.14382659
000050 a0 bc 26 be a4 be 81 3d c0 fe 1c 3d 3d b2 26 3e
       -0.16282892 0.0633519 0.038328886 0.1627893
000060 00 05 e0 bd 90 97 14 3e 6f d9 fe 3d 13 47 da 3d
       -0.10938454 0.14510942 0.12443816 0.106580876
000070 da a9 b5 bd 4c 03 eb 3d df ed c0 bd cc f7 38 be
       -0.08870287 0.11475238 -0.0942037 -0.18063277
000080 23 2e 3d 3e ba f0 c0 3d 17 c6 bc 3d 41 ed 04 3d
       0.18474631 0.09420915 0.0921747 0.032452825
000090 88 e2 2a 3c 1b 0a 4d be cd 19 21 be e0 20 4b 3e
       0.010429986 -0.20023386 -0.15732498 0.1983676
0000a0 1a f0 5e be 8a 97 67 be cf 59 f1 3d 85 74 bf bc
       -0.21771279 -0.22616401 0.11784708 -0.02337099
0000b0 29 06 86 3e 78 6c 59 3e f9 8c 24 3e e0 6c 12 3d
       0.26176575 0.21232784 0.16069402 0.035748363
0000c0 2e bd 4b be 0f a9 e2 3c b3 d8 fe bd 39 c2 0d be
       -0.19896385 0.027668504 -0.12443676 -0.13843621
0000d0 54 3f 2a 3e 09 54 55 3d 3d f2 3b be e7 4e 15 be
       0.1662572 0.052082095 -0.18354125 -0.1458088
0000e0 23 5a bd 3d 52 34 30 3e 1c 65 69 3d 55 51 fc 3c
       0.09245708 0.17207459 0.05698119 0.0308005
0000f0 3a bb d8 bd 77 d8 ff 3a 71 77 60 3d b9 04 1e 3e
       -0.10582586 0.0019519468 0.05480141 0.15431489

blocks.layers.0.sa.proj.bias f4 [16]
000000 c7 82 8e be d5 59 a8 bb aa f7 00 3d b8 a8 14 3e
       -0.2783415 -0.005137662 0.03148619 0.14517486
000010 e4 a6 f4 bb 06 da f8 bd 46 cc 0f be df 0e 1a 3e
       -0.007466184 -0.1215096 -0.14042768 0.15044735
000020 73 55 01 3e 98 b4 28 bd 18 f1 e9 3c 90 b0 99 3d
       0.12630253 -0.041187853 0.028557345 0.0750438
000030 dc 77 b0 bc 65 d1 56 3e d5 df 3b be 80 c6 f7 3c
       -0.021541528 0.20978315 -0.18347104 0.03024602

blocks.layers.0.sa.proj.weight f4 [16, 16]
000000 7f 95 6f 3e 92 88 e8 bd ab 1f 59 be 1b 3c 86 3d
       0.23396872 -0.11354174 -0.21203487 0.06554433
000010 de 20 1b 3d 46 fa a5 bd 0d 1d ea bd 6b 4f 88 3e
       0.03787314 -0.081043765 -0.11431322 0.2662309
000020 db 85 21 3e 3b f1 ec 3c b5 6b 74 3e 38 5f b0 3d
       0.15773718 0.028923621 0.23869212 0.086119115
000030 1e 06 61 be c5 b1 a7 bd 76 8f 13 3e 63 03 87 3e
       -0.2197499 -0.08188204 0.14410195 0.2636977
000040 66 57 2f be ba d9 54 3e 48 65 b9 3c 3c 9e 31 be
       -0.17123184 0.20786181 0.022631302 -0.17345518
000050 0e 71 0c 3e 96 b5 74 be 16 8d 1f be f7 86 4b 3d
       0.13715002 -0.23897395 -0.15581164 0.04968926
000060 5c 77 af bd 96 b3 24 3d c1 39 fe bc 84 24 48 3e
       -0.08567688 0.04021033 -0.031033399 0.1954518
000070 75 8a 45 3e d3 4e 22 be e5 04 a4 3d fe 24 61 be
       0.19291098 -0.15850382 0.08008746 -0.21986768
000080 56 fd b4 3d de fe 8e be d7 3f 60 3d e7 0e 8f bd
       0.088373825 -0.27928823 0.054748382 -0.06985264
000090 ce 69 6b 3e 40 9c a8 3d 81 b3 11 3e c0 f7 3d be
       0.2298958 0.08232927 0.14228632 -0.1855154
0000a0 e4 2d 02 3e 4b 70 81 bd 6e 37 7b be 6a 67 f3 3d
       0.12712818 -0.06320246 -0.24532863 0.11884959
0000b0 7a a6 40 3e 06 40 06 bc 79 07 a1 3d f2 d0 4b 3c
       0.18813506 -0.008193975 0.078627534 0.012439953
0000c0 a0 67 56 3e 0c 69 8a be 43 dd c9 bd 95 ba f8 bd
       0.20937967 -0.2703327 -0.098566554 -0.12144963
0000d0 71 b1 00 be 57 34 8c 3d e3 e4 16 be ab 20 1c 3d
       -0.12567689 0.068459205 -0.14735751 0.038117092
0000e0 5a df 2f be 22 14 b3 bd 2f ef 2a 3e 7e 2d 3a 3e
       -0.17175046 -0.087440744 0.16692804 0.18181416
0000f0 99 41 86 be 92 60 11 be 4d 1b 74 3e a4 d7 82 3d
       -0.26221922 -0.14196995 0.2383854 0.063887864
000100 c2 67 b9 3d 15 71 3b be fd de b3 3d d6 e6 06 3e
       0.09052993 -0.18304856 0.08782766 0.13173994
000110 15 08 18 bd ef b4 93 3d 68 36 9e bd db e9 eb bd
       -0.037117083 0.07212245 -0.07725221 -0.11519214
000120 26 20 aa bd 5d e2 2e be 5d fc 80 3d 2d 16 16 3c
       -0.08306913 -0.17078538 0.062981345 0.009160561
000130 b5 d6 cb bd 7d 5a 38 bd 41 f5 fe 3d f6 41 16 3e
       -0.099530615 -0.04500817 0.12449122 0.146736
000140 8f 31 1d 3d a0 c1 a0 3d 5d c7 ac bb e8 b9 0e 3d
       0.03837734 0.07849431 -0.0052727894 0.034845263
000150 72 61 08 be 95 a2 a5 bd da 68 10 bc cc 45 4d be
       -0.13318422 -0.08087651 -0.008814061 -0.20046157
000160 ab 33 8a 3c 0c 5a bd bd 98 03 06 3e 71 17 fc 3d
       0.01687034 -0.09245691 0.13087308 0.123091586
000170 fd da 07 be 2c 13 24 3e 2a 88 88 bb 80 ff 5f 3d
       -0.13267131 0.16022938 -0.0041666226 0.054687023
000180 91 cc 06 be b4 6a 1f 3e 85 1e 52 be ce ab 91 3d
       -0.13163973 0.15568048 -0.20519455 0.07112847
000190 23 26 d2 bd 3e 72 d2 3c a9 a8 15 3d f5 ff 9a bd
       -0.1026118 0.02568924 0.0365378 -0.07568351
0001a0 41 9c 1f be e6 c8 41 bd 14 1a ea bd ff e2 49 be
       -0.1558695 -0.047310732 -0.11430755 -0.19715498
0001b0 b1 71 ae bb 8d 95 29 be c9 64 af 3d 58 7b 76 3e
       -0.0053236117 -0.16560955 0.08564145 0.2407049
0001c0 8b 84 10 be 8c c5 60 be db 30 17 3e 7c b3 e0 3c
       -0.14113061 -0.21950358 0.1476473 0.027429335
0001d0 2b ee 79 3e 06 20 63 be eb 66 a7 bd ec 61 d0 bd
       0.2440726 -0.22180185 -0.08173927 -0.10174927
0001e0 7a 42 83 3d a4 fa 0c bd bb 88 40 3e 76 79 25 3e
       0.06409164 -0.034418717 0.18802159 0.16159615
0001f0 df 4e b1 3c 8f ff 87 be 42 fb a2 3d fc 11 31 be
       0.021644054 -0.26562163 0.0795808 -0.17292017
000200 bf a9 e5 3d f9 1a 61 be 02 cf 36 3e 86 4c d4 bd
       0.11214017 -0.21982946 0.17852405 -0.10366158
000210 d8 30 fd 3d a5 0c 7b 3e 97 b8 19 3e 63 42 c7 3d
       0.12362832 0.24516542 0.15011822 0.09729459
000220 ea 47 8b 3e 07 9e 73 be 02 b2 dd bd 0b e3 65 bd
       0.27203304 -0.23790751 -0.10824968 -0.05612473
000230 d5 f2 41 3d 97 4f 39 3e 5d e1 f9 bd 3f e4 8f bd
       0.047350723 0.18096767 -0.12201188 -0.07025956
000240 f3 aa 23 be b5 0d 4b 3e 39 07 da 3d 0e 58 59 3e
       -0.1598318 0.19829448 0.10645909 0.21224996
000250 6c f5 9d bc 31 08 06 be ce c9 72 3d e5 74 05 3e
       -0.019282065 -0.13089062 0.059274487 0.13032873
000260 4b 1a 8a 3d 37 78 96 be 82 01 f1 3d 22 7c e6 3c
       0.06743296 -0.29388592 0.11767866 0.028135363
000270 b5 4d 18 3e b4 61 25 3e 15 48 59 be 23 00 64 bc
       0.14873393 0.16150552 -0.21218903 -0.013916048
000280 fe 54 10 3e fd d2 9f b9 5f ef 72 3e c4 b3 42 3d
       0.14094922 -0.00030484042 0.23724125 0.04753472
000290 e1 a6 91 bd 7a a0 05 be ee d5 f3 bd 07 96 b1 be
       -0.07111908 -0.13049498 -0.11906038 -0.34684774
0002a0 a0 70 e2 3d ad d2 91 bd 65 58 6f bd dd 61 5f bd
       0.11056638 -0.07120261 -0.05843391 -0.05453669
0002b0 5a d4 2a 3e 1d f3 60 3e 41 16 30 be 07 3b ce bb
       0.16682568 0.2196774 -0.17195989 -0.0062936577
0002c0 1a fa 3f 3e 42 dd 1a 3e 0e 9f a5 bd 26 9a 8e bd
       0.1874775 0.15123466 -0.08086978 -0.06962995
0002d0 2e 26 e4 bd e8 2a 8d 3d 23 b8 bc bd e1 af 08 3c
       -0.11140095 0.06892949 -0.09214809 0.008342714
0002e0 36 9b 94 bd 33 5f 31 3e f7 39 84 bd 8a e6 b9 3d
       -0.07256167 0.17321472 -0.064563684 0.09077175
0002f0 a7 22 05 3d f3 d5 a1 3d f5 bf 20 3e 82 a6 23 3e
       0.03250375 0.07902136 0.15698226 0.15981486
000300 12 93 44 be 16 37 0e 3e b5 1d 1b be cb 6c 80 3c
       -0.19196728 0.13888201 -0.15148051 0.015676877
000310 98 dd b0 bb 42 29 50 bd c6 10 91 3d 14 a7 20 be
       -0.00539751 -0.050820597 0.070832774 -0.15688735
000320 c9 b7 34 bd 32 2e a8 3d 49 97 4e 3e 71 9c 84 bd
       -0.044120584 0.08211936 0.20174898 -0.06475151
000330 15 97 51 3d ff 54 ec 3d d1 49 6d bd 26 5e 69 be
       0.051169474 0.11539649 -0.057931725 -0.22789821
000340 9b 9d 54 bd 71 1e 08 be bc 86 37 be 05 38 dd 3d
       -0.051908117 -0.13292862 -0.17922491 0.108017005
000350 15 f5 4d be 0f d0 81 be 19 ca 5a be f1 c6 a5 3d
       -0.20113023 -0.2535405 -0.21366157 0.08094586
000360 b8 c6 ad bd 26 30 88 3e df 91 19 3e a5 7f 6f be
       -0.08485168 0.26599234 0.14997052 -0.23388536
000370 61 19 65 3e 18 71 2b be 77 33 db bd 5f e4 1c bd
       0.22372963 -0.1674236 -0.107031755 -0.03830373
000380 23 82 4a 3d f2 ff 28 3e eb c9 67 3e a6 72 ac bd
       0.049440514 0.16503885 0.2263562 -0.08420305
000390 52 c0 2b be d5 56 45 be 4e d1 45 be 2c ba 28 3e
       -0.16772583 -0.19271405 -0.19318125 0.16477269
0003a0 ee 28 32 3e e1 8c 26 3e 5f 4b 87 bd 8f 09 0e 3e
       0.17398426 0.16264679 -0.06606173 0.13870834
0003b0 aa 05 3c 3e 8f 67 51 3e 29 59 8b 3d 4e b2 71 be
       0.18361536 0.2044966 0.06804115 -0.23603174
0003c0 72 22 a6 3d 4f f4 73 3e 6a 0b a1 bd d1 dd 32 be
       0.08112039 0.23823665 -0.07863505 -0.17467429
0003d0 5d 84 01 3e db b3 11 3e f2 e7 ba bd 25 e2 84 3e
       0.12648149 0.14228766 -0.09126271 0.25953785
0003e0 a6 f7 62 3b cb cf d3 bc 50 07 66 3c ea 7f c5 3d
       0.0034632473 -0.02585592 0.014039829 0.09643538
0003f0 78 57 23 be 18 8f 3f be 40 f7 7b 3e db 4e 44 3e
       -0.15951335 -0.1870693 0.24606037 0.19170706

blocks.layers.1.ffwd.net.layers.0.bias f4 [64]
000000 3e 22 a8 3d a2 bd 08 3b 64 ee 8c 3d 81 d3 81 be
       0.08209656 0.0020864983 0.06881407 -0.25356677
000010 9a 9b 02 bd c5 25 e3 3d 25 69 e8 bd dc 03 15 be
       -0.031886674 0.11091188 -0.1134818 -0.14552253
000020 df 94 74 be 13 32 db 3c c0 cc fd bc b7 77 06 3e
       -0.23884915 0.026757276 -0.030981421 0.13131605
000030 08 46 14 3e 0a 5a 62 bd a2 8a 2d 3d 7b 22 83 3d
       0.1447984 -0.05526165 0.04236854 0.06403061
000040 b0 38 39 be e7 2d 16 be 8e fe 16 bd 3b d8 12 be
       -0.18088031 -0.14665948 -0.036863856 -0.14340298
000050 bd 34 1e be e6 b6 8c bd 99 0b cb bd d0 77 27 3e
       -0.15449806 -0.068708226 -0.099143215 0.16354299
000060 72 05 0f 3d 5c 1d 6b bd 43 44 42 bd 4a 68 8c 3d
       0.034917302 -0.057401046 -0.04742838 0.06855829
000070 86 c1 15 3e 55 3c 9a bd 94 b1 9e 3d 4c 0f 1f be
       0.14624605 -0.07531039 0.07748714 -0.15533179
000080 44 90 a7 bd f8 63 76 3e 43 85 d8 3d 48 8d 7f 3d
       -0.08181813 0.24061573 0.10572293 0.062390596
000090 5c 53 aa bd 1e 3e c5 bd 76 ce 4a ba 47 0f 01 3e
       -0.08316681 -0.096309885 -0.00077364536 0.12603484
0000a0 71 68 d3 bd f1 7a 57 be 9d 15 ef 3d 5d 28 68 bd
       -0.10322655 -0.21042992 0.11674044 -0.05667912
0000b0 bf d6 c0 bd ab 4a a9 3d aa 88 b2 3d 6b ce 8c be
       -0.094159596 0.08266195 0.08717473 -0.27501234
0000c0 94 c6 25 be 8c 4c 81 bd ad 56 c2 3c ef c4 0c 3e
       -0.16189033 -0.06313428 0.02372297 0.13746999
0000d0 12 21 d1 3d 16 ff 07 3e bb a0 80 3d d1 e9 4b be
       0.10211386 0.13280901 0.06280657 -0.19913413
0000e0 d1 51 64 be 9d 63 d5 3d 9e 85 84 3e 4e 94 08 3e
       -0.22296835 0.1041939 0.25883192 0.13337824
0000f0 36 67 89 be a8 eb c9 bd 6a 2b a7 3d f9 49 1d 3d
       -0.26836556 -0.09859401 0.081625775 0.038400624
