weights_s2s.safetensors (safetensors, 43600 bytes, 188 tensors)

decoder_stack.0.ca.heads.0.key.weight f4 [2, 8]
000000 c5 3f f4 3d c8 cc 18 3f 2a 07 8c be b6 db 5b bc
       0.119262256 0.5968747 -0.27349216 -0.013419082
000010 a8 8b 1c 3e 46 60 91 be fc a9 9e 3e f3 8f f4 3d
       0.1528765 -0.28393763 0.30989063 0.11941519
000020 c7 10 b5 3e e5 6a 0e bd 25 eb 6a bd 68 60 49 bd
       0.35364363 -0.03476991 -0.057353158 -0.049164206
000030 1c f3 df be db e8 04 bd bb 81 aa be 79 4a 5a be
       -0.43740165 -0.03244863 -0.33302101 -0.21317472

decoder_stack.0.ca.heads.0.query.weight f4 [2, 8]
000000 74 ba bb be 82 3c 10 3d d8 1a f6 3e fe 26 33 3e
       -0.3666569 0.035213955 0.48067355 0.17495343
000010 59 a0 b7 be e5 4a b6 3e e1 e5 4e 3e 27 67 bc bb
       -0.35864523 0.35604015 0.2020488 -0.0057496014
000020 43 73 32 3e 45 ae eb bd f7 05 2c 3e 99 fa fd 3d
       0.17426781 -0.11507849 0.1679915 0.12401313
000030 74 d7 9f 3e c8 66 bd 3e f0 5a d2 3c 8c ba f3 3d
       0.31219065 0.36992478 0.025678128 0.11900815

decoder_stack.0.ca.heads.0.value.weight f4 [2, 8]
000000 0c 9e bf 3d 55 c9 0d 3e 1e 0b b7 be 90 63 d5 bd
       0.09356317 0.13846333 -0.3575067 -0.10419381
000010 33 47 7f be e8 ed 47 be 9d d3 21 3e 51 c7 aa 3d
       -0.24929504 -0.19524348 0.1580338 0.08338798
000020 36 2e 16 3d 48 64 60 3e be 50 77 3d 2e 45 af bd
       0.036665164 0.21913254 0.060379736 -0.08558117
000030 1e 57 b4 be 53 12 ba 3d 90 2d 0d be f4 1d 55 be
       -0.35222715 0.09085526 -0.13786912 -0.20812207

decoder_stack.0.ca.heads.1.key.weight f4 [2, 8]
000000 0c 87 bb be 49 4e 91 bc ed fe 95 be 1f 4b fd 3b
       -0.3662647 -0.017737525 -0.29296055 0.0077299024
000010 fe 38 be 3d 54 ef d9 3e 62 7f ba 3d 2d a3 40 be
       0.09288214 0.42565405 0.091063276 -0.18812247
000020 43 d2 01 bd d7 ae 0a 3e 8a 63 06 3f d6 19 83 3e
       -0.03169466 0.13543259 0.52495635 0.2560565
000030 57 80 a0 3e c1 b0 32 be 6a c9 bf bc a6 ed a9 bd
       0.31347916 -0.17450239 -0.023411471 -0.08297281

decoder_stack.0.ca.heads.1.query.weight f4 [2, 8]
000000 64 c4 95 be df b6 01 be ba 93 f3 3e b5 d5 4e bd
       -0.29251397 -0.12667416 0.47573644 -0.050496776
000010 ae f8 dd be 78 e2 39 3d 99 9b a1 be ba d9 47 3e
       -0.4335379 0.045381993 -0.31564024 0.1951665
000020 6a ed fa bd e4 49 05 be 7b 97 57 be 28 db 8e 3e
       -0.122523144 -0.13016468 -0.21053879 0.27901578
000030 e6 e9 33 be e1 4a 0b bf 17 e2 84 3e ef 36 08 be
       -0.17569694 -0.5441113 0.25953743 -0.13302206

decoder_stack.0.ca.heads.1.value.weight f4 [2, 8]
000000 96 9d 15 be 97 40 df bb ef 42 be 3e 07 1d 02 bc
       -0.14610896 -0.0068131196 0.3716044 -0.007941491
000010 ec 6c 6a 3e 3d 10 55 3e d7 d7 39 be 4b ba 7c be
       0.22893113 0.20806976 -0.18148743 -0.2468044
000020 31 3b b3 be ee 8f e7 3c 68 68 e2 be 34 c9 91 3d
       -0.35006097 0.028266873 -0.4422028 0.071184546
000030 e6 eb 11 bd 2e da bd 3e e1 c1 87 3d 02 98 28 be
       -0.03562536 0.3708052 0.06628776 -0.16464236

decoder_stack.0.ca.heads.2.key.weight f4 [2, 8]
000000 0a 2a ba 3d e9 c7 0e be 96 0c 46 3e 18 a4 ab bc
       0.090900496 -0.13943447 0.19340739 -0.02095227
000010 e5 ce 75 3d c5 d8 e8 3d b7 1a aa be 85 e6 d8 3d
       0.060011763 0.113694705 -0.33223507 0.10590843
000020 ae 94 d3 bd ab bc c1 3e c8 c9 0a 3e c2 d2 cb 3e
       -0.10331093 0.37839255 0.13553536 0.39809233
000030 3a 9c 5b 3e 3e 30 bc 3e bf 1b 6e be 72 a4 42 be
       0.21446314 0.36755556 -0.23252772 -0.19008043

decoder_stack.0.ca.heads.2.query.weight f4 [2, 8]
000000 e8 1e 75 be f7 bc 73 be 08 50 52 be 32 91 7d 3e
       -0.23937571 -0.23802553 -0.20538342 0.24762419
000010 5a 28 c5 3e 94 eb 1c 3e 65 b0 3c be 39 6e 15 3e
       0.38507348 0.15324241 -0.18426664 0.14592828
000020 b3 8f aa 3e ef 73 a6 3e 68 15 6b be e1 4f cc 3e
       0.3331276 0.32510325 -0.22957385 0.39904693
000030 d5 9b 30 3e 77 26 df bb 1d f4 ea 3e 76 c2 3a be
       0.17246945 -0.0068100053 0.4588937 -0.18238243

decoder_stack.0.ca.heads.2.value.weight f4 [2, 8]
000000 9e 54 0a 3e 1e 30 29 be a0 34 a9 3d ec ab 85 be
       0.13508841 -0.16522262 0.082619905 -0.26107728
000010 94 89 59 3e 3d 9b 0c be 2c 38 91 3e 4f ca 36 3e
       0.21243888 -0.13731094 0.28363168 0.17850612
000020 13 46 aa be 83 5b 93 3e df d1 a3 bd 35 a8 93 3e
       -0.33256587 0.28780755 -0.07999014 0.2883927
000030 86 2c 94 3d 5a 5c ad 3d 4d 51 68 be ca e2 e4 bc
       0.07235055 0.0846488 -0.22687264 -0.027940173

decoder_stack.0.ca.heads.3.key.weight f4 [2, 8]
000000 c4 cb e9 bd 5f 33 cb be a7 7b 70 3e a4 1e 01 be
       -0.11415818 -0.3968763 0.2348467 -0.12609345
000010 aa 6e ab 3e af 99 7f be de cc 8c 3e d3 64 c7 3e
       0.33482867 -0.2496097 0.2750005 0.3894411
000020 64 f5 67 be 6a 12 55 be cb 10 85 be 75 6b 08 bf
       -0.22652203 -0.20807806 -0.25989375 -0.53288966
000030 a4 36 64 3e e1 24 46 be be 1f d5 bc c4 59 cf bc
       0.22286469 -0.19350006 -0.026016112 -0.025311358

decoder_stack.0.ca.heads.3.query.weight f4 [2, 8]
000000 2b e3 63 3d f2 d3 95 3e a2 32 01 be 4d 03 45 bd
       0.055636566 0.29263264 -0.12616971 -0.04809885
000010 0b d2 65 3e f9 bc d6 be 0f 6d 84 3e 33 93 d5 be
       0.22443406 -0.4194105 0.25864455 -0.41713867
000020 dd 26 21 be 99 52 60 3d 1b f8 be 3e 7e 87 a2 bd
       -0.15737481 0.05476627 0.37298664 -0.07935999
000030 4c b7 bb be db 36 92 bd 95 5e bb 3e d8 70 0d be
       -0.36663282 -0.07139369 0.36595598 -0.13812578

decoder_stack.0.ca.heads.3.value.weight f4 [2, 8]
000000 17 9e 7c 3e 47 28 b7 be 40 bb bd 3e e8 98 4a be
       0.24669681 -0.35772917 0.37056923 -0.19784892
000010 33 2c e2 3d d0 d2 5a 3e f1 c7 51 be 8c 3f 65 3e
       0.110435866 0.21369481 -0.20486428 0.22387522
000020 73 fd d2 bd bb c7 96 be 58 24 86 3d 6b d7 43 be
       -0.10302248 -0.29449257 0.06549901 -0.19125144
000030 9d e9 9b 3e 6f bd b0 be 99 f6 9d bd 31 db 9c 3e
       0.3045167 -0.34519526 -0.077130504 0.3063598

decoder_stack.0.ca.proj.bias f4 [8]
000000 3f 15 93 3e 21 93 d8 3c 4d 4a 4a bd 89 84 2f be
       0.28727147 0.026437344 -0.049387265 -0.17140402
000010 3a e8 02 3e 89 56 9d be e8 2e 42 3e 9b a6 00 be
       0.127839 -0.30730084 0.18963206 -0.12563555

decoder_stack.0.ca.proj.weight f4 [8, 8]
000000 d3 11 39 be ba 45 2f 3e e3 18 5c be 38 84 50 3e
       -0.18073206 0.17116442 -0.21493869 0.20362937
000010 2e b1 be 3e 41 74 fb 3d 2d 1e b8 bd d4 ff 66 bc
       0.37244552 0.12278033 -0.089901306 -0.01409908
000020 d2 49 a4 be 55 49 42 bc ce 3d c7 bb 3a 35 eb be
       -0.3208757 -0.011858304 -0.0060803657 -0.45939046
000030 62 49 93 be ac 20 b0 3e 61 6e 83 3c 02 b1 a1 3e
       -0.28766924 0.34399927 0.016043844 0.3158036
000040 fa 87 01 bd 74 4a cc bd 0c a0 af bd af 45 e1 3e
       -0.031623818 -0.09975138 -0.085754484 0.43998477
000050 f0 de 82 3e b3 7e a1 3e b5 77 9e 3e ae 04 82 3d
       0.25560713 0.31541976 0.30950704 0.06348549
000060 14 d2 bc be 7e 0c 92 bc ca bd aa be 19 88 ab bd
       -0.36879027 -0.017828222 -0.33347923 -0.08375568
000070 df bd db 3d ca d1 aa be 53 c8 32 3e 35 38 06 3e
       0.107295744 -0.3336318 0.1745923 0.13107379
000080 1e df 89 3e 6c f7 63 be f9 43 0d bd 04 a0 cb bd
       0.26928037 -0.22262353 -0.034488652 -0.0994263
000090 80 c3 9f 3d fb 23 86 be 64 5f 21 be 9b ee 1d 3e
       0.078009605 -0.26199326 -0.15759045 0.15423052
0000a0 80 e0 76 be dd d8 a3 be 25 ac a0 bc 84 9e 11 be
       -0.24109077 -0.3200139 -0.019613335 -0.14220625
0000b0 21 ad 2f be 8d e1 d5 3d 75 51 c9 3d a1 e9 a2 3e
       -0.17155887 0.10443411 0.0982999 0.3181887
0000c0 28 0d 7e be 33 9e 44 be d4 ba 27 3a 9a a0 17 3e
       -0.24809706 -0.19200973 0.0006398384 0.14807358
0000d0 0b 9b 68 be 1c b9 33 3e 2f ec 9e be f7 cb be 3d
       -0.22715394 0.17551082 -0.3103957 0.09316247
0000e0 0b 76 56 3e 61 73 71 be 74 e2 6f 3e e5 db 88 be
       0.20943467 -0.2357917 0.23426229 -0.26730266
0000f0 e0 a9 ae bc e9 88 0c be 00 44 de 3e 4f 3e b2 3e
       -0.021321237 -0.13724102 0.43411255 0.34813163

decoder_stack.0.ffwd.net.layers.0.bias f4 [32]
000000 20 34 b5 3d 8b 07 89 be 51 69 66 bd fc b7 5b be
       0.08847833 -0.26763567 -0.05625278 -0.21456903
000010 ef 92 85 be 81 4c 46 be 73 a3 37 be 24 03 52 be
       -0.26088664 -0.19365121 -0.17933445 -0.2050901
000020 a1 f7 53 3e 00 15 6f 3e 40 2e a6 3e 94 61 7a bd
       0.20699932 0.23347855 0.3245716 -0.061128214
000030 91 7f 42 3e c9 79 e7 3d a3 ff f1 3d ef b4 10 be
       0.18993975 0.113025256 0.11816337 -0.1413152
000040 d3 22 5d ba a2 72 b5 3e 06 78 3f bd 2d 4b 6c 3e
       -0.000843567 0.3543902 -0.046745323 0.23075552
000050 ff 7f a1 be 73 e0 51 be 8a 70 0a bd ac 6d 22 be
       -0.31542966 -0.20495777 -0.033798732 -0.15862149
000060 17 c8 0d be bd 60 d8 3d 8d c9 81 3e 03 fa ac 3d
       -0.1384586 0.10565326 0.25349084 0.084461235
000070 84 7d ff 3c 7d f3 0c be 7a 8d 0a bd 14 0b be 3d
       0.03118778 -0.13764758 -0.03382633 0.09279457

decoder_stack.0.ffwd.net.layers.0.weight f4 [32, 8]
000000 02 47 d7 bd 1c a0 99 3e 80 76 d0 bd 71 a8 8e be
       -0.105115905 0.30004966 -0.10178852 -0.27862886
000010 2c 02 82 3b 41 53 9a be aa c7 e6 be 46 6b 2a 3d
       0.003967544 -0.30141643 -0.45074207 0.04160621
000020 40 6f 04 be fe b4 89 3e 4b 96 44 be 52 c8 4d 3e
       -0.12933064 0.268959 -0.19197957 0.20095947
000030 d8 4b d5 be e3 12 a4 3e 20 cd eb 3d 63 96 5f 3e
       -0.41659427 0.3204566 0.11513734 0.21834712
000040 14 aa 4a be 46 c2 b9 be 40 d7 9b bd 43 4d 49 bd
       -0.19791442 -0.3628103 -0.07609415 -0.04914595
000050 cc 6a 2d 3c f8 67 be 3e bd 99 4a 3e 84 66 b5 be
       0.010584544 0.37188697 0.19785209 -0.35429776
000060 10 c5 cc 3c 61 17 8a be 92 b1 ef bd 98 90 90 3d
       0.02499631 -0.26970962 -0.11703791 0.07058829
000070 1d 9d 84 3d 8d 4c 3a be 1a 9b b8 be 79 e2 71 be
       0.064752795 -0.18193264 -0.36055833 -0.23621549
000080 86 49 3f 3d b2 87 11 3c 81 f4 90 3e db 10 e7 be
       0.046700977 0.00888245 0.28311542 -0.45130047
000090 ae 68 9b 3d 00 2f 3d bd 9a 2d a0 3e 5c d6 5a be
       0.075883254 -0.0461874 0.3128479 -0.21370834
0000a0 6d 00 2f be ff 43 a5 3c a8 8c 65 be 4c 27 66 be
       -0.17090006 0.020174025 -0.22416937 -0.22475928
0000b0 7e 63 cf 3c 8c d8 d7 be a2 4f 9f 3d 97 32 b7 3e
       0.025315996 -0.421574 0.07778861 0.35780784
0000c0 70 d0 f2 3d 2d 0c d6 bd 49 6f b2 3e 62 be 60 3e
       0.118561625 -0.10451541 0.3485053 0.21947625
0000d0 09 bf 43 be 12 bf c5 3d a3 9d 62 3e d8 14 08 3a
       -0.19115843 0.096555844 0.22130446 0.0005191094
0000e0 33 f7 cb bd fb b1 d5 3e 5b 81 b1 3c d9 71 97 3e
       -0.09959259 0.4173735 0.021668127 0.29579046
0000f0 c8 8e ce 3c ae b0 f5 3d 63 63 7b 3e 7d a0 08 be
       0.025214568 0.119965896 0.24549632 -0.13342471
000100 a3 2a c9 3e dc 2e 99 3c 02 b7 9c bd be 4a 25 3e
       0.39290342 0.018699102 -0.076520935 0.16141793
000110 3a de 88 be f8 48 a7 3e a9 8d 6f 3d 18 63 b0 be
       -0.26732045 0.32672858 0.058484707 -0.34450603
000120 5b 86 58 3e 43 2e a1 3d f0 ba a0 be 64 f5 30 be
       0.21145003 0.07870152 -0.31392622 -0.17281109
000130 9b 47 eb be 24 59 9a 3e 9a 2b 8a bc f7 68 7e be
       -0.45953068 0.30146134 -0.016866494 -0.24844728
000140 ca 76 cb bd 8f a7 38 bc d9 8a 6b 3b 4d 6d 09 bd
       -0.099347666 -0.011270418 0.0035940914 -0.033551503
000150 f5 a6 28 3e 99 41 9b bc 4a 54 81 3d fb 7f c9 be
       0.16469939 -0.018952178 0.06314905 -0.39355454
000160 4c 10 8f bd 41 b8 ad 3e be 9e d1 3d ff 28 e3 3c
       -0.0698553 0.33929637 0.10235356 0.02772951
000170 8a af 9e be 68 72 9d 3d 33 ec 07 3d c7 48 8b 3d
       -0.309933 0.07687837 0.03318424 0.068009906
000180 82 ba a1 be 49 65 b7 3d 59 fb 6c 3e 3d b9 46 3d
       -0.31587607 0.089548655 0.23142757 0.0485165
000190 77 31 9c 3e a6 14 39 bd 62 03 d0 be 77 d1 f3 bd
       0.3050649 -0.045185708 -0.4062758 -0.119051866
0001a0 14 f9 35 3d 0d 1b 21 be 99 66 c8 be 9f e7 5b be
       0.044426993 -0.15732975 -0.39140776 -0.21475075
0001b0 87 be 9e be 1c eb 08 3f 39 af 75 be b5 28 b8 bd
       -0.31004736 0.5348375 -0.23992623 -0.08992139
0001c0 18 de 7c 3e 84 32 09 3e 26 d4 07 3e fb 09 46 be
       0.24694097 0.13398176 0.13264522 -0.19339745
0001d0 9c 3e 98 be 2a d2 6d 3e a0 b3 56 3e 5b 21 01 bd
       -0.29735267 0.23224702 0.20966959 -0.03152595
0001e0 ab 0d 3a be 5b 78 10 3f b9 e2 f6 3d 08 de 6a 3e
       -0.18169276 0.5643365 0.12054963 0.2293626
0001f0 cf 7f 0c bc 4c fa c4 bd e3 33 14 be ac 9a ab bd
       -0.008575394 -0.09618053 -0.14472918 -0.08379111
000200 f0 ac 6c bd 83 e8 14 3e 64 d2 63 bd f2 e1 61 bd
       -0.057782114 0.14541821 -0.055620566 -0.05514712
000210 b9 1c a3 3e 20 37 91 bd ab b0 63 be 7e 1e 1c be
       0.3185785 -0.070905924 -0.22235362 -0.15246007
000220 71 cc a7 be 28 ba b6 3e 58 97 2b 3e e3 da c9 bd
       -0.32773164 0.356889 0.16756952 -0.098562025
000230 65 d4 74 3e 6c 7a 4c 3d de 91 d3 3e 84 32 b3 be
       0.23909147 0.049921438 0.41322225 -0.34999478
000240 c5 9c bb 3c 1c a5 bb be fd 68 95 3e 27 d5 3a 3e
       0.022901902 -0.36649406 0.29181662 0.18245374
000250 2b 8b d2 bd 11 ae 7e 3e d7 80 80 3e 4c cf 4a 3e
       -0.102804504 0.24871089 0.25098297 0.1980564
000260 d0 99 c8 3d 90 c2 09 3e cb 4a 2e bc f5 be 8e 3e
       0.097949624 0.13453126 -0.010637949 0.27880064
000270 a7 42 a2 3e e2 eb 05 3e 68 77 f6 3c 64 64 b4 3d
       0.31691477 0.13078263 0.030086234 0.088082105
000280 f9 88 3c be a7 7a a2 3e 53 ac 03 3c de 9d 61 be
       -0.18411626 0.317342 0.008036691 -0.22032878
000290 bd d1 a3 3e 43 46 c0 3d f5 08 b0 3e ba bd 3b 3e
       0.31995955 0.09388401 0.34381834 0.18334094
0002a0 36 7c 81 bd ea 77 3f 3d bf d4 8d 3d 13 cb 6a be
       -0.063225195 0.04674522 0.06925344 -0.22929029
0002b0 32 77 a7 be 4a 4c 10 3f a4 a4 ce 3d f1 13 98 3e
       -0.32708126 0.5636641 0.100899965 0.29702714
0002c0 c4 61 09 be a1 30 a1 bc 38 6d c1 be 0d bd 86 be
       -0.13416201 -0.019676508 -0.3777864 -0.2631611
0002d0 9f 73 d7 3a 97 d6 7a be 13 cb a6 3e c6 21 44 be
       0.0016437656 -0.24495922 0.32576808 -0.19153509
0002e0 4e eb 31 3d 71 d5 05 bd 08 8b b5 bd 27 7f 87 bd
       0.043437295 -0.032674257 -0.08864409 -0.06616049
0002f0 67 96 a3 be d5 09 88 3e 08 b4 ed be aa e3 a5 3e
       -0.31950685 0.2657 -0.46426415 0.32400256
000300 d0 3b 87 3e 9f 06 57 be 51 5c 61 be a5 3b 28 be
       0.2641282 -0.2099862 -0.22007872 -0.16429003
000310 2f b8 a8 be 3c 04 1b 3f d9 7a 2d be a3 a6 ce bd
       -0.3295302 0.60553336 -0.16941394 -0.10090377
000320 0b b9 7c 3e ad b7 0a 3e ef c4 51 be 03 79 67 3e
       0.24679963 0.13546629 -0.2048528 0.22604756
000330 99 25 8e bd 9c 2a 0a 3f 82 88 d0 3d b6 30 32 3d
       -0.06940765 0.53971267 0.10182287 0.043503486
000340 79 ab e7 3d 01 47 16 3e 11 26 80 3e f9 28 d8 3d
       0.11312003 0.14675523 0.25029042 0.1055469
000350 e6 89 8b 3d 29 62 9f be 30 23 79 be 40 9f c3 bd
       0.068134114 -0.31129578 -0.24329829 -0.09551859
000360 cd c3 3c bd 43 81 96 be 0d ba db bd 5d 60 2d 3e
       -0.046085168 -0.29395494 -0.10728846 0.16931291
000370 9b cb 2a 3e 7e 92 82 3d 5a b5 b3 bc 5f 8a d2 3d
       0.16679232 0.063755974 -0.021937061 0.102802984
000380 e8 5a bd 3e 0c b8 a8 be cf af 0c 3e 14 d8 27 3e
       0.36983418 -0.32952917 0.1373894 0.16391021
000390 bd 92 3a 3e 99 b0 73 be ff 97 ed bd f7 43 5f 3e
       0.18220039 -0.23797835 -0.116012566 0.2180327
0003a0 57 92 ea bd 1e 97 35 3d f0 14 e4 bd 7a 11 91 3e
       -0.11453693 0.04433357 -0.11136806 0.28333646
0003b0 03 f8 68 3d 84 d1 d9 bd 01 83 95 be c2 f6 2b be
       0.056877147 -0.10635665 -0.2920151 -0.1679335
0003c0 bf 31 11 3e ad ac 8c 3e fd 5b 0c 3e a5 1a 7e 3d
       0.14179133 0.2747549 0.13706966 0.06203713
0003d0 62 70 1d 3e 50 a7 b8 3c ee 32 fd bc ee d8 00 3e
       0.15374902 0.022540718 -0.030908074 0.12582752
0003e0 cc 05 15 3e ba eb 89 be c8 4a 09 be 86 f9 9f bc
       0.14552993 -0.26937658 -0.13407433 -0.019528162
0003f0 78 07 8d bd 61 17 94 3e 50 ba 79 be 3b df 80 be
       -0.0688619 0.28924087 -0.24387479 -0.2517031

decoder_stack.0.ffwd.net.layers.2.bias f4 [8]
000000 a9 8d a5 3c 14 27 35 3e e9 e2 0e 3e 19 21 6b bb
       0.02020915 0.17690688 0.13953747 -0.0035877882
000010 c7 d5 97 3d 60 b5 11 3e 34 4d 89 3d bb 03 1e 3e
       0.07413822 0.14229345 0.067041785 0.1543111

decoder_stack.0.ffwd.net.layers.2.weight f4 [8, 32]
000000 ec 50 b2 bd 2f 3c c7 3b dd 2b fc bd 81 80 83 bb
       -0.08706841 0.0060801725 -0.12313054 -0.0040131216
000010 25 60 0a be 98 4b 61 be 52 57 18 3e 56 fc 33 be
       -0.13513239 -0.22001493 0.1487706 -0.17576727
000020 dc ca 02 be ef bd fd bd 7f f1 04 bd 24 ed 86 be
       -0.12772697 -0.123897426 -0.03245687 -0.263528
000030 50 42 43 be e0 b3 52 3d e8 48 cb bd 1b 1e d5 bd
       -0.19068265 0.051441073 -0.09926015 -0.10406133
000040 5c 60 34 be 49 89 7f bc 91 7a 30 3e a5 dd 27 3d
       -0.17614883 -0.015596696 0.17234255 0.04098286
000050 40 df 0f 3c f6 a3 95 3e 0a 64 cc 3d 6a 73 11 3e
       0.008781254 0.29226655 0.099800184 0.14204183
000060 65 0e 55 3c 03 51 d7 bd 95 39 84 bd fb 87 5f 3e
       0.01300392 -0.10513499 -0.064562954 0.21829216
000070 04 39 c7 3c a4 cf f5 bd 31 68 24 be 4f 85 94 bd
       0.02431918 -0.12002495 -0.16055371 -0.07251989
000080 67 48 32 3e 59 93 02 3e 25 20 c3 3d d3 df 11 bd
       0.17410432 0.12751521 0.095276155 -0.035613846
000090 96 fb cc bd 9c d4 d6 bd f9 84 b4 3d 48 ca 82 bd
       -0.10008924 -0.10489771 0.08814425 -0.06386238
0000a0 87 02 0b 3e c5 e8 8b 3e 1f 3a ab 3d ce e7 1d 3d
       0.13575183 0.27326027 0.08360695 0.038551144
0000b0 39 17 26 3e 70 59 a8 3e 23 c3 8e 3d 56 ea b7 3e
       0.16219796 0.32880735 0.06970813 0.35920972
0000c0 6e 3a 28 bd 6a 72 fd bd 5b 6f 9e bc f0 94 79 bd
       -0.041071348 -0.123753384 -0.019340208 -0.060933053
0000d0 9f b2 6c be 33 6d 1f 3e 36 ac 16 be 40 b6 51 bd
       -0.23115014 0.15569 -0.14714131 -0.051199198
0000e0 0d 81 43 3e e1 6b a7 3d ea 2f 94 3d 1f 2a 12 be
       0.19092198 0.08174873 0.072357014 -0.1427388
0000f0 20 5b 0a 3e fe cd 85 bc 49 55 9d 3d 86 6d a0 3e
       0.13511324 -0.016333576 0.076822825 0.3133356
000100 f9 9c a1 bd 3d ba 4e be 08 5c 73 be bc d8 da 3d
       -0.07891268 -0.20188232 -0.23765576 0.1068587
000110 1f 3c 2a be b9 b4 3b 3d d4 ab d2 3d 18 6e f5 bd
       -0.16624497 0.045826647 0.1028668 -0.11983889
000120 b3 43 16 be 7a ab 12 bc 25 fc bb bd f6 f1 83 3b
       -0.14674263 -0.008952016 -0.09178952 0.0040266467
000130 78 e6 01 bd f6 59 cb be ce f2 24 be 35 4f c6 3d
       -0.031713933 -0.39717072 -0.16108248 0.09683076
000140 47 4c c8 3d 7b 73 16 be 47 34 04 be 7c 07 dc 3d
       0.09780174 -0.1469249 -0.12910567 0.10743615
000150 57 39 97 3d 9c 76 9e be 30 45 ef 3c ea 85 c7 be
       0.073839836 -0.30949867 0.029207796 -0.38969356
000160 83 e5 e3 be cf 6e 8f be da 92 1d 3e 36 2b be 3d
       -0.4451104 -0.28014228 0.1538805 0.092855856
000170 bb ff 03 3e 14 7b 11 3e 40 64 e4 3d 27 d9 76 be
       0.12890522 0.14207107 0.11151934 -0.24106275
000180 d8 24 6f bd e3 06 3e bc 23 4c 5c 3e 68 2c 96 bc
       -0.058384746 -0.011598322 0.21513419 -0.018331721
000190 81 1d 1c bb 38 10 4e 3d 5c 26 f0 3d d5 a1 8a bd
       -0.0023821297 0.050308436 0.117260665 -0.06769148
0001a0 f3 f4 cb bc aa 78 dc 3d 67 13 a4 bd 7d 03 9c bc
       -0.024897074 0.10765202 -0.08011513 -0.019044632
0001b0 eb c9 dc bd be b0 8e 3e 96 b5 bb 3d 62 9f 59 be
       -0.107807 0.2786922 0.09165494 -0.21252206
0001c0 16 b4 83 3c 59 f5 ec 3c e5 a3 fb bd 1e 4a c2 bd
       0.016077083 0.028925585 -0.1228712 -0.09486793
0001d0 4a c8 51 3e ae aa e9 3d c1 d1 7d 3e be 61 5d 3e
       0.2048656 0.11409508 0.24787046 0.21619317
0001e0 44 e7 ae 3e 70 58 d3 3d bb a1 37 bd 1e 03 fb bd
       0.34160817 0.103196025 -0.044831973 -0.12256454
0001f0 f8 33 51 be 96 10 1c be 49 ff 8d ba 6e 6c 8c bd
       -0.20429981 -0.15240702 -0.0010833527 -0.06856619
000200 89 c7 3c be e6 3e 9f 3c 70 b4 c3 bd 32 1c 1c be
       -0.18435492 0.019439172 -0.095559 -0.1524513
000210 f0 7d 40 3e 36 f5 f5 3d 99 58 8d 3d 8b e7 9f bc
       0.18798041 0.12009661 0.06901664 -0.019519588
000220 58 fd 8b bd 64 91 71 be c9 e2 22 3b 8e dc 17 be
       -0.06835431 -0.23590618 0.0024854413 -0.14830229
000230 db 0c 58 be 8f 26 b4 be 5a 45 33 3d 93 a8 b3 bd
       -0.21098654 -0.35185668 0.04376731 -0.08772387
000240 62 48 a7 bd a9 93 f5 3d 5e f1 5c be 2c a7 f4 bd
       -0.08168103 0.119910546 -0.2157645 -0.11945948
000250 db 7c c3 3d 1f 41 c6 bd 38 d6 97 3d 2b 9b fb 3c
       0.09545299 -0.096803896 0.07413906 0.030713638
000260 fc 3d ab be d5 7e 82 be d7 3b c3 3d 6b 33 4f be
       -0.33445728 -0.2548739 0.09532898 -0.20234458
000270 ef 32 64 be 66 2d 04 3e 93 9d bd bd 0f 32 bb bd
       -0.22285055 0.12907943 -0.092585705 -0.09140407
000280 db 98 ab 3e 58 01 a1 3d 0c 37 c8 bd 0e ed 03 be
       0.33515057 0.078615844 -0.09776124 -0.12883398
000290 8c 19 6d 3e b9 ae 0a 3e 37 28 d9 3d 60 a2 78 3e
       0.23154277 0.13543214 0.106033735 0.24280691
0002a0 dd ce 1f be eb 14 b5 3d 87 9c 00 3e 38 4c 5c be
       -0.15606256 0.088418804 0.1255971 -0.2151345
0002b0 e5 dd 5d 3e a1 88 bd be 79 e4 07 be 48 60 56 3e
       0.21666677 -0.37018302 -0.13270749 0.20935166
0002c0 6c 26 0f 3d 48 39 5a 3e cc 32 67 be b3 bd 3a 3d
       0.03494875 0.21310914 -0.22577971 0.045591068
0002d0 75 9b 5a 3e 64 b9 ca bd 3e af 81 3e 6b 48 fa bd
       0.21348365 -0.09898642 0.25329012 -0.12220844
0002e0 52 5e bc be 5d a9 1d be 8a 1d e9 39 ed 0e 94 bd
       -0.3679071 -0.15396638 0.00044463231 -0.07229409
0002f0 ce f5 1c 3e 1e 49 11 3e 11 ad 63 bd f0 29 8b be
       0.15328142 0.14188048 -0.05558497 -0.27180433
000300 80 6b 2c be 85 fb b1 3d 66 0a 08 be c0 5a ee 3d
       -0.16837883 0.08690552 -0.13285217 0.11638403
000310 b3 88 4a be 51 3a 01 be 51 44 92 3d 6c a3 be bd
       -0.19778709 -0.12619902 0.071419366 -0.09308514
000320 f0 73 1d bd f9 c2 3b 3d 55 12 6c be 4d b4 91 bd
       -0.038440645 0.045840237 -0.23053868 -0.07114468
000330 fe f4 2a be dd ff 02 3e 8f 31 c6 bd 59 cf df bc
       -0.1669502 0.12792917 -0.09677421 -0.02732055
000340 1a 72 15 bd 8a 15 9a be a7 4e 1c 3d 2f 2f 61 3d
       -0.03648577 -0.30094558 0.038160946 0.05497664
000350 3b c7 2c be 2e 03 41 3e 9a d7 95 be bc a8 20 3d
       -0.16872875 0.18848869 -0.29266053 0.039223418
000360 91 53 1f 3d 24 ce ce bd 5d e2 46 bc 01 ea c7 3d
       0.038898055 -0.10097912 -0.01213893 0.097614296
000370 0a a6 58 3e cb d6 e8 bd 29 5e 14 be 8c 45 0e bd
       0.21157089 -0.113690935 -0.14489044 -0.034734294
000380 b9 a9 a4 3c 5b 76 85 3e 63 de eb bc 4c 3c 3a bc
       0.020100461 0.2606686 -0.028792566 -0.011366915
000390 39 ed 23 3e 92 a1 29 3d 22 63 e9 bd cb a6 f8 bc
       0.16008462 0.04141385 -0.11395861 -0.03035297
0003a0 ee 1a 4f bc c4 9d 11 3e f4 e3 cf bc 44 d5 1c 3e
       -0.012640698 0.14220339 -0.025377251 0.1531573
0003b0 06 d8 41 be d3 e7 8c 3e 15 70 1a 3e 5d b2 06 3e
       -0.18930063 0.27520618 0.15081818 0.13153978
0003c0 e4 c1 5c bd bb c5 32 3e 9e d8 01 be e0 41 0e bb
       -0.053895846 0.1745824 -0.12680289 -0.0021706745
0003d0 eb 8c 1e 3d a8 92 6f 3e 80 27 33 3e f4 0f 14 3e
       0.03870861 0.23395789 0.17495537 0.1445921
0003e0 d9 87 ac 3e 5c ac da 3a 09 ee 10 be b9 52 e8 bd
       0.33697394 0.0016683447 -0.14153303 -0.11343903
0003f0 8e 00 0e be 5e d5 e1 bb 02 e8 9b 3d 6f 5c 51 3d
       -0.13867399 -0.0068918904 0.07612611 0.051113542

decoder_stack.0.ln1.bias f4 [8]
000000 02 a0 5e bc 08 6f 0f bc 26 41 1e bd 9b 07 a2 3c
       -0.0135879535 -0.008754499 -0.03863635 0.019779017
000010 61 d4 02 3d d9 c2 55 bd 1c 2e 84 bd 46 f7 52 bd
       0.03194082 -0.052187774 -0.06454107 -0.05150535

decoder_stack.0.ln1.weight f4 [8]
000000 75 ab 87 3f e4 61 82 3f 58 89 8e 3f 9f 3d 74 3f
       1.05992 1.0186124 1.1135664 0.95406526
000010 c3 0a 72 3f 8d 8c 69 3f 99 a0 80 3f 37 68 7f 3f
       0.9454767 0.9123009 1.004901 0.99768394

decoder_stack.0.ln2.bias f4 [8]
000000 42 42 39 3d 6e 43 43 bc 36 6e 6b 3d 3d 96 86 bd
       0.045229204 -0.011917932 0.057478152 -0.065716244
000010 4b 31 40 3d 23 10 11 bc 4a 74 6d bd d9 3f f7 3c
       0.04692201 -0.008853945 -0.05797223 0.030181812

decoder_stack.0.ln2.weight f4 [8]
000000 be a2 83 3f 74 9d 84 3f 16 be 94 3f db 3a 77 3f
       1.028404 1.0360551 1.162051 0.9657418
000010 ae fb 73 3f 35 3d 81 3f 4c 14 70 3f f9 91 7a 3f
       0.9530591 1.0096804 0.9378097 0.97878987

decoder_stack.0.ln3.bias f4 [8]
000000 73 1d 2c bd d3 10 69 bd 0d 5b d6 bd 35 08 dd bd
       -0.042020272 -0.05690081 -0.10466585 -0.10792581
000010 3c b8 12 bd 44 50 54 3d 17 33 06 3c 00 08 8e 3c
       -0.03582023 0.05183436 0.008190892 0.0173378

decoder_stack.0.ln3.weight f4 [8]
000000 da 76 84 3f eb 0d 96 3f 4a 9b 77 3f 85 36 77 3f
       1.0348771 1.1722997 0.9672133 0.96567565
000010 e0 ab 8e 3f 1c 83 9c 3f a8 fc 87 3f f8 e7 7e 3f
       1.1146202 1.2227511 1.062398 0.99572706

decoder_stack.0.sa.heads.0.key.weight f4 [2, 8]
000000 e2 e1 7a be fa 3c 6e be 76 c5 1a be 09 9c 61 3e
       -0.2450023 -0.23265448 -0.15114388 0.22032179
000010 1d 83 1a 3e 75 ee 89 be bd 7f af bd 14 f4 84 be
       0.15089078 -0.2693974 -0.08569286 -0.25967467
000020 8e 83 74 bd 61 75 88 3d 4d 93 3e 3e bd 14 b1 be
       -0.059695773 0.06663013 0.18610878 -0.34586135
000030 13 0e cd bc 40 be 4f 3e 7d 0a 04 3e 7d 72 26 be
       -0.025031125 0.20287418 0.12894626 -0.16254611

decoder_stack.0.sa.heads.0.query.weight f4 [2, 8]
000000 e6 89 a1 3e 5c df c9 bc 10 44 af be 67 f8 31 be
       0.3155052 -0.024642639 -0.34231615 -0.17379914
000010 ed fe 7b be 8d 47 90 be c7 f4 21 3e ce 9e 3c be
       -0.24608965 -0.2817959 0.15816031 -0.18419954
000020 10 f7 b6 bd 24 c0 06 be ac 88 e6 bc bf 06 22 bb
       -0.08933842 -0.13159233 -0.028141342 -0.002472326
000030 89 38 d7 3d 47 02 74 be 1a 93 84 3d 44 3c 50 bd
       0.1050883 -0.23828994 0.0647337 -0.050838724

decoder_stack.0.sa.heads.0.value.weight f4 [2, 8]
000000 b6 bd ea bd 48 3a 99 3e 37 86 7d be 1f e2 bb 3d
       -0.11461966 0.29927278 -0.2475823 0.091739886
000010 38 ee 0a 3d 59 80 52 be 54 9d a1 bd 4e be 05 be
       0.03391859 -0.20556773 -0.07891336 -0.13060877
000020 1d b3 7f be fe a0 b5 bc 50 b8 28 bd 2d bc 82 3e
       -0.2497067 -0.022171494 -0.0411914 0.25534192
000030 6b 5b 31 be d7 eb 31 be e3 5b 3e 3e cb 28 82 be
       -0.1732003 -0.17375122 0.1858974 -0.25421748

decoder_stack.0.sa.heads.1.key.weight f4 [2, 8]
000000 db 71 34 be 42 b3 2d be 47 60 db 3d ea 13 3a be
       -0.17621557 -0.16962913 0.10711723 -0.18171659
000010 af 9b 25 3e bb ba d3 3d 92 3f 89 be 7b b3 18 3d
       0.1617267 0.103383504 -0.26806313 0.03728054
000020 c0 00 eb bd bc cd 9b be d6 99 b3 3e 72 93 88 3d
       -0.114747524 -0.304304 0.35078305 0.06668748
000030 55 7b f4 bd d4 6a 7a be 5e b5 0a be 2e b6 5a bd
       -0.11937586 -0.24454814 -0.13545749 -0.053396396

decoder_stack.0.sa.heads.1.query.weight f4 [2, 8]
000000 91 ac 16 be be 00 dd be 72 8c 03 bd 04 f8 e0 bd
       -0.14714266 -0.4316463 -0.03211636 -0.10984805
000010 19 37 b6 be ab cd 73 3d 2b 45 66 be ad 94 c2 bc
       -0.3558891 0.059522312 -0.22487323 -0.023752535
000020 2c be 18 3c 11 9b 9e be 11 64 44 be 3d 1a 9a 3e
       0.009322684 -0.3097768 -0.19178797 0.30098143
000030 d2 27 4c 3e e6 bf 48 bd 02 b8 9e be 95 34 e4 3e
       0.19937065 -0.049011134 -0.30999762 0.44571367

decoder_stack.0.sa.heads.1.value.weight f4 [2, 8]
000000 c4 a6 97 be 61 cb 80 be c5 c2 5b 3d 01 68 fc 3d
       -0.2961942 -0.25155166 0.053652544 0.12324525
000010 75 c2 f2 bb 06 01 ef bc 11 63 f4 3c 69 23 b3 be
       -0.007408435 -0.029175293 0.029832395 -0.34987953
000020 30 55 b0 be bf 93 0a be 4d 53 9f 3e 73 34 18 be
       -0.34439993 -0.13532923 0.3111824 -0.14863758
000030 6c 92 56 be 82 b2 4a be ab 05 8c bc 6d 46 ea 3d
       -0.20954293 -0.19794658 -0.017092546 0.11439214

decoder_stack.0.sa.heads.2.key.weight f4 [2, 8]
000000 d2 2f 12 3e f5 62 ec 3e ab b8 02 3e 2e d8 a1 3e
       0.14276055 0.46169248 0.12765758 0.31610245
000010 32 bc 8f be 3c 2e bd 3d 9f 06 fa 3e d1 9e a5 be
       -0.2807327 0.09237334 0.48833176 -0.3234773
000020 41 5e dd be 50 4c a7 be 45 49 98 3e 55 6e 8d be
       -0.43235973 -0.3267541 0.297434 -0.2762324
000030 3a a4 a0 be c9 54 72 3e ec 16 20 3e 89 88 fc 3d
       -0.31375295 0.23665155 0.15633744 0.123307295

decoder_stack.0.sa.heads.2.query.weight f4 [2, 8]
000000 a3 2e e6 3e 63 a0 1d be c0 6b 1a 3d 1d cb d4 be
       0.44957456 -0.15393214 0.037700415 -0.41561213
000010 01 e8 f9 3d 07 52 a0 3e 6c b1 da be be a4 48 3c
       0.12202454 0.31312582 -0.42713487 0.012246309
000020 45 d6 cf be 8f 9a 42 3e a4 e2 b3 be 9e 7a 84 be
       -0.40593162 0.19004272 -0.3513385 -0.258748
000030 37 db fa bd ca a5 0c 3e 16 46 b9 be d1 85 2c 3e
       -0.12248843 0.13735119 -0.36186284 0.16847922

decoder_stack.0.sa.heads.2.value.weight f4 [2, 8]
000000 fa b3 66 3e 53 b9 fe bd 5b 34 c5 be 65 c3 47 bd
       0.22529593 -0.124376915 -0.38516507 -0.048770327
000010 3b 92 d2 3b 51 3a e8 bd bf 99 2b be ad 72 b3 be
       0.0064261234 -0.11339248 -0.16757868 -0.35048428
000020 78 6c 9a 3e 8d 0b 92 3e e8 74 5c 3d 28 ae 2e 3e
       0.3016088 0.28524438 0.053822428 0.17058623
000030 ad 3e ab be 0c 0a 7f be 95 8a a2 3e f2 54 58 be
       -0.33446255 -0.24906176 0.31746355 -0.21126154

decoder_stack.0.sa.heads.3.key.weight f4 [2, 8]
000000 16 ad 74 be 05 68 02 be 47 f7 30 be 02 9f 95 3e
       -0.23894152 -0.12734993 -0.17281829 0.29222876
000010 67 3a 18 3d ad 54 87 be c3 a7 df bd 93 74 64 be
       0.03716507 -0.2643179 -0.1092067 -0.22310095
000020 5d 46 7e 3e d4 99 c0 3c 78 68 95 bc c7 94 1b 3d
       0.24831529 0.023510851 -0.018238291 0.037983682
000030 fc c1 82 be 5b 0b ed bd 5c b9 8b be d8 46 31 bd
       -0.25538623 -0.115744315 -0.27289855 -0.043280452

decoder_stack.0.sa.heads.3.query.weight f4 [2, 8]
000000 29 13 2a 3e 7c 33 6e be 11 24 79 bd 7a 58 08 3d
       0.16608872 -0.23261827 -0.06082541 0.033287503
000010 eb c9 90 be be a9 6d be ba 0f 35 3e 6a 7a 85 be
       -0.2827905 -0.23209283 0.1768178 -0.26069957
000020 72 46 b2 3b 18 b0 26 3e 2a 5b 0d 3e b6 70 98 3e
       0.0054405266 0.16278112 0.13804308 0.29773492
000030 ef fd 7b bb f9 86 63 3e 0d 22 f8 3d ee 4a 3f 3e
       -0.0038450917 0.22219457 0.1211587 0.18680927

decoder_stack.0.sa.heads.3.value.weight f4 [2, 8]
000000 e6 cf ad bd e0 fb 4d 3e 0a ef 91 3e c8 f2 50 3e
       -0.08486919 0.20115614 0.28502685 0.20405114
000010 6a 01 b0 3d 1c 62 65 3e a7 41 23 be 47 f2 67 be
       0.0859402 0.22400707 -0.15943013 -0.22651015
000020 47 d7 2a bc bc ab f1 3d 73 19 a1 be 90 8a 3b 3e
       -0.010427303 0.11800334 -0.3146473 0.18314576
000030 4c 8e 31 be 5d 00 64 3d 74 74 1b be da 9b 03 3e
       -0.17339438 0.05566441 -0.15181142 0.12852421

decoder_stack.0.sa.proj.bias f4 [8]
000000 43 d5 c3 bd 8e ef 3e be 66 f3 4b 3e c0 f4 8d 3e
       -0.09562161 -0.1864607 0.19917068 0.27725792
000010 92 e1 78 bd 4f af 31 be 04 64 3c 3e 9b df a3 3d
       -0.060761996 -0.17352031 0.18397528 0.08001634

decoder_stack.0.sa.proj.weight f4 [8, 8]
000000 44 6b 06 3e f7 25 a5 bd 63 35 f0 bd cb 5a 80 3e
       0.13126856 -0.08063882 -0.11728933 0.2506927
000010 b6 c6 bf 3d 2e c0 1a bb 83 12 36 3e 03 bd 7b 3e
       0.09364073 -0.0023613083 0.17780499 0.24583821
000020 65 73 a1 be 30 01 3c be 28 27 a1 3e b9 d3 13 bc
       -0.31533352 -0.18359828 0.31475186 -0.009022647
000030 c4 0a b6 3e 97 ca 97 3e e3 44 3f 3e 6e 4c 88 3e
       0.3555509 0.2964675 0.18678622 0.2662081
000040 ee 33 41 be 3d 1a ed 39 9a 1c f5 3d 9c 58 be 3e
       -0.18867466 0.00045223712 0.11968346 0.3717698
000050 9d c9 80 3e c9 57 6f be 71 86 a4 3d a1 29 14 3e
       0.2515382 -0.23373331 0.08033455 0.14469005
000060 1b d6 a0 bd 06 09 8f 3e 57 d9 08 be db cd a0 be
       -0.078533374 0.27936572 -0.13364159 -0.31407055
000070 c8 4a 46 3e 44 ba 96 bd 26 91 b3 3e 0f 1b 72 be
       0.19364464 -0.07359746 0.35071677 -0.23643135
000080 af 57 99 3a 6e b2 b5 3e 2b cb 76 bc a5 78 90 be
       0.0011699105 0.35487694 -0.015063087 -0.28217044
000090 31 ab 02 3c cb 7d ae be 9b 81 04 3d 97 00 dd 3d
       0.0079753855 -0.34080347 0.032350164 0.10791128
0000a0 5a f7 67 3e b5 7e 39 3e da d5 4a bc a3 0b af be
       0.22652951 0.18114741 -0.012380088 -0.34188566
0000b0 97 19 d8 3c 15 64 c3 bd 25 46 de bd 2b bc c0 bd
       0.02637939 -0.095405735 -0.10853223 -0.0941089
0000c0 03 e6 0d 3e 48 35 a5 be 3d 29 9c 3e 35 56 5a 3e
       0.13857274 -0.32267213 0.30500212 0.21321948
0000d0 d7 94 c2 be 04 4a 75 3d 4d 08 10 3e eb 01 fc 3d
       -0.3800418 0.05988504 0.14065666 0.12305053
0000e0 58 fe 33 3d 01 9a b5 3d fd 6d 80 3e 4e bb 96 be
       0.043943733 0.088672645 0.25083914 -0.29439777
0000f0 2b 5a 91 3e ea 91 cd 3d 54 e4 80 3e eb 55 80 3e
       0.28389105 0.100375965 0.251742 0.2506555

decoder_stack.1.ca.heads.0.key.weight f4 [2, 8]
000000 5c 52 0d 3e 38 4d 9e 3e dd 85 ad 3c b6 76 34 3e
       0.13800949 0.30918288 0.021181995 0.1762341
000010 26 a7 a3 be 5e f6 33 3e db ec c9 3c b7 10 89 bd
       -0.31963462 0.1757445 0.024649074 -0.06692641
000020 63 e5 ca bc b8 85 db bb 12 4c a4 be ea e8 bd 3c
       -0.024767583 -0.00669929 -0.32089287 0.023182351
000030 1b f9 23 bf 4d db 5d 3e 30 b2 85 be b3 17 19 3f
       -0.6405198 0.21665688 -0.2611251 0.5980179

decoder_stack.1.ca.heads.0.query.weight f4 [2, 8]
000000 f1 4e fb bd 68 46 0b bd cb 70 5e 3d 05 ee 1b 3e
       -0.12270916 -0.03400269 0.054306787 0.15227516
000010 7d 0e 5d 3e 4a ae e4 3e 3c 91 76 3d 3f d7 25 be
       0.21587558 0.44664222 0.0601971 -0.16195391
000020 e1 7d f0 3e fa b7 a5 3d d1 2b 68 be 13 80 26 bd
       0.46971038 0.08091731 -0.22672965 -0.040649485
000030 5e e7 f6 3e 8f cd be 3e d3 6e 0a bf a2 90 9a bd
       0.48223394 0.37266204 -0.54075354 -0.07547118

decoder_stack.1.ca.heads.0.value.weight f4 [2, 8]
000000 b1 4f 59 be f5 f3 8b 3e 30 e7 58 3e 69 1f c2 3d
       -0.21221806 0.27334562 0.21181941 0.09478647
000010 c8 7c 16 3d a6 ad 13 3e 8c 9e 57 bd 94 da 0e 3e
       0.036740094 0.1442171 -0.052641436 0.13950568
000020 67 e7 86 be f9 47 aa bc 9e 0c f8 bd 67 1f 02 3e
       -0.2634842 -0.020786272 -0.121117815 0.12707292
000030 f0 8b d7 be 4b 70 15 3e 47 c5 f5 bd 5d f1 aa 3e
       -0.4209895 0.14593618 -0.12000518 0.3338727

decoder_stack.1.ca.heads.1.key.weight f4 [2, 8]
000000 7f 98 e7 3e cd a2 0d bb ae 90 f5 3e 7b 16 09 bf
       0.45233533 -0.002161193 0.47961944 -0.5354993
000010 5a 91 a0 3e 40 01 45 be fe 38 ee 3d af ed 02 bf
       0.31360894 -0.19238758 0.11631964 -0.51143926
000020 29 d2 a3 be 1f 97 87 3d 30 5f 0f ba b5 6d 9d 3e
       -0.31996277 0.06620621 -0.0005469201 0.30747762
000030 79 5d a1 3d d3 fb 03 3f 42 a1 cc bc 8c d9 60 3e
       0.078791566 0.5155613 -0.024979237 0.21957988

decoder_stack.1.ca.heads.1.query.weight f4 [2, 8]
000000 09 35 06 bf cc b5 c7 bd 84 49 2c 3e 27 30 ab be
       -0.52424675 -0.09751472 0.16824919 -0.33435175
000010 b7 11 b7 be c6 89 78 be 4c f3 ef bc d1 1c 16 be
       -0.35755703 -0.24271306 -0.029290818 -0.1465943
000020 73 cf 13 3f af 4d 3a 3d 3d 95 4d be 76 5a 2d 3f
       0.5773842 0.04548424 -0.20076461 0.6771616
000030 4a 6c 0f 3e ab 12 07 be 6e 64 38 3e 89 7f 5f bc
       0.14006153 -0.13190715 0.18007061 -0.013641247

decoder_stack.1.ca.heads.1.value.weight f4 [2, 8]
000000 65 45 0a 3e 41 b3 23 3b 38 d8 56 3e 31 8d 8b 3e
       0.13503034 0.002497867 0.20980918 0.27256158
000010 d1 b0 67 3e 37 c0 2b be ef 5d 9c 3e c7 78 e1 3d
       0.22626044 -0.16772543 0.30540416 0.110093646
000020 22 6d 85 be 50 cd 98 be 93 cb c6 be c1 eb b0 3e
       -0.26059824 -0.2984414 -0.3882719 0.34554866
000030 27 bc 8d be 54 0e 92 3d 72 4a a3 be 2f 3c 62 3d
       -0.2768261 0.07131639 -0.31892735 0.055233177

decoder_stack.1.ca.heads.2.key.weight f4 [2, 8]
000000 45 67 ae 3e 97 74 31 3e d0 a6 e7 3e e8 b6 37 bd
       0.34063163 0.17329632 0.45244455 -0.044852167
000010 79 f8 ef be 8b 29 0a bf b2 ec ce bd f9 c3 a5 be
       -0.46869257 -0.5396964 -0.1010374 -0.32376078
000020 2b e0 47 be 02 ff 33 be 43 58 9d 3e 5b a0 ac 3e
       -0.19519107 -0.17577747 0.307314 0.33716092
000030 b5 dd c9 bc aa dc 74 be f4 dd 88 be 01 f8 47 be
       -0.024641851 -0.23912302 -0.26731837 -0.195282

decoder_stack.1.ca.heads.2.query.weight f4 [2, 8]
000000 e7 37 c5 3d 40 dd 85 3d d2 5c b7 3e aa 58 41 bc
       0.09629803 0.06536341 0.35813004 -0.011800924
000010 a5 51 dd bd 1b f9 03 3f ed b6 9d be 40 67 e0 3e
       -0.10806588 0.5155198 -0.30803624 0.43828773
000020 19 d5 d0 3e f6 54 60 3e fc ba 5a be e5 e0 42 be
       0.4078758 0.2190741 -0.21360391 -0.19031103
000030 34 50 a7 bd e5 cb 92 3e b8 2f 29 be bf 4d be 3e
       -0.081695944 0.28671184 -0.1652211 0.3716869

decoder_stack.1.ca.heads.2.value.weight f4 [2, 8]
000000 3f f7 60 ba 42 55 81 3e e9 a1 df be 45 c0 9a bd
       -0.00085817644 0.2526036 -0.43678215 -0.07556204
000010 2b 57 9c 3d f9 45 86 3e d2 72 89 bd 4d f8 6a 3b
       0.076338135 0.2622526 -0.06711353 0.0035853565
000020 07 13 9b 3e e5 67 3e 3e 57 be b7 3e fe fa 6a 3e
       0.30287954 0.1859432 0.35887405 0.22947308
000030 05 a6 9d be 35 ec 44 3e 02 5c 2c be b7 21 ab be
       -0.30790725 0.19230731 -0.16831973 -0.3342416

decoder_stack.1.ca.heads.3.key.weight f4 [2, 8]
000000 1c fc d0 3b 96 ab 97 be 01 0f b0 3d 82 1b a2 be
       0.00637771 -0.29623097 0.08596612 -0.31661612
000010 a9 9d b0 be e5 36 2c be e6 c9 07 3f 4b df f1 3c
       -0.34495285 -0.16817816 0.5304245 0.02952542
000020 bc 00 5d bb 29 2a 58 be b9 f3 da 3d 68 73 6b be
       -0.0033722362 -0.21109833 0.10691018 -0.22993243
000030 22 60 e6 be 7a cc 20 bf a9 a4 bb 3e 92 83 51 be
       -0.4499522 -0.62812006 0.36649063 -0.20460346

decoder_stack.1.ca.heads.3.query.weight f4 [2, 8]
000000 dd dd 83 3e 54 bb 15 3e 7f cb 3b 3e 8c b1 a4 3e
       0.25755206 0.14622241 0.18339346 0.32166708
000010 81 43 17 3e c3 6b 59 3e 37 b9 01 bf d2 d7 ef bc
       0.14771844 0.21232514 -0.5067324 -0.029277716
000020 5d eb d5 3e 66 b2 34 3e 14 46 0f ba a2 46 9b 3e
       0.4178113 0.17646179 -0.00054654595 0.30327326
000030 88 d7 09 3f 95 0d 0b 3f d2 26 15 3e d3 b0 da bd
       0.538445 0.543176 0.1456559 -0.10678258

decoder_stack.1.ca.heads.3.value.weight f4 [2, 8]
000000 c5 0d cb be c6 03 e9 bc 9e 72 91 bc fa ff 5f 3e
       -0.39658943 -0.028444182 -0.017754849 0.21874991
000010 02 90 dc 3e c8 9e a1 3e 1e 2a 75 be a6 ec 0e 3e
       0.4307862 0.31566453 -0.23941848 0.13957462
000020 9f b1 5e 3c 35 c2 8e be c6 99 0f 3e 46 26 29 be
       0.013592153 -0.27882543 0.14023504 -0.16518506
000030 4b 9b 23 be 8e c5 84 be 26 4a 1e 3e 51 8f f1 3d
       -0.15977208 -0.25931972 0.15457973 0.117949136

decoder_stack.1.ca.proj.bias f4 [8]
000000 5f b9 94 3e 44 79 90 be 4c f1 95 3e f4 b8 7a 3e
       0.29047677 -0.28217518 0.29285657 0.24484617
000010 d9 ae ab be 30 c6 32 be fb 3e 39 3e 71 0d a7 be
       -0.33531836 -0.17458415 0.18090431 -0.32627442

decoder_stack.1.ca.proj.weight f4 [8, 8]
000000 00 3a 00 be bf 3d 01 bd bc 1c c3 bd 57 ab 3b bd
       -0.12522125 -0.031553026 -0.09526965 -0.0458177
000010 55 87 21 be e4 60 05 3f 3e 31 a5 3d bc 61 e7 bc
       -0.15774281 0.5210097 0.08066033 -0.028244846
000020 ba 59 13 be 13 5d b7 3e a4 b1 9b be 30 c9 dd 3e
       -0.14389697 0.35813197 -0.30408967 0.43317556
000030 98 38 1b be 2e 7a 5f 3e 8c 69 83 be 3d aa 17 3e
       -0.15158308 0.21823952 -0.25666463 0.14811035
000040 6d 5d 8f be 02 ba 77 3e 42 94 4d 3c ca b2 16 be
       -0.28000966 0.2419205 0.012547554 -0.1471664
000050 0a e8 6d 3e 0e ab 46 bd 96 a4 d1 bd da 45 9a 3e
       0.23233047 -0.048502974 -0.102364704 0.30131418
000060 0e e0 4a 3e e7 81 7c bd 77 49 b4 3d 6f ab 22 be
       0.19812033 -0.061647322 0.08803075 -0.15885709
000070 95 09 e0 bd f8 71 51 3d d2 f2 9a be bc 9b b9 bc
       -0.109393276 0.05113408 -0.30263382 -0.022657268
000080 bf 89 2e 3d ab a3 fd 3c cd e6 a3 3d 39 04 9c 3e
       0.042611834 0.030961832 0.08003006 0.30471972
000090 9a 7f d5 bb e3 df 8f be 00 1e 7e be 88 b0 01 3d
       -0.0065154554 -0.281005 -0.24816132 0.031662494
0000a0 04 c3 be 3d f5 43 34 3e 97 41 cb 3c af c2 bf be
       0.0931454 0.17604049 0.02481155 -0.3745322
0000b0 66 90 2b 3d 3f bc ef bd 52 34 dc 3c 3a 14 8b 3e
       0.041885756 -0.11705827 0.026880417 0.2716387
0000c0 f2 a3 31 bb 9b 4d 08 bf c0 79 cf 3d c7 44 13 bd
       -0.0027105776 -0.53243417 0.10130644 -0.035954263
0000d0 21 46 bc 3e 8c 51 69 be 2f 19 4b 3e e0 80 5b be
       0.36772254 -0.22785014 0.19833826 -0.2143588
0000e0 c2 29 5c be 0d f6 61 be bf 96 f5 3d 9d f9 c3 be
       -0.21500304 -0.22066517 0.11991643 -0.38276377
0000f0 3e e0 c6 3e d6 d3 b6 be 3e ff 89 3e c8 88 79 be
       0.38842958 -0.35708493 0.26952547 -0.24368584

decoder_stack.1.ffwd.net.layers.0.bias f4 [32]
000000 f1 29 af bd 48 0f e3 3d bc be 83 b9 1a be 2d bd
       -0.085529216 0.11086899 -0.00025128375 -0.042417623
000010 7f 3c 3f be 4a c0 85 3e 42 13 c3 3e 18 73 68 3e
       -0.18675421 0.26123267 0.3810063 0.22700155
000020 23 73 db bd 35 84 ab bd 65 36 16 bd f4 2f 70 be
       -0.1071532 -0.08374826 -0.03667297 -0.23455793
000030 d4 4b 9f 3e e4 e2 1e be 4c dc 6d 3e 42 3e f5 3d
       0.3111254 -0.1551624 0.23228568 0.11974765
000040 9b 9a 93 3e d8 38 92 be 2a b2 60 be 94 77 8d 3e
       0.28828892 -0.28558993 -0.21942964 0.27630293
000050 4b 12 88 be 61 d7 77 bd 8d 95 56 3e c4 e9 83 3c
       -0.26576456 -0.060508136 0.20955487 0.01610268
000060 07 80 de bc fb b4 80 3c e2 63 a5 bd 4c a6 9f be
       -0.027160658 0.015711298 -0.08075692 -0.31181562
000070 86 08 63 3e 02 d9 50 3e 0c 97 61 bd 7c f9 05 3e
       0.2217122 0.20395282 -0.05507569 0.13083452

decoder_stack.1.ffwd.net.layers.0.weight f4 [32, 8]
000000 a8 c7 80 3c be 2d 32 be 45 c0 ad bd ae 21 b0 be
       0.015720204 -0.17400262 -0.08483938 -0.34400696
000010 15 63 8b 3e 51 b7 86 3d d1 d7 03 3f 21 39 64 be
       0.2722403 0.065779336 0.51501185 -0.22287418
000020 45 5a 6a 3e 52 e2 bd be 5a 75 8f be 33 bc a0 3e
       0.22885998 -0.3708673 -0.2801922 0.31393585
000030 a8 d9 09 3e c8 09 f9 bd e2 db c0 be 46 27 25 3e
       0.13461936 -0.12160069 -0.37667757 0.16128263
000040 77 d9 bc bd 23 f9 ab be ad e2 44 be 16 d4 a7 be
       -0.092211656 -0.33588514 -0.19227095 -0.32778996
000050 f8 f7 0b 3e e0 12 07 3e 63 e1 38 3e eb 11 90 3c
       0.13668811 0.13190794 0.18054728 0.017586669
000060 97 3e c2 be 86 d2 92 3e b4 9e cf bd 65 1f 2e 3e
       -0.37938377 0.28676242 -0.10137692 0.17004164
000070 da f7 30 3e ce 5c 98 3e 89 8f ee be 36 c4 65 3d
       0.17282048 0.29758304 -0.46593884 0.056095324
000080 ca 70 fe 3d 47 b4 8b 3d 54 6e 93 3e f5 52 d3 be
       0.124238566 0.068214945 0.2879511 -0.4127423
000090 3e c2 e9 3d 10 4c 99 bd 45 47 35 be df bf ab 3d
       0.11414002 -0.07485211 -0.17702968 0.08386206
0000a0 f3 5e 93 be 04 77 a0 be fe 10 c4 3d 12 7c 45 be
       -0.28783378 -0.31340802 0.095735535 -0.1928561
0000b0 5f 1f 33 3e 19 83 ee 3d b4 58 d5 3e 33 33 9b 3d
       0.17492436 0.11646099 0.41669238 0.07578125
0000c0 a8 ca 1c bb 3a 90 2f 3d 07 d2 88 3e 3a d7 ee 3e
       -0.0023924503 0.042862155 0.26722738 0.4664858
0000d0 21 82 00 bd 5f a6 c7 3d b5 4a bd be 5b b5 a0 be
       -0.0313741 0.0974853 -0.3697106 -0.31388363
0000e0 e7 03 a1 3e 31 5e 58 be 89 d9 32 3e 17 1c 8a bd
       0.3144829 -0.21129681 0.17465796 -0.06743639
0000f0 7f 1d d0 be 0a da 0a 3e 3b 5e 8a be 56 ab eb bd
       -0.40647504 0.13559738 -0.27025017 -0.11507289
000100 87 bb 11 bf 9c a8 00 3e 63 7e 8c 3e fa a4 c3 be
       -0.5692677 0.1256432 0.27440175 -0.38211805
000110 fb 83 99 3e 5c 3b 88 be ae 5d 5e be 4a df 6f be
       0.29983506 -0.26607788 -0.21715423 -0.23425022
000120 0d 31 97 bd c9 bf 5e 3e f2 62 09 be 22 e0 f2 be
       -0.073824026 0.21752848 -0.13416651 -0.47436625
000130 b5 23 b4 be 31 2a 0c 3e 0d c1 d5 3e f8 f1 8a 3e
       -0.35183492 0.1368797 0.4174885 0.27137733
000140 e4 e2 14 be b8 c4 8f 3d 6d b6 19 be 38 8d 21 be
       -0.14539677 0.07019943 -0.15010996 -0.15776527
000150 84 3f a4 3d 2e 7f 4a be e0 82 92 3d 3b a2 81 3e
       0.08019927 -0.19775078 0.07153869 0.25319085
000160 f5 84 b8 3e e1 e3 ac 3d 8c 1e c6 3d 6e 3e d7 3d
       0.36038938 0.08441902 0.09673795 0.105099544
000170 e3 c3 d2 be 85 b4 40 3d 0c 3f db bd be 4d ef 3d
       -0.41165075 0.047047157 -0.107053846 0.1168475
000180 ce 3f 14 bd ae 65 18 3e 70 f5 cd be ec a8 de be
       -0.03619366 0.14882538 -0.40226316 -0.43488252
000190 48 3a aa bd 42 18 4c be e7 f2 b7 3e 8f a6 b0 3e
       -0.083118975 -0.19931129 0.35927507 0.34502074
0001a0 d6 8a 85 3e d4 45 8d 3e 26 38 30 3e 66 d4 7c bd
       0.26082486 0.27592337 0.17208919 -0.061725996
0001b0 1e ed 9e 3e ed c9 9f bd ef be 7d 3c 43 ef 6a be
       0.3104028 -0.07802186 0.015487417 -0.22942834
0001c0 92 12 2a 3e 6c 79 ee 3c bc 81 97 3e 5c 29 f2 be
       0.16608647 0.029110633 0.29591167 -0.4729718
0001d0 8c b5 e8 bd cd f6 a2 be 60 18 45 3e c2 8a ce 3e
       -0.11362752 -0.3182892 0.1924758 0.4034024
0001e0 85 cb bf be f2 9f 35 3e c7 03 35 bd ee 7b 22 be
       -0.3745996 0.17736796 -0.044193055 -0.15867588
0001f0 66 06 eb 3e 61 2a 50 be cb ba 46 bd 07 66 0e 3d
       0.4590332 -0.20328666 -0.048517983 0.03476527
000200 a8 36 b2 bd 95 5a b5 3e 89 bf be 3e 10 c8 ae bd
       -0.08701831 0.3542067 0.37255505 -0.08534253
000210 f8 27 bf bd eb 97 fa 3d b2 f6 53 be f3 a8 44 3e
       -0.09333795 0.12236007 -0.20699576 0.19205074
000220 06 88 19 bc e2 a5 f7 bd ed 0e e8 bd 51 1a 13 3e
       -0.009370809 -0.120921865 -0.11330972 0.14365508
000230 7f a6 9f 3e 76 57 b9 bd 91 bd 5f 3e b3 aa 0b be
       0.31181714 -0.09049885 0.21849658 -0.13639335
000240 2c 4c 7a be f7 a0 d5 3d a9 12 09 be ea 37 b2 3e
       -0.2444312 0.10431092 -0.13386025 0.34808284
000250 d0 65 fd bd 3e f5 20 bd a9 95 4d 3e 96 d2 95 3d
       -0.12372935 -0.03929638 0.20076622 0.07315557
000260 02 bd 0e bd ae 80 48 be cf 7b 05 be 1d e0 4d be
       -0.03484822 -0.19580337 -0.1303551 -0.20105024
000270 e3 a8 93 3e 3a 8d 99 be e2 08 c3 3e 12 2a 5c bd
       0.28839788 -0.2999056 0.38092715 -0.05375106
000280 e0 16 44 3e f6 c3 a4 3c 36 45 6d 3e b6 f5 d3 be
       0.19149351 0.020112973 0.23170933 -0.413984
000290 80 05 23 be 4f 91 c3 3e f6 56 0b 3f 91 e7 d2 3e
       -0.15920067 0.381968 0.54429567 0.41192296
0002a0 6c 90 82 3e 6f 06 d1 be 8f 21 a8 3c 50 53 1e be
       0.2550081 -0.4082522 0.020523814 -0.15461469
0002b0 bb 51 ec 3d ad 5d c4 be 8c 43 e6 3e dd e9 9f be
       0.11539026 -0.3835272 0.4497341 -0.3123311
0002c0 f1 32 68 3e 63 3f 8d 3d bf ff f1 bd f7 1f f6 bb
       0.22675683 0.06896856 -0.11816358 -0.0075111347
0002d0 bd f7 fa bb 4d bf 82 3e 12 5a 1a be a7 6a 94 bd
       -0.0076589272 0.25536576 -0.15073422 -0.07246905
0002e0 00 71 8b 3d 89 c8 6c be c8 81 da 3d 6c 0c 57 3d
       0.068086624 -0.23123373 0.10669285 0.05250208
0002f0 39 18 4b bb 6d ee b7 3d 2f 14 55 3e aa f6 f1 3d
       -0.003098978 0.08981023 0.2080848 0.118146256
000300 99 d3 7f be 51 6b 28 3e 92 c7 ce be cb 47 6d be
       -0.24983062 0.16447188 -0.40386635 -0.23171918
000310 fc 06 19 be f0 9f 2c 3e d1 94 d9 be de 27 29 3e
       -0.1494407 0.16857886 -0.4249635 0.16519114
000320 9f df f4 3e 46 6f 34 be 0f a8 ca 3b b5 14 9d 3e
       0.4782686 -0.17620572 0.006184585 0.3067986
000330 a3 b9 49 be 8e 53 e0 3e 2b 2f 46 be 10 b5 62 be
       -0.19699721 0.43813747 -0.1935393 -0.22139382
000340 bc c5 03 3e f5 f2 8f 3e b7 75 4d 3e 61 8c 69 be
       0.12868398 0.2811505 0.20064436 -0.22807457
000350 99 34 90 be 95 5f 87 3b cc d5 5a 3d 07 a2 60 3e
       -0.2816513 0.0041312673 0.05342655 0.21936809
000360 e5 0d 36 bd 96 8d a9 be 42 fb bb 3d 45 84 97 be
       -0.044446845 -0.33115834 0.09178783 -0.295931
000370 5c 21 74 be ac 8d 0b 3e c0 7c 16 3e 4a 49 a2 3e
       -0.2384085 0.13628262 0.14696026 0.3169654
000380 90 33 5f 3e 17 da 77 3d 49 47 4e 3e 37 43 af be
       0.21797013 0.06051072 0.2014438 -0.34230968
000390 dc 8f 31 be a2 ff 88 be c3 13 99 3e 50 65 a8 3e
       -0.17340034 -0.26757532 0.2989789 0.32889795
0003a0 b4 24 a0 3c bf 83 89 3e 5c 70 8e be 39 b5 61 3e
       0.019548751 0.26858327 -0.27820098 0.22041787
0003b0 62 e1 32 be c5 c3 31 be c7 1d ae 3e a5 21 14 be
       -0.17468789 -0.17359836 0.34007093 -0.1446596
0003c0 ad 0e 87 3e 2e c0 0d 3c 78 60 cf bd a5 e0 6a be
       0.26378384 0.008651776 -0.10125822 -0.22937258
0003d0 f5 65 b3 3e 27 46 c7 3e 18 a2 8d 3e a6 80 ed bd
       0.35038725 0.3892071 0.2766273 -0.11596803
0003e0 6e ea 5f 3e 1d 38 f8 3e 9e cb 72 bd 55 a2 5f be
       0.21866772 0.4848031 -0.059276216 -0.21839269
0003f0 3e 87 30 3d c8 05 86 bd d3 05 e7 bd 99 0a da bd
       0.043097727 -0.065440714 -0.11280408 -0.106465526

decoder_stack.1.ffwd.net.layers.2.bias f4 [8]
000000 5e 19 ae bc 19 0f 5b 3d 99 66 1c bd 72 e8 14 bd
       -0.02125233 0.053481195 -0.038183782 -0.03635449
000010 ed 25 14 3e f4 88 bf 3c b9 b7 d4 3d 55 9d 41 3e
       0.14467593 0.023380734 0.10386605 0.18907674
