weights.safetensors (safetensors, 17936 bytes, 72 tensors)

blocks.layers.0.ffwd.net.layers.0.bias f4 [32]
0.3187313 -0.2723318 -0.15569647 0.27057546 0.05335529 0.10514283 0.08681298 0.07024311
0.0889699 0.016602516 0.12973855 -0.34719998 0.13402843 0.13832837 0.3840524 0.06826483
0.15722011 -0.09176728 -0.09776339 0.34402984 0.21528777 0.054168068 -0.008137815 0.031626295
0.245772 -0.04087099 -0.39567658 0.013476379 0.13154478 -0.16490714 0.21162565 -0.1285612
00000000: c030 a33e 136f 8bbe e56e 1fbe de88 8a3e
00000010: 148b 5a3d 2055 d73d 01cb b13d 9fdb 8f3d
00000020: da35 b63d 0002 883c 2fda 043e 32c4 b1be
00000030: c03e 093e f4a5 0d3e 84a2 c43e 6ece 8b3d
00000040: 4ffe 203e 7cf0 bbbd 2c38 c8bd ae24 b03e
00000050: 6674 5c3e 56df 5d3d 7854 05bc 938a 013d
00000060: a8ab 7b3e 5768 27bd 1f96 cabe 08cc 5c3c
00000070: adb3 063e 6bdd 28be 65b4 583e 8ca5 03be

blocks.layers.0.ffwd.net.layers.0.weight f4 [32, 8]
-0.08175806 0.3739494 0.100408345 0.27687532 -0.37281647 -0.050464455 -0.0014948436 0.06606469
0.1445343 0.10928951 0.09582745 -0.086216986 -0.36012888 0.23590271 0.46379957 0.16308045
0.4440198 -0.054854628 0.5136064 -0.017626919 0.39097318 0.057498526 -0.1513085 -0.041710198
-0.25228226 -0.12899138 -0.147538 0.09797764 -0.19542167 0.27466634 0.3541714 -0.104158714
0.10246747 0.013184533 -0.17463894 0.026432704 0.31332424 -0.09172036 -0.3732481 -0.36659855
0.15382813 0.21000691 -0.152651 0.27410483 0.40301397 -0.40889812 -0.013413577 -0.045944057
0.020021481 0.0035206852 -0.36063698 -0.21066374 0.06746826 -0.004747503 -0.092195794 0.30253866
0.011133434 -0.08093834 -0.2611551 -0.04253352 -0.024713501 0.22335882 -0.35767868 -0.039008632
-0.38738292 -0.0347849 0.065056875 -0.28966883 0.014475967 0.18352851 0.20408547 -0.36092132
-0.44646645 0.10875466 0.03232789 0.1870615 -0.11635722 -0.10554105 0.112767644 0.37605837
0.33349475 0.080443755 0.008665554 0.35598746 -0.024699356 -0.19626081 -0.010504505 0.04307538
0.306665 0.23445764 0.1330451 -0.2059517 0.094164506 0.07378202 0.22416346 0.078807704
0.17590834 -0.13327871 0.44293168 -0.18083647 -0.24559523 -0.36289734 0.35067543 0.3430722
-0.1808339 0.13057046 0.23803243 0.15817116 0.09633544 -0.21612602 0.08260649 -0.12013497
0.080124676 -0.24575026 0.1670677 -0.308255 -0.011460155 -0.15263547 -0.54023135 -0.13012724
-0.28019494 -0.0055581005 0.107515745 0.26413637 0.21926238 -0.23499796 -0.41391498 0.0709056
-0.10717598 -0.06715521 0.0958853 0.036721963 0.15506066 -0.094640605 0.11986762 -0.08038753
0.397551 0.3260348 -0.20409657 -0.1789581 0.33860847 -0.18185769 0.16312593 0.16384803
0.16874014 -0.092440754 -0.21724276 -0.16354589 0.1953274 -0.25010884 0.049391747 0.09125692
-0.55241346 0.08296471 -0.010352787 0.061861686 -0.22453502 -0.13397895 0.2065569 0.008092936
0.11651597 -0.15134734 0.09030168 -0.008973549 -0.44496855 0.1928491 -0.37317815 0.14212707
-0.25289425 0.14829554 0.002404201 0.061480727 0.19771457 0.41658133 -0.07916032 0.37243065
0.24651304 -0.08080614 0.28758007 0.16633852 0.23899414 -0.1360997 -0.16165274 -0.30838424
0.081396624 -0.026499024 -0.029595127 0.29425356 -0.52801263 -0.29061574 0.2616743 0.15316401
0.08916135 0.19330001 -0.23649825 -0.1060403 -0.15568165 0.07553821 0.11440676 0.1833783
-0.15333255 -0.16479214 0.027743844 -0.28032768 -0.3992805 0.19905548 -0.34082437 0.014687895
-0.057675626 0.1784508 -0.10310528 0.29549855 0.13832946 0.059778906 0.109030135 -0.0920078
-0.44039416 0.14355382 0.28067264 0.53437996 0.13393718 0.04813391 -0.26966733 0.026540026
-0.26005837 0.23243693 0.10894118 -0.30799657 0.24600062 0.09358564 0.2782236 -0.25648463
-0.15724257 0.24037047 0.25779754 0.081175074 -0.22159055 -0.16426986 -0.14545342 0.27070194
-0.18132468 0.057215292 0.1973059 -0.17483069 0.3409752 -0.111917496 0.28021863 0.120654486
0.057547364 -0.253674 -0.057768326 0.17642094 0.4165989 0.08054034 0.38101107 0.08648388
00000000: c570 a7bd 4c76 bf3e e4a2 cd3d 9ac2 8d3e
00000010: cde1 bebe d1b3 4ebd a1ee c3ba ed4c 873d
00000020: cd00 143e 2ed3 df3d 2f41 c43d 8892 b0bd
00000030: d062 b8be 7b90 713e 2377 ed3e 90fe 263e
00000040: 9056 e33e 3faf 60bd b67b 033f 5466 90bc
00000050: a32d c83e 9383 6b3d 9ef0 1abe 50d8 2abd
00000060: 242b 81be 5116 04be 3414 17be 80a8 c83d
00000070: 9e1c 48be 11a1 8c3e f455 b53e 2a51 d5bd
00000080: 77da d13d f103 583c 8dd4 32be 6689 d83c
00000090: 096c a03e e2d7 bbbd 601a bfbe ceb2 bbbe
000000a0: 1f85 1d3e 0d0c 573e 8b50 1cbe 7857 8c3e
000000b0: d957 ce3e 185b d1be 9fc4 5bbc d62f 3cbd
000000c0: 1704 a43c 4cbb 663b 69a5 b8be 3cb8 57be
000000d0: cd2c 8a3d f190 9bbb 26d1 bcbd 59e6 9a3e
000000e0: 0269 363c 00c3 a5bd 1fb6 85be a137 2ebd
000000f0: f873 cabc 2db8 643e a921 b7be 84c7 1fbd
00000100: 0e57 c6be 9c7a 0ebd 8a3c 853d 794f 94be
00000110: 9b2c 6d3c e6ee 3b3e c8fb 503e aeca b8be
00000120: 4097 e4be c3ba de3d 406a 043d 0d8d 3f3e
00000130: b24c eebd e825 d8bd b9f2 e63d b98a c03e
00000140: d3bf aa3e b2bf a43d f8f9 0d3c fd43 b63e
00000150: 4e56 cabc 98f8 48be 161b 2cbc cf6f 303d
00000160: 3203 9d3e aa15 703e fa3c 083e 01e5 52be
00000170: 52d9 c03d 071b 973d 1b8b 653e ef65 a13d
00000180: 5121 343e 377a 08be f1c7 e23e 322d 39be
00000190: 517d 7bbe aecd b9be bb8b b33e 29a7 af3e
000001a0: 862c 39be 43b4 053e c6be 733e 9ff7 213e
000001b0: 844b c53d 2450 5dbe 972d a93d 5309 f6bd
000001c0: 6818 a43d f5a5 7bbe cc13 2b3e 99d3 9dbe
000001d0: 60c3 3bbc 794c 1cbe 9a4c 0abf 1340 05be
000001e0: b675 8fbe ba20 b6bb 3731 dc3d e23c 873e
000001f0: 5186 603e 4ea3 70be aaec d3be f536 913d
00000200: 157f dbbd ac88 89bd 835f c43d c569 163d
00000210: 39c8 1e3e efd2 c1bd 287d f53d 38a2 a4bd
00000220: ce8b cb3e 09ee a63e b1fe 50be cb40 37be
00000230: 175e ad3e e738 3abe 7c0a 273e c7c7 273e
00000240: 37ca 2c3e 9451 bdbd e374 5ebe 9378 27be
00000250: e803 483e 440e 80be 004f 4a3d e8e4 ba3d
00000260: f86a 0dbf 67e9 a93d bc9e 29bc ae62 7d3d
00000270: 82ec 65be c731 09be a783 533e 3c98 043c
00000280: ed9f ee3d ccfa 1abe 16f0 b83d cb05 13bc
00000290: ebd2 e3be 3c7a 453e 3511 bfbe c289 113e
000002a0: 5b7b 81be c9da 173e cd8f 1d3b 37d3 7b3d
000002b0: b075 4a3e 264a d53e ce1e a2bd 3baf be3e
000002c0: ea6d 7c3e b17d a5bd b23d 933e a554 2a3e
000002d0: e1ba 743e b85d 0bbe 4c88 25be 8ae4 9dbe
000002e0: 46b3 a63d 7b14 d9bc 7b71 f2bc 67a8 963e
000002f0: d62b 07bf 96cb 94be 2dfa 853e 07d7 1c3e
00000300: 3a9a b63d 70f0 453e 992c 72be a82b d9bd
00000310: 036b 1fbe c7b3 9a3d 174e ea3d 85c7 3b3e
00000320: 3503 1dbe 45bf 28be 0f47 e33c 1c87 8fbe
00000330: 7e6e ccbe 33d5 4b3e 8880 aebe 7fa5 703c
00000340: 473d 6cbd cebb 363e dc28 d3bd 964b 973e
00000350: 3da6 0d3e bada 743d 314b df3d 966e bcbd
00000360: 587b e1be c6ff 123e 53b4 8f3e 20cd 083f
00000370: d426 093e 1028 453d d611 8abe 786a d93c
00000380: 5f26 85be f203 6e3e 8e1c df3d bab1 9dbe
00000390: 96e7 7b3e d4a9 bf3d 5373 8e3e f451 83be
000003a0: 3204 21be ad23 763e 0afe 833e 1e3f a63d
000003b0: a2e8 62be 5c36 28be bef1 14be 7299 8a3e
000003c0: 2dad 39be 955a 6a3d 8f0a 4a3e d106 33be
000003d0: 4d94 ae3e 0035 e5bd d178 8f3e b319 f73d
000003e0: c9b6 6b3d 8fe1 81be 7b9e 6cbd b1a7 343e
000003f0: 734c d53e 55f2 a43d e213 c33e 761e b13d

blocks.layers.0.ffwd.net.layers.2.bias f4 [8]
-0.011898429 -0.0846434 0.036025815 -0.025209805 0.04148117 -0.13379103 -0.08201691 0.060166467
00000000: a1f1 42bc 8559 adbd ce8f 133d cb84 cebc
00000010: 29e8 293d 8400 09be 7bf8 a7bd 1d71 763d

blocks.layers.0.ffwd.net.layers.2.weight f4 [8, 32]
-0.053226665 -0.07913774 0.20784873 -0.06507412 0.23594245 -0.052336674 0.0030915134 -0.126807
0.20158863 -0.15013273 0.04164943 0.045027312 -0.16809711 -0.090023115 0.21623361 0.090068035
-0.032183275 0.034332354 0.06894424 -0.1336607 -0.1341213 -0.048613224 -0.02656034 0.03074078
-0.10707356 0.08226066 0.01746109 -0.10580541 -0.059293754 -0.1838185 -0.13897222 -0.009658365
-0.111764655 0.18390904 -0.109804496 -0.1403549 0.1073865 0.075974934 0.030057805 0.10158022
0.00088156725 0.2888875 -0.023760784 -0.049450826 -0.05599534 0.24287708 -0.031351287 0.17338645
0.029162643 0.26430088 -0.019372152 0.17983793 -0.032291986 -0.097940594 -0.038669653 0.11195065
0.086092964 -0.020092431 0.037577506 0.329689 -0.09655665 -0.014859861 -0.10952183 -0.21928017
-0.08132741 -0.10136773 0.10100992 -0.05526837 0.14225125 -0.09082785 -0.09787344 -0.012728786
-0.22862427 -0.21747755 0.28378066 -0.16324289 -0.092926495 0.022943057 -0.02366673 -0.008187749
0.114500225 -0.085389815 0.14081648 -0.23610598 -0.011346598 0.09814494 0.13242602 -0.13798434
0.04374575 0.014597388 -0.058557775 0.12770727 0.19430414 0.05721512 -0.0069815163 0.09811668
0.0748031 -0.35277355 0.081253015 -0.09584289 -0.22283542 -0.19825475 0.09516976 -0.22305007
-0.05334726 0.2367507 -0.20140411 0.013094532 0.021265013 -0.16958994 -0.035328332 -0.00650208
-0.037007835 0.22529125 0.05513974 0.24231766 -0.2322031 0.033413757 -0.05797768 -0.22827563
0.06321286 -0.0668119 0.041094903 0.15471157 0.16115578 -0.06954775 0.072366625 -0.049363166
-0.13731663 -0.2781028 -0.26994637 0.0332657 0.0061064465 0.10349445 -0.09894658 -0.20133506
0.1701903 -0.11811278 -0.05224626 -0.06864789 -0.05431471 -0.03716745 -0.033195917 -0.07818165
0.18551618 0.10445811 0.2548805 0.085038714 0.01087816 0.045916714 -0.24404027 0.0067234924
-0.1685827 -0.23620443 -0.09284132 -0.0075942916 -0.027546033 0.066097595 0.106162824 0.2056604
0.22809769 0.13781321 -0.089630984 0.1562499 -0.18101317 0.09126228 -0.030449437 -0.035512526
-0.042660654 -0.3419112 -0.044254594 -0.012186346 0.18678896 -0.011933273 0.19011748 -0.05436042
-0.122104466 0.022397302 -0.01606591 0.08292329 0.08495971 -0.09642633 -0.23215006 0.23498344
-0.106336765 0.21449012 -0.09184471 -0.2480794 0.052107245 -0.049346633 0.05411518 0.012874762
0.17578445 0.030138575 0.16028865 0.1364024 -0.14297521 -0.32522357 -0.15768582 0.1578994
-0.011167404 -0.09569534 -0.15389758 -0.022365887 0.15612954 -0.04426168 0.24350096 -0.14661382
0.1187977 -0.24761091 -0.122199364 -0.19553825 0.09891661 0.1324514 0.07645724 0.0701152
0.01493666 0.17803109 -0.15206087 -0.17503802 -0.23889491 0.0309051 -0.046285577 0.0453586
0.24266957 0.058555525 0.005142277 0.15187366 -0.049683206 0.039381336 0.062387638 -0.13949896
0.009870626 0.14103976 0.031340808 -0.04077047 0.059837267 0.045117587 -0.039287504 -0.11526457
-0.11060261 -0.20871758 -0.059241276 0.2550199 0.117975004 0.1666507 -0.24930745 0.0642539
-0.09769923 0.15684173 0.13155527 -0.036248133 -0.24155335 0.21046588 -0.16750419 -0.05276043
00000000: 3404 5abd f812 a2bd 4cd6 543e 9545 85bd
00000010: e69a 713e fb5e 56bd fd9a 4a3b b2d9 01be
00000020: 406d 4e3e 65bc 19be 9898 2a3d 8f6e 383d
00000030: a621 2cbe 0a5e b8bd 586c 5d3e 9775 b83d
00000040: 9cd2 03bd 15a0 0c3d a332 8d3d 5ade 08be
00000050: 1857 09be a91e 47bd 1295 d9bc 17d4 fb3c
00000060: 6249 dbbd 4778 a83d 8f0a 8f3c 82b0 d8bd
00000070: 02de 72bd eb3a 3cbe bc4e 0ebe 1e3e 1ebc
00000080: dee4 e4bd a752 3c3e 2ee1 e0bd 32b9 0fbe
00000090: 74ed db3d bf98 9b3d c93b f63c 4a09 d03d
000000a0: fa18 673a 10e9 933e faa5 c2bc f38c 4abd
000000b0: 5f5b 65bd c5b4 783e 356a 00bd 388c 313e
000000c0: 7fe6 ee3c 7252 873e 59b2 9ebc 6f27 383e
000000d0: 9a44 04bd 1495 c8bd 1264 1ebd 6246 e53d
000000e0: 8251 b03d e298 a4bc dfea 193d ffcc a83e
000000f0: 7ebf c5bd c676 73bc fb4c e0bd fb8a 60be
00000100: fc8e a6bd e299 cfbd 4ade ce3d 1661 62bd
00000110: 50aa 113e f403 babd df71 c8bd 668c 50bc
00000120: 7b1c 6abe 6fb2 5ebe b34b 913e 2529 27be
00000130: 3f50 bebd 14f3 bb3c bbe0 c1bc e925 06bc
00000140: 187f ea3d dbe0 aebd 3232 103e c4c5 71be
00000150: 15e7 39bc 3700 c93d b09a 073e c44b 0dbe
00000160: be2e 333d e229 6f3c 47da 6fbd b2c5 023e
00000170: aaf7 463e 675a 6a3d 34c5 e4bb 66f1 c83d
00000180: 5e32 993d bc9e b4be fb67 a63d 4749 c4bd
00000190: f82e 64be 4b03 4bbe 5de8 c23d 3d67 64be
000001a0: a882 5abd c76e 723e e13c 4ebe 738a 563c
000001b0: f733 ae3c fca8 2dbe 71b4 10bd 660f d5bb
000001c0: 8795 17bd c0b2 663e 35da 613d 1f22 783e
000001d0: a6c6 6dbe dddc 083d 017a 6dbd 16c1 69be
000001e0: be75 813d add4 88bd 2153 283d b66c 1e3e
000001f0: 0506 253e 0d6f 8ebd f434 943d 0831 4abd
00000200: bb9c 0cbe 7d63 8ebe 6936 8abe 9d41 083d
00000210: 9618 c83b e6f4 d33d 81a4 cabd c72a 4ebe
00000220: 5e46 2e3e 1de5 f1bd 2d00 56bd 4497 8cbd
00000230: 1a79 5ebd e53c 18bd 71f8 07bd b31d a0bd
00000240: f4f7 3d3e 22ee d53d b27f 823e c728 ae3d
00000250: 4f3a 323c 2a13 3c3d b1e5 79be be50 dc3b
00000260: f1a0 2cbe 93df 71be 9723 bebd 89d9 f8bb
00000270: 38a8 e1bc 2d5e 873d e56b d93d a498 523e
00000280: 7192 693e e81e 0d3e 7390 b7bd f9ff 1f3e
00000290: 845b 39be b8e7 ba3d 1971 f9bc 9575 11bd
000002a0: f0bc 2ebd fc0e afbe 4e44 35bd 3da9 47bc
000002b0: 9b45 3f3e c683 43bc 28ae 423e 08a9 5ebd
000002c0: e811 fabd 8c7a b73c a89c 83bc b0d3 a93d
000002d0: 5bff ad3d 2b7b c5bd bfb8 6dbe 809f 703e
000002e0: 17c7 d9bd 4ca3 5b3e 1419 bcbd 8708 7ebe
000002f0: 686e 553d b21f 4abd e1a7 5d3d aaf0 523c
00000300: d700 343e 2ce5 f63c b522 243e 12ad 0b3e
00000310: 1868 12be b483 a6be 6478 21be 61b0 213e
00000320: 7df7 36bc ebfb c3bd 5497 1dbe aa38 b7bc
00000330: 6ce0 1f3e bc4b 35bd 5158 793e ef21 16be
00000340: 354c f33d b78d 7dbe a943 fabd 2e3b 48be
00000350: cb94 ca3d 57a1 073e 9d95 9c3d 8f98 8f3d
00000360: e5b8 743c c84d 363e d8b5 1bbe 2b3d 33be
00000370: dea0 74be b12c fd3c f295 3dbd f0c9 393d
00000380: 5f7e 783e ebd7 6f3d 8c80 a83b c584 1b3e
00000390: 9e80 4bbd 534e 213d 2e8a 7f3d d1d8 0ebe
000003a0: 68b8 213c ba6c 103e 385f 003d f0fe 26bd
000003b0: ec17 753d 38cd 383d efeb 20bd d50f ecbd
000003c0: 9f83 e2bd 10ba 55be fba6 72bd f891 823e
000003d0: e19c f13d 7ba6 2a3e 744a 7fbe 8c97 833d
000003e0: 8916 c8bd 1e9b 203e 6db6 063e ec78 14bd
000003f0: c359 77be 5e84 573e 3886 2bbe 521b 58bd

blocks.layers.0.ln1.bias f4 [8]
-0.0886297 -0.17847496 -0.10595407 -0.118934855 0.05464348 -0.021332694 -0.16576558 0.07562858
00000000: 7d83 b5bd 24c2 36be 73fe d8bd 1e94 f3bd
00000010: d7d1 5f3d e7c1 aebc 74be 29be 28e3 9a3d

blocks.layers.0.ln1.weight f4 [8]
0.8724221 1.0237628 0.97641045 0.81353444 0.9301391 0.8545019 0.9429876 0.77256155
00000000: 0e57 5f3f a90a 833f 09f6 793f cb43 503f
00000010: 991d 6e3f a3c0 5a3f a367 713f 98c6 453f

blocks.layers.0.ln2.bias f4 [8]
-0.0801439 0.057396967 -0.077913836 -0.023325596 -0.01421317 -0.10219112 -0.01383769 -0.013156986
00000000: 7c22 a4bd 1519 6b3d 4a91 9fbd 5215 bfbc
00000010: 5bde 68bc 9449 d1bd 7bb7 62bc 6690 57bc

blocks.layers.0.ln2.weight f4 [8]
1.0432297 0.82441276 1.0266743 1.0530728 1.1567601 0.92517316 1.0617692 1.0463284
00000000: 8d88 853f b70c 533f 106a 833f 17cb 863f
00000010: b710 943f 26d8 6c3f 0ee8 873f 17ee 853f

blocks.layers.0.sa.heads.0.key.weight f4 [2, 8]
0.13232026 -0.14004917 -0.16958806 -0.14104837 0.3318057 0.20319536 -0.19366165 -0.109436244
0.09820363 -0.04585548 0.4235288 0.2752459 -0.33372003 -0.011101611 0.028586011 0.38845864
00000000: f67e 073e 0d69 0fbe 7ea8 2dbe fc6e 10be
00000010: 70e2 a93e 7212 503e 3d4f 46be 1c20 e0bd
00000020: fc1e c93d f5d2 3bbd c4d8 d83e 08ed 8c3e
00000030: 5add aabe 88e3 35bc 362d ea3c 0de4 c63e

blocks.layers.0.sa.heads.0.query.weight f4 [2, 8]
-0.021514758 -0.08347777 -0.35034811 -0.17700312 0.31588268 -0.005545569 0.10537394 0.13596106
-0.13089937 -0.296436 0.1423144 0.06042778 -0.24760774 0.4680656 -0.16886552 -0.07733002
00000000: b83f b0bc 65f6 aabd d460 b3be 4e40 35be
00000010: 60bb a13e 9bb7 b5bb 4bce d73d 6039 0b3e
00000020: 7c0a 06be 76c6 97be deba 113e 1f83 773d
00000030: e28c 7dbe 4ba6 ef3e 15eb 2cbe 345f 9ebd

blocks.layers.0.sa.heads.0.value.weight f4 [2, 8]
0.037113696 -0.1089807 -0.23214594 -0.077151865 0.121888764 -0.2140262 -0.23474605 -0.15046503
-0.08773317 -0.04183107 0.04442139 -0.055426184 -0.17413414 -0.15479016 -0.06993977 0.11457615
00000000: 8804 183d 4631 dfbd aab7 6dbe cc01 9ebd
00000010: d1a0 f93d af29 5bbe 4561 70be 8113 1abe
00000020: 73ad b3bd 0e57 2bbd 34f3 353d 9106 63bd
00000030: 3850 32be 5081 1ebe 953c 8fbd e7a6 ea3d

blocks.layers.0.sa.heads.1.key.weight f4 [2, 8]
-0.24527238 -0.07642996 0.21291758 0.2935357 0.0737402 0.069342546 -0.2571218 -0.0025208483
-0.25387645 0.4041811 -0.33445674 -0.2948678 0.0080549745 -0.10818131 -0.43973553 -0.3798908
00000000: af28 7bbe 5087 9cbd 1107 5a3e 504a 963e
00000010: 1a05 973d 7703 8e3d 78a5 83be d134 25bb
00000020: 18fc 81be d3f0 ce3e ea3d abbe eaf8 96be
00000030: 03f9 033c 2a8e ddbd 0425 e1be 0c81 c2be

blocks.layers.0.sa.heads.1.query.weight f4 [2, 8]
-0.34952864 0.22234261 -0.13540536 -0.07817864 -0.14341384 -0.30075952 -0.09853103 0.0013159097
-0.25810292 -0.2908345 0.15309878 0.0075890115 0.0889924 -0.47560915 0.47018605 0.3737084
00000000: 6bf5 b2be c8ad 633e b4a7 0abe 1f1c a0bd
00000010: 14db 12be 27fd 99be a3ca c9bd 9a7a ac3a
00000020: 1126 84be 42e8 94be edc5 1c3e 3ead f83b
00000030: a641 b63d 0b83 f3be 3abc f03e b556 bf3e

blocks.layers.0.sa.heads.1.value.weight f4 [2, 8]
0.31709677 0.08457187 0.24781056 0.14283955 0.0982417 -0.0064287437 0.29890573 0.24576777
-0.0034974748 0.055097196 -0.12056316 0.17261347 0.04099277 0.22213957 -0.27749482 -0.06067414
00000000: 825a a23e 0434 ad3d 0dc2 7d3e 8844 123e
00000010: f232 c93d 36a8 d2bb 2c0a 993e 8caa 7b3e
00000020: e435 65bb 99ad 613d d1e9 f6bd 96c1 303e
00000030: 09e8 273d 8e78 633e cd13 8ebe 7285 78bd

blocks.layers.0.sa.heads.2.key.weight f4 [2, 8]
-0.26899394 -0.11937148 0.09324854 0.27343905 0.029481722 -0.19203684 -0.11226998 -0.4031568
0.17913629 0.23548613 -0.064213246 0.09777723 0.4213454 -0.08325476 -0.43523055 0.14783056
00000000: 93b9 89be 0979 f4bd 17f9 be3d 3400 8c3e
00000010: a783 f13c 4ea5 44be ceed e5bd 916a cebe
00000020: 816f 373e 4723 713e 3c82 83bd 6e3f c83d
00000030: 96ba d73e 7981 aabd 8ad6 debe e560 173e

blocks.layers.0.sa.heads.2.query.weight f4 [2, 8]
-0.30944067 -0.0403214 -0.27790397 0.12181535 -0.15622605 0.060962714 -0.24772349 -0.2914996
0.1764573 -0.055960506 0.49650273 -0.15252253 0.1391445 0.21018988 -0.2933085 -0.0025236127
00000000: 026f 9ebe 0d28 25bd 6e49 8ebe 547a f93d
00000010: b9f9 1fbe 0ab4 793d 3aab 7dbe 703f 95be
00000020: 39b1 343e d836 65bd 9b35 fe3e de2e 1cbe
00000030: e57b 0e3e 043c 573e 882c 96be 3263 25bb

blocks.layers.0.sa.heads.2.value.weight f4 [2, 8]
0.09429403 -0.096486524 0.09691557 0.09628911 0.23033673 0.098551266 -0.25190553 0.14830671
-0.037627622 0.20427825 -0.233573 -0.11575679 -0.19731909 0.066841565 -0.09900833 -0.20930542
00000000: 3a1d c13d ba9a c5bd ac7b c63d 3a33 c53d
00000010: 64dd 6b3e 3fd5 c93d c3f9 80be b7dd 173e
00000020: 6c1f 1abd 512e 513e c32d 6fbe e511 edbd
00000030: 040e 4abe 3be4 883d e1c4 cabd 2954 56be

blocks.layers.0.sa.heads.3.key.weight f4 [2, 8]
0.47897267 0.056967262 -0.2964148 0.24119908 0.23426344 -0.45828652 -0.49095213 -0.18938847
0.037468173 -0.52399224 -0.087811105 -0.10850744 0.23542653 0.0831189 -0.2686402 0.017916631
00000000: e83b f53e 8156 693d aec3 97be e4fc 763e
00000010: c1e2 6f3e 88a4 eabe 145e fbbe 0def 41be
00000020: 3a78 193d 5b24 06bf 4fd6 b3bd 2639 debd
00000030: a713 713e 3e3a aa3d 358b 89be e6c5 923c

blocks.layers.0.sa.heads.3.query.weight f4 [2, 8]
-0.49013716 0.0722317 -0.101329826 0.11618838 0.24078783 -0.4285339 0.41886455 0.07645299
0.15170369 -0.33988103 0.20475644 -0.07596024 0.12527929 0.13532813 0.09633031 -0.18028699
00000000: 42f3 fabe 37ee 933d 0386 cfbd 2cf4 ed3d
00000010: 1691 763e cc68 dbbe 6a75 d63e 6393 9c3d
00000020: 3658 1b3e e304 aebe acab 513e 0b91 9bbd
00000030: 3749 003e 7593 0a3e d348 c53d 279d 38be

blocks.layers.0.sa.heads.3.value.weight f4 [2, 8]
0.0006147638 0.41978088 -0.02616103 0.2257312 0.002883286 -0.124677844 0.30107674 -0.11355744
-0.20381229 -0.03447712 0.07501037 0.17513461 -0.08620167 0.039521996 0.12997745 0.15575999
00000000: 1a28 213a 85ed d63e a84f d6bc 1426 673e
00000010: 83f5 3c3b 1957 ffbd bb26 9a3e ce90 e8bd
00000020: 2bb4 50be e137 0dbd 099f 993d 7d56 333e
00000030: 808a b0bd d1e1 213d cf18 053e 8c7f 1f3e

blocks.layers.0.sa.proj.bias f4 [8]
-0.085168935 -0.1383942 0.15168907 -0.250711 -0.17346562 0.11445449 -0.13776027 0.18852448
00000000: 0d6d aebd 36b7 0dbe 6154 1b3e 315d 80be
00000010: f9a0 31be 1e67 ea3d 0711 0dbe 900c 413e

blocks.layers.0.sa.proj.weight f4 [8, 8]
-0.044815436 -0.036906116 0.16570944 0.020693392 0.20719516 0.23151341 -0.17782427 -0.015662074
0.2790342 -0.06736724 -0.10661416 0.08213144 -0.22412845 -0.05563583 -0.19531214 -0.011632527
0.08602695 -0.15969752 0.052739616 -0.19035278 -0.19569881 0.13908525 0.01264209 0.15033038
-0.09870442 0.21696883 -0.20248133 0.15278655 0.2533738 -0.2368306 -0.1178275 -0.21357307
0.09584035 -0.096833386 -0.17786103 0.0813962 0.034922145 -0.25134915 -0.04481426 0.050651286
-0.15413377 0.20969853 -0.17947881 -0.025242034 -0.099433504 0.023438511 -0.07948347 0.0927346
0.19495447 0.13379897 0.15900524 0.16477677 0.12516554 -0.13746358 -0.2507036 -0.0031897745
-0.17366947 -0.17353438 0.25537747 0.15396374 -0.053474464 0.19961128 0.066081405 0.03214966
00000000: 6490 37bd de2a 17bd bcaf 293e 3085 a93c
00000010: f82a 543e da11 6d3e 9117 36be c04d 80bc
00000020: 92dd 8e3e d6f7 89bd 8658 dabd 8734 a83d
00000030: ee81 65be 65e2 63bd e8ff 47be 5b96 3ebc
00000040: e62e b03d bf87 23be 7f05 583d d7eb 42be
00000050: 4565 48be 5d6c 0e3e c520 4f3c 35f0 193e
00000060: 8b25 cabd 142d 5e3e 4457 4fbe 1474 1c3e
00000070: 36ba 813e b983 72be 8b4f f1bd e6b2 5abe
00000080: f247 c43d 9550 c6bd 3421 36be 0db3 a63d
00000090: 860a 0f3d d6b0 80be 288f 37bd b977 4f3d
000000a0: 3ed5 1dbe 36bb 563e 4bc9 37be 62c8 cebc
000000b0: cba3 cbbd 1f02 c03c 3bc8 a2bd a3eb bd3d
000000c0: 25a2 473e 9902 093e 45d2 223e 3ebb 283e
000000d0: 652b 003e 41c3 0cbe 395c 80be 890b 51bb
000000e0: 69d6 31be ffb2 31be d6c0 823e aca8 1d3e
000000f0: 0a08 5bbd e666 4c3e b055 873d 5daf 033d

blocks.layers.1.ffwd.net.layers.0.bias f4 [32]
0.3326276 -0.06786345 -0.27654353 -0.2872861 0.46307978 -0.27738622 -0.08246265 -0.33022547
-0.25936806 0.09491449 0.109572746 -0.22696242 0.28034753 -0.1491283 0.005110799 -0.27374783
-0.078976445 -0.0023547416 0.010975595 0.037491847 0.19522196 0.025111495 -0.19891128 0.1559309
-0.2513248 0.12481271 -0.23170753 -0.32871908 -0.02303442 -0.3007746 0.13935289 -0.093062624
00000000: 2a4e aa3e fefb 8abd 1d97 8dbe 2a17 93be
00000010: cb18 ed3e 9105 8ebe 2ee2 a8bd 5013 a9be
00000020: e4cb 84be 8762 c23d ad67 e03d d668 68be
00000030: b689 8f3e 17b5 18be 7d78 a73b ad28 8cbe
00000040: 67be a1bd 0252 1abb fbd2 333c 0d91 193d
00000050: 44e8 473e 9fb6 cd3c 66af 4bbe 5aac 1f3e
00000060: a5ad 80be ce9d ff3d bd44 6dbe de4d a8be
00000070: aeb2 bcbc 21ff 99be 86b2 0e3e 9e97 bebd

blocks.layers.1.ffwd.net.layers.0.weight f4 [32, 8]
-0.24492548 -0.27685237 -0.12184633 0.19339535 0.3252176 -0.34524924 0.22290698 0.27573752
0.3336729 -0.08742474 0.29863968 0.15041871 -0.24772778 -0.31888127 -0.36763114 0.23603049
-0.022865327 -0.40551722 0.1208181 0.110999815 0.267716 0.33606914 0.094200045 -0.24209301
0.3377282 -0.28032213 0.21147569 0.2100518 -0.17949355 0.04222599 0.04012794 -0.15309988
-0.13192843 -0.2897612 -0.32386932 -0.09353331 -0.0058520166 -0.13689011 0.013858459 0.15589866
0.09363446 0.4638368 -0.27585962 -0.124327116 0.16478516 0.06556982 0.059007682 -0.42193466
0.41358158 0.1496227 -0.37757787 0.14600626 0.17908512 -0.18341297 -0.037874974 0.25616288
0.12653854 -0.16685633 0.21678053 -0.27024585 -0.15918648 0.2459675 0.006336603 -0.20823935
-0.29540682 -0.1741152 0.015877778 -0.3200192 -0.022777993 0.2156876 0.14403592 -0.068766795
-0.007568141 -0.15248571 -0.124762274 0.18200332 -0.19642343 -0.3342962 -0.24497177 0.116180696
-0.15770891 0.28684855 0.20037973 0.113909125 0.06441612 -0.09047911 0.2754748 -0.29966173
0.10183985 -0.12734216 0.008881284 0.20732531 -0.34503704 0.26919731 0.24884889 0.39087692
0.366887 0.03862089 -0.24165666 0.19583121 -0.022153202 0.010112873 -0.054022495 -0.109611295
0.03327082 -0.29069462 -0.0858172 0.06676211 -0.2394679 -0.18411428 -0.17510307 -0.08839848
0.18261175 -0.3808242 -0.27504385 0.21991007 0.32571924 -0.25142232 0.0714184 0.32680306
0.2621368 -0.42810434 0.023359086 0.027032675 0.3152912 -0.07106735 0.08406427 0.061482944
0.16213296 -0.06797173 -0.28216228 0.0043706973 -0.033911128 0.13017203 -0.41771683 0.061299704
-0.04666946 0.20604433 -0.032937076 -0.11331415 -0.30702147 0.19746695 0.056581058 -0.16460498
0.006197594 0.057493363 -0.08578432 0.27069488 0.049446896 0.012402352 -0.27102712 -0.42666543
0.2679098 -0.011361112 -0.014265373 0.18258943 0.003223329 -0.32549757 -0.056353536 0.111543514
0.18200225 -0.3511098 0.2318346 0.3308896 -0.022349162 -0.34620684 -0.2815337 0.12978786
-0.36816758 0.16563438 0.038984645 0.41400996 -0.14560202 -0.37021336 0.06849113 0.3470174
0.28191385 0.41024885 -0.065089844 -0.17163712 0.31042358 0.032456428 -0.44057363 -0.26583725
0.04483589 -0.27268732 0.005610094 0.16379973 -0.1796858 -0.032067183 0.38848794 0.29941773
-0.36283845 0.2437447 -0.28932458 0.27645838 -0.09576083 -0.15844099 -0.2784719 0.22137226
-0.0261516 -0.05363796 0.2583652 -0.085057035 0.3671772 0.27315524 0.008323481 -0.07128651
-0.36897284 0.23386084 -0.41803584 -0.29846194 0.039114784 -0.026258083 -0.39816427 0.059273288
0.33756408 -0.037171736 -0.009225872 0.18960945 0.12228003 -0.26103866 -0.12187431 0.109899856
0.36007154 -0.3917044 0.011906606 -0.1253069 -0.30849907 -0.20492531 -0.12299084 -0.45251194
-0.20038258 -0.033043254 0.191442 -0.50130576 0.46300098 0.09577786 -0.20827438 0.045518987
0.05743245 0.34275848 0.1712173 -0.11439751 -0.5392663 0.09406798 0.23757234 0.31731212
0.006805689 -0.24965705 -0.24745783 0.19509733 -0.10870844 0.29840234 0.44389793 0.12752682
00000000: bfcd 7abe 98bf 8dbe 928a f9bd 6e09 463e
00000010: ec82 a63e 82c4 b0be ba41 643e 782d 8d3e
00000020: 2dd7 aa3e be0b b3bd 4de7 983e 5d07 1a3e
00000030: 5aac 7dbe 6844 a3be 263a bcbe fab1 713e
00000040: 1150 bbbc f49f cfbe 7b6f f73d df53 e33d
00000050: 1212 893e 4111 ac3e f4eb c03d 3be7 77be
00000060: b6ea ac3e 6286 8fbe 158d 583e d217 573e
00000070: 28cd 37be 29f5 2c3d 325d 243d 37c6 1cbe
00000080: 3f18 07be 945b 94be 33d2 a5be 648e bfbd
00000090: 46c2 bfbb ec2c 0cbe 970e 633c e6a3 1f3e
000000a0: 6cc3 bf3d 047c ed3e 793d 8dbe 379f febd
000000b0: 71bd 283e 7849 863d 0ab2 713d d207 d8be
000000c0: f7c0 d33e b136 193e e351 c1be aa82 153e
000000d0: 1762 373e 9cd0 3bbe ca22 1bbd c827 833e
000000e0: 5293 013e 63dc 2abe b7fb 5d3e aa5d 8abe
000000f0: c801 23be e8de 7b3e 47a3 cf3b b23c 55be
00000100: 903f 97be 414b 32be 1d12 823c 8ed9 a3be
00000110: ea98 babc 36dd 5c3e 277e 133e 9bd5 8cbd
00000120: 2bfe f7bb 3725 1cbe 5d83 ffbd 145f 3a3e
00000130: 3923 49be df28 abbe e1d9 7abe 25f0 ed3d
00000140: 727e 21be d0dd 923e 5830 4d3e 3049 e93d
00000150: 99ec 833d 1d4d b9bd 080b 8d3e 436d 99be
00000160: 6991 d03d fc65 02be ce82 113c 164d 543e
00000170: b2a8 b0be 3bd4 893e 3ed2 7e3e 0521 c83e
00000180: 9dd8 bb3e f030 1e3d d874 77be fa87 483e
00000190: a27a b5bc 77b0 253c b146 5dbd e37b e0bd
000001a0: fc46 083d edd5 94be eec0 afbd 93ba 883d
000001b0: 1337 75be 7488 3cbe 384e 33be 430a b5bd
000001c0: 93fe 3a3e 64fb c2be 8cd2 8cbe 1b30 613e
000001d0: acc4 a63e 6dba 80be cf43 923d bb52 a73e
000001e0: cb36 863e 7e30 dbbe 8e5b bf3c a173 dd3c
000001f0: d96d a13e c28b 91bd e329 ac3d 8ad5 7b3d
00000200: 2f06 263e c334 8bbd 9377 90be 1138 8f3b
00000210: 65e6 0abd d14b 053e fbde d5be 6615 7b3d
00000220: 7a28 3fbd 49fd 523e 07e9 06bd 4011 e8bd
00000230: eb31 9dbe c734 4a3e 8ac1 673d 358e 28be
00000240: 3015 cb3b 297e 6b3d b1af afbd 8598 8a3e
00000250: d488 4a3d 3c33 4b3c 11c4 8abe e473 dabe
00000260: 792b 893e f523 3abc 50b9 69bc b9f8 3a3e
00000270: 7d3e 533b 9ea7 a6be f7d2 66bd ed70 e43d
00000280: cc5e 3a3e aac4 b3be 0d66 6d3e 5d6a a93e
00000290: 9715 b7bc 0642 b1be 2f25 90be 1ce7 043e
000002a0: 7680 bcbe 0f9c 293e 5dae 1f3d 1df9 d33e
000002b0: b218 15be 9b8c bdbe 1445 8c3d 44ac b13e
000002c0: 0357 903e 230c d23e d34d 85bd a4c1 2fbe
000002d0: d7ef 9e3e 08f1 043d de92 e1be d21b 88be
000002e0: d7a5 373d ac9d 8bbe e1d4 b73b 1ebb 273e
000002f0: 8eff 37be e158 03bd e4e7 c63e 484d 993e
00000300: f6c5 b9be 3698 793e 5a22 94be f48b 8d3e
00000310: 411e c4bd 5b3e 22be de93 8ebe 69af 623e
00000320: e13b d6bc 7ab3 5bbd 7248 843e 6232 aebd
00000330: a6fe bb3e 01db 8b3e 365f 083c a9fe 91bd
00000340: 02ea bcbe 3779 6f3e cb08 d6be 01d0 98be
00000350: d336 203d 311b d7bc 30dc cbbe 8cc8 723d
00000360: 33d5 ac3e 6441 18bd 1d28 17bc fb28 423e
00000370: f46d fa3d dca6 85be 3d99 f9bd 2d13 e13d
00000380: 4c5b b83e 7b8d c8be ed13 433c 7450 00be
00000390: 97f3 9dbe f1d7 51be 9fe2 fbbd a5af e7be
000003a0: 1731 4dbe 5d58 07bd 5f09 443e 9355 00bf
000003b0: 770e ed3e 2f27 c43d e145 55be 1e72 3a3d
000003c0: 4a3e 6b3d 0a7e af3e 9753 2f3e 3e49 eabd
000003d0: 5b0d 0abf b7a6 c03d 2a46 733e bc76 a23e
000003e0: 4202 df3b 19a6 7fbe 9665 7dbe 98c7 473e
000003f0: 88a2 debd 31c8 983e 9746 e33e 6496 023e

blocks.layers.1.ffwd.net.layers.2.bias f4 [8]
0.071623735 -0.14189929 -0.025369164 0.13238649 -0.13863431 -0.13769078 0.123710565 0.035068054
00000000: 77af 923d 0c4e 11be fed2 cfbc 5390 073e
00000010: 27f6 0dbe d0fe 0cbe f75b fd3d 85a3 0f3d

blocks.layers.1.ffwd.net.layers.2.weight f4 [8, 32]
-0.065845676 0.09184697 -0.05204964 0.08044999 -0.21814388 -0.07129483 -0.09719416 -0.00829348
0.105599284 -0.12575397 0.14493279 0.050550207 -0.08539614 -0.12476697 0.07156329 0.10348198
-0.10394037 -0.07934045 0.0063489727 0.03681371 -0.09370872 -0.10202474 0.11656669 0.14986418
-0.1851779 0.22229591 0.050664507 0.15284254 0.109338686 -0.040207226 -0.20880513 -0.052257206
0.14581889 0.049249344 -0.15479068 -0.1301629 0.23447588 0.17006403 0.21047756 -0.019717263
0.08088337 0.01726728 0.3184801 0.070107244 0.09004899 0.0028597726 -0.097768575 -0.15750046
0.16324744 -0.09507176 0.1320109 0.059974317 0.22674946 0.048831552 0.11555932 0.06460195
0.22753212 -0.23106326 -0.14078423 0.18219382 0.02768491 -0.2687649 -0.15875864 -0.02822212
0.07863463 0.09517133 0.030208217 -0.08995347 0.15037857 0.32971206 0.34847185 0.070064105
-0.10380027 0.13550071 0.021088872 -0.0022217 0.17499326 0.11320795 -0.0035495653 0.07147703
0.21207382 -0.056100827 0.1767568 0.23114277 -0.088906944 -0.12661035 0.023134412 -0.19494823
-0.25165865 -0.18576078 0.14174035 0.15143906 0.017039226 -0.08151586 -0.100625195 -0.041317236
0.06873576 -0.2562935 0.24961855 0.15330438 0.106541626 -0.18783063 -0.047809567 0.109353766
0.02033881 0.075132295 0.03712262 -0.300497 -0.19227324 -0.0012799703 -0.0037230006 0.07378041
-0.23424782 -0.13061363 -0.10067137 -0.18526486 0.0155399535 0.1562386 -0.14832072 -0.19453824
0.42231572 0.09986852 0.19573215 0.0040018265 0.10084617 -0.022854902 -0.09456428 -0.14706196
0.25478643 0.15487798 0.004273794 -0.22715352 0.15000764 0.1337649 0.027013922 0.064470924
0.18588649 -0.10482927 -0.016515428 -0.051976867 -0.21473324 -0.035639465 0.27815732 0.015678154
-0.05575713 0.11326328 0.0038977547 0.025672356 -0.21685538 -0.13787732 0.058770064 0.02039215
0.019286433 0.099033944 -0.14669552 0.13795899 -0.35071144 -0.0846441 0.054181118 0.011540547
0.0053711883 0.12389367 -0.26060438 -0.05288649 0.06608549 -0.14986786 -0.028768927 -0.11826786
0.24185173 0.046986114 0.14527774 0.15829098 0.019308517 -0.06216992 0.051133197 -0.048652813
0.06528715 0.10635088 0.13960735 0.09161997 0.097278796 -0.21449412 0.073003106 0.15391134
-0.17485347 -0.08097537 -0.15769222 0.10197582 -0.2879375 0.20755899 0.07063077 0.19304578
-0.14511518 -0.026544603 -0.13241516 0.41360292 0.08931151 -0.23260656 -0.26451215 0.18060626
-0.033704005 -0.17783916 -0.20103562 0.08401391 -0.02130369 0.14697383 -0.17146328 0.08615102
-0.05784881 -0.084095135 -0.17694724 -0.012567061 0.0076106354 -0.12456812 -0.08808636 -0.05536567
-0.15631743 -0.09201479 0.14762191 -0.19244505 0.26092872 0.14815214 0.20308241 -0.21550885
0.030241946 -0.12893666 -0.14896591 0.010301819 -0.018509591 0.087306544 -0.032929245 0.25580117
0.12506624 -0.09734953 -0.111890666 0.11207608 -0.00874918 -0.03851752 -0.26626915 -0.055869915
-0.09291023 -0.02281937 0.25150806 -0.10298488 -0.13740243 0.17959157 -0.19715568 -0.049528908
0.24965738 0.012560103 0.15967828 -0.058679756 0.15608114 -0.20632164 0.13595395 -0.037290413
00000000: 19da 86bd 441a bc3d 0132 55bd f7c2 a43d
00000010: 1c61 5fbe 0603 92bd bb0d c7bd 60e1 07bc
00000020: 7044 d83d a6c5 00be 4369 143e bc0d 4f3d
00000030: 2ce4 aebd d385 ffbd c68f 923d 5cee d33d
00000040: b0de d4bd 3f7d a2bd 0b0b d03b f9c9 163d
00000050: 5bea bfbd 59f2 d0bd 84ba ee3d ff75 193e
00000060: 479f 3dbe 8aa1 633e 9685 4f3d c182 1c3e
00000070: f6ec df3d 55b0 24bd 03d1 55be a70b 56bd
00000080: 8c51 153e aeb9 493d 7381 1ebe 6c49 05be
00000090: 721a 703e 4425 2e3e 6e87 573e 1986 a1bc
000000a0: 2ea6 a53d 1c74 8d3c d30f a33e 6394 8f3d
000000b0: 9b6b b83d 066b 3b3b e43a c8bd cd47 21be
000000c0: 562a 273e fcb4 c2bd de2d 073e a1a7 753d
000000d0: 0331 683e 9803 483d 5daa ec3d 074e 843d
000000e0: 2efe 683e d99b 6cbe be29 10be 0491 3a3e
000000f0: 77cb e23c 8e9b 89be a091 22be 1332 e7bc
00000100: 310b a13d 30e9 c23d 3977 f73c 8639 b8bd
00000110: d7fc 193e 05d0 a83e e76a b23e c57d 8f3d
00000120: 3c95 d4bd b3c0 0a3e 92c2 ac3c f199 11bb
00000130: 6f31 333e 92d9 e73d d39f 68bb 8d62 923d
00000140: e129 593e fbc9 65bd bcff 343e b1b0 6c3e
00000150: d814 b6bd 25a6 01be 6184 bd3c 82a0 47be
00000160: 67d9 80be 1338 3ebe 6224 113e d712 1b3e
00000170: d995 8b3c caf1 a6bd 9514 cebd 433c 29bd
00000180: 56c5 8c3d e738 83be 019c 7f3e d3fb 1c3e
00000190: 7f32 da3d ac56 40be f7d3 43bd def4 df3d
000001a0: 939d a63c f6de 993d e30d 183d beda 99be
000001b0: 47e3 44be adc4 a7ba 96fd 73bb 2f1a 973d
000001c0: a9de 6fbe 94bf 05be cb2c cebd 12b6 3dbe
000001d0: 4a9b 7e3c 03fd 1f3e 63e1 17be 0835 47be
000001e0: c439 d83e de87 cc3d 026e 483e c121 833b
000001f0: 7088 ce3d 343a bbbc ebaa c1bd 6997 16be
00000200: 5e73 823e 5598 1e3e 2f0b 8c3b ef9a 68be
00000210: 9a9b 193e aaf9 083e 4d4c dd3c 5509 843d
00000220: 0759 3e3e bab0 d6bd 5d4b 87bc b2e5 54bd
00000230: 08e3 5bbe b0fa 11bd a36a 8e3e 796f 803c
00000240: 9761 64bd 94f6 e73d 7971 7f3b d54e d23c
00000250: 560f 5ebe b62f 0dbe e1b8 703d 700d a73c
00000260: 95fe 9d3c 4fd2 ca3d 5a37 16be 1f45 0d3e
00000270: 7390 b3be e359 adbd 05ed 5d3d 9014 3d3c
00000280: cb00 b03b f7bb fd3d f06d 85be 819f 58bd
00000290: d457 873d f676 19be d0ac ebbc 6b36 f2bd
000002a0: fba7 773e 8374 403d b0c3 143e 0817 223e
000002b0: e52c 9e3c e3a5 7ebd 0b71 513d 2c48 47bd
000002c0: 45b5 853d 7dce d93d 3bf5 0e3e 40a3 bb3d
000002d0: 1b3a c73d 59a4 5bbe a782 953d ef9a 1d3e
000002e0: ca0c 33be 6ad6 a5bd 127a 21be b3d8 d03d
000002f0: 8b6c 93be 588a 543e dda6 903d cbad 453e
00000300: 1399 14be 1174 d9bc d797 07be c3c3 d33e
00000310: f4e8 b63d 6a30 6ebe 236e 87be d9f0 383e
00000320: 360d 0abd 781b 36be 48dc 4dbe 7c0f ac3d
00000330: 1385 aebc 4f80 163e 1294 2fbe f26f b03d
00000340: e0f2 6cbd 123a acbd a831 35be 13e6 4dbc
00000350: a362 f93b 921d ffbd 9f66 b4bd 1dc7 62bd
00000360: ad11 20be 4072 bcbd 332a 173e 5110 45be
00000370: 7398 853e 32b5 173e d6f4 4f3e 5aae 5cbe
00000380: f5bd f73c f907 04be 858a 18be f6c8 283c
00000390: 6da1 97bc c6cd b23d d1e0 06bd 5ff8 823e
000003a0: 5d11 003e 315f c7bd ef26 e5bd 2588 e53d
000003b0: b858 0fbc 8cc4 1dbd 6e54 88be dad7 64bd
000003c0: b847 bebd b0ef babc aac5 803e bde9 d2bd
000003d0: 39b3 0cbe dae6 373e 2ee3 49be d3de 4abd
000003e0: 2fa6 7f3e e4c8 4d3c b482 233e 2f5a 70bd
000003f0: bcd3 1f3e fb45 53be 8337 0b3e d5bd 18bd

blocks.layers.1.ln1.bias f4 [8]
0.10581729 0.042872038 0.09814077 0.13429677 -0.0248739 0.08823727 0.064920194 0.0547595
00000000: bcb6 d83d 979a 2f3d 07fe c83d 1885 093e
00000010: 59c4 cbbc beb5 b43d e1f4 843d 7f4b 603d

blocks.layers.1.ln1.weight f4 [8]
0.878744 0.89604837 1.0466019 0.84819245 0.9140663 0.9247084 0.8353573 0.9665509
00000000: 5ef5 603f 6d63 653f 0df7 853f 2423 593f
00000010: 4000 6a3f b1b9 6c3f fad9 553f e16f 773f

blocks.layers.1.ln2.bias f4 [8]
-0.07046213 0.074308425 -0.07415867 0.023150112 0.07989842 0.02384115 0.049232192 0.12134923
00000000: 734e 90bd 042f 983d 80e0 97bd 4ea5 bd3c
00000010: c8a1 a33d 844e c33c b2a7 493d f285 f83d

blocks.layers.1.ln2.weight f4 [8]
1.0605806 1.1653352 0.93347484 1.0130048 1.1126776 1.0019437 0.9961627 1.1612729
00000000: 1bc1 873f b429 953f 35f8 6e3f 24aa 813f
00000010: 386c 8e3f b13f 803f 8504 7f3f 97a4 943f

blocks.layers.1.sa.heads.0.key.weight f4 [2, 8]
0.20453238 -0.020258602 0.37764707 -0.12557931 -0.039111845 -0.14744632 -0.2914573 0.121383004
-0.20408876 0.2775485 0.46110472 0.25818518 -0.17411801 -0.004931911 0.05912225 -0.030076372
00000000: f070 513e 5ef5 a5bc f55a c13e dd97 00be
00000010: be33 20bd 2bfc 16be e439 95be a797 f83d
00000020: a5fc 50be d61a 8e3e eb15 ec3e d930 843e
00000030: fe4b 32be de9b a1bb 2c2a 723d b962 f6bc

blocks.layers.1.sa.heads.0.query.weight f4 [2, 8]
-0.2511712 -0.09037321 0.11441676 -0.47166485 0.06518654 -0.072124265 -0.21254298 0.3605718
-0.1538261 -0.27161086 0.031785354 -0.10370667 -0.1535936 -0.060527492 0.15054303 -0.15987417
00000000: 8399 80be 9715 b9bd 5653 ea3d 0e7e f1be
00000010: 8580 853d e3b5 93bd dea4 59be de9c b83e
00000020: 9784 1dbe 9410 8bbe 5c31 023d 2a64 d4bd
00000030: a447 1dbe adeb 77bd f427 1a3e 0eb6 23be

blocks.layers.1.sa.heads.0.value.weight f4 [2, 8]
-0.104807265 -0.14116189 -0.055059973 -0.11866242 -0.18563998 -0.24613596 0.21354577 0.018435376
-0.20786363 0.06089255 -0.33913356 -0.112043306 -0.042340122 0.021029163 0.05647624 -0.27903712
00000000: 31a5 d6bd be8c 10be 9186 61bd 4805 f3bd
00000010: 6818 3ebe 110b 7cbe beab 5a3e c905 973c
00000020: 34da 54be 776a 793d eaa2 adbe f676 e5bd
00000030: d66c 2dbd 5a45 ac3c a153 673d f4dd 8ebe

blocks.layers.1.sa.heads.1.key.weight f4 [2, 8]
-0.015187688 0.30343443 0.049693212 0.28851363 -0.1888341 -0.12876806 0.18215674 -0.04819665
0.12526381 0.34783244 0.39049795 -0.21834576 -0.19992392 0.13118951 0.30560648 -0.40442935
00000000: c8d5 78bc c25b 9b3e 1c8b 4b3d 0fb8 933e
00000010: ba5d 41be c6db 03be 4c87 3a3e da69 45bd
00000020: 2845 003e 1817 b23e 59ef c73e 0896 5fbe
00000030: dbb8 4cbe 8b56 063e 7478 9c3e 5d11 cfbe

blocks.layers.1.sa.heads.1.query.weight f4 [2, 8]
-0.14855973 0.39064586 -0.116087146 0.38121313 0.13084933 -0.3950961 0.0708508 -0.12054363
-0.021573054 0.33049038 -0.3030836 -0.21676734 0.27257097 0.07641936 -0.53484213 0.1633954
00000000: 0b20 18be bc02 c83e 19bf edbd 5e2e c33e
00000010: 5efd 053e 094a cabe 391a 913d 94df f6bd
00000020: f9b9 b0bc 0936 a93e c62d 9bbe 42f8 5dbe
00000030: 6c8e 8b3e c181 9c3d 6aeb 08bf 2051 273e

blocks.layers.1.sa.heads.1.value.weight f4 [2, 8]
-0.029222837 -0.024510985 -0.06839861 -0.10977595 0.2102729 0.049050145 0.11039335 0.09020221
-0.14706868 -0.1313035 0.13436846 -0.086256444 -0.2997738 0.22210589 -0.16264987 -0.24692068
00000000: bb64 efbc 43cb c8bc 9214 8cbd 37d2 e0bd
00000010: c751 573e cee8 483d e915 e23d f0bb b83d
00000020: 2c99 16be 6d74 06be e397 093e 38a7 b0bd
00000030: f47b 99be ba6f 633e b08d 26be c6d8 7cbe

blocks.layers.1.sa.heads.2.key.weight f4 [2, 8]
-0.042320862 -0.19322932 -0.18861227 -0.27355444 -0.15821263 -0.04134702 -0.036509596 -0.18955241
-0.26902807 0.16298099 -0.013187322 0.34981498 0.15480444 -0.26150197 0.21675926 0.10848476
00000000: a458 2dbd e8dd 45be 9323 41be 540f 8cbe
00000010: 7e02 22be 7e5b 29bd 168b 15bd 071a 42be
00000020: 0cbe 89be 7de4 263e a30f 58bc f31a b33e
00000030: 0e85 1e3e 96e3 85be 24f6 5d3e 422d de3d

blocks.layers.1.sa.heads.2.query.weight f4 [2, 8]
-0.023495834 -0.1066827 0.0059673293 0.1380911 0.100296445 -0.25700212 0.2772261 0.16097832
0.033549413 0.011572433 0.24699728 0.14101128 0.14872894 -0.31769148 0.017178325 -0.12188644
00000000: 567a c0bc 767c dabd 9689 c33b c167 0d3e
00000010: 3968 cd3d c895 83be 94f0 8d3e 80d7 243e
00000020: 1c6b 093d 4d9a 3d3c dbec 7c3e 4365 103e
00000030: 664c 183e 75a8 a2be 8fb9 8c3c 999f f9bd

blocks.layers.1.sa.heads.2.value.weight f4 [2, 8]
-0.22576965 -0.32359216 -0.3143001 0.06490784 0.014315829 0.0031418516 -0.1655095 -0.21607412
-0.15581144 0.20770419 0.095738456 0.23093309 0.13319372 0.20557283 0.1041645 -0.10698314
00000000: 2930 67be dfad a5be f1eb a0be 67ee 843d
00000010: f08c 6a3c 86e7 4d3b 537b 29be 8942 5dbe
00000020: 098d 1fbe 68b0 543e 8612 c43d b979 6c3e
00000030: ef63 083e af81 523e 3354 d53d fa19 dbbd

blocks.layers.1.sa.heads.3.key.weight f4 [2, 8]
0.2156502 0.3930593 0.3173077 0.14326593 0.008558399 -0.2854414 0.2649549 0.1857606
0.30533364 0.14604951 0.023959178 0.048345815 0.39532006 0.25936735 -0.17971894 -0.22096325
00000000: 68d3 5c3e 123f c93e 2876 a23e 4eb4 123e
00000010: 8738 0c3c 6025 92be 2ba8 873e 0738 3e3e
00000020: b154 9c3e 018e 153e 0a46 c43c 4306 463d
00000030: 6467 ca3e cccb 843e 3e08 38be 3144 62be

blocks.layers.1.sa.heads.3.query.weight f4 [2, 8]
0.37694085 0.2579923 0.21497023 -0.3190419 -0.26014045 0.15400735 0.040581767 -0.10998396
-0.06972049 0.22610635 -0.38542905 -0.01439286 0.1373387 0.2763165 -0.22473413 -0.18712947
00000000: 64fe c03e 9117 843e 2821 5c3e 7659 a3be
00000010: 2131 85be 1ab4 1d3e 1139 263d 453f e1bd
00000020: 9ec9 8ebd 6c88 673e f556 c5be 08d0 6bbc
00000030: 84a2 0c3e 5b79 8d3e b420 66be de9e 3fbe

blocks.layers.1.sa.heads.3.value.weight f4 [2, 8]
0.21484084 -0.09863662 -0.09694241 0.20019874 0.22552802 -0.18164448 -0.23128733 0.22295111
0.10545579 -0.0055163815 0.40179896 0.24655703 -0.023448553 0.1926016 0.010568245 0.17831655
00000000: 3dff 5b3e ff01 cabd be89 c6bd e600 4d3e
00000010: d1f0 663e 0301 3abe 96d6 6cbe 4c4d 643e
00000020: 35f9 d73d c3c2 b4bb 98b8 cd3e 7279 7c3e
00000030: 2e17 c0bc 5b39 453e 6f26 2d3c 9d98 363e

blocks.layers.1.sa.proj.bias f4 [8]
0.09190582 0.14710474 -0.22734985 0.0017918524 -0.08921995 0.15613538 -0.16277337 -0.010461645
00000000: 1e39 bc3d a0a2 163e 66ce 68be 97dc ea3a
00000010: f3b8 b6bd f4e1 1f3e 10ae 26be 5267 2bbc

blocks.layers.1.sa.proj.weight f4 [8, 8]
-0.09297648 0.3651668 -0.21979985 0.106952764 0.040388994 0.1559355 -0.021616135 -0.1326877
0.097122744 0.15517294 -0.1250775 0.09086481 -0.002942156 0.027461465 -0.1263755 -0.15563338
0.009615096 -0.027891211 0.34480378 0.07993129 -0.30134585 -0.033908706 -0.03933164 0.14590175
-0.3094778 0.18124035 -0.19725235 0.053781856 0.28935146 -0.40694323 -0.24993123 -0.1460851
-0.13331644 0.09130287 0.31979042 0.022705877 -0.23289335 -0.15762822 -0.09272956 -0.087609634
-0.0041559404 0.2136523 0.00060064497 -0.0029609483 -0.15298924 -0.23177351 0.15815628 -0.09585242
0.1187624 -0.2954247 0.16110505 0.085400455 -0.20220336 -0.21992978 0.03847614 0.29138717
-0.033139385 0.13309464 0.07360068 -0.07633504 -0.055456672 0.0422304 -0.20878492 0.0064183045
00000000: 746a bebd 25f7 ba3e 3613 61be 0d0a db3d
00000010: ee6e 253d 8ead 1f3e 5214 b1bc 49df 07be
00000020: 4ae8 c63d a8e5 1e3e 5114 00be 5417 ba3d
00000030: 30d1 40bb def6 e03c 9468 01be 5b5e 1fbe
00000040: a388 1d3c 1c7c e4bc 1f8a b03e 04b3 a33d
00000050: 014a 9abe dbe3 0abd 371a 21bd 4567 153e
00000060: e073 9ebe 1297 393e 85fc 49be 5d4a 5c3d
00000070: e025 943e dd5a d0be f9ed 7fbe 5597 15be
00000080: 1b84 08be 00fd ba3d 92bb a33e ad01 ba3c
00000090: 987b 6ebe 4b69 21be ffe8 bdbd ae6c b3bd
000000a0: 8e2e 88bb abc7 5a3e 9a74 1d3a 780c 42bb
000000b0: 36a9 1cbe 0956 6dbe b8f3 213e 464e c4bd
000000c0: b339 f33d e841 97be b9f8 243e 6fe6 ae3d
000000d0: 660e 4fbe 4635 61be 2899 1d3d b330 953e
000000e0: 2abd 07bd f649 083e f4bb 963d 8c55 9cbd
000000f0: 8926 63bd c9f9 2c3d b7cb 55be a450 d23b

blocks.layers.2.ffwd.net.layers.0.bias f4 [32]
-0.28040123 0.1635043 0.16322234 0.1462002 -0.1998692 -0.25658223 0.07823325 0.13110486
0.06052142 -0.16298223 0.17002565 0.17542352 -0.16249798 0.26775733 0.16040868 -0.08924911
-0.14161608 -0.17440514 -0.24606103 0.15436564 -0.004060172 -0.10558995 -0.08802551 0.0053333146
-0.015916282 -0.21950828 -0.021879423 0.071152195 -0.3648905 -0.15342885 0.06411196 0.061174832
00000000: c090 8fbe ac6d 273e c223 273e 81b5 153e
00000010: 83aa 4cbe bf5e 83be c138 a03d 5a40 063e
00000020: 4fe5 773d d0e4 26be 341b 2e3e 39a2 333e
00000030: df65 26be 7d17 893e 2c42 243e 3dc8 b6bd
00000040: ce03 11be 4397 32be 6cf7 7bbe 0712 1e3e
00000050: 310b 85bb 8b3f d8bd b846 b4bd 16c3 ae3b
00000060: dd62 82bc c7c6 60be 7a3c b3bc 3eb8 913d
00000070: edd2 babe 741c 1dbe 224d 833d 7692 7a3d

blocks.layers.2.ffwd.net.layers.0.weight f4 [32, 8]
-0.16369732 -0.3865836 0.023878947 0.35007146 0.024994537 0.3963215 -0.13886957 -0.045281123
-0.08524035 0.101489544 0.062861465 -0.29192856 -0.2986574 0.021962337 0.18374537 0.38623166
-0.31852403 -0.08136944 0.2223371 0.18117514 0.062136758 -0.1125674 -0.0007804889 -0.08120199
-0.2930136 0.1526554 -0.18624538 -0.20046832 0.13864486 -0.09873863 -0.29641432 0.032660756
0.5125034 -0.24851573 -0.07007767 -0.16957036 0.28235662 0.079199225 0.32408494 -0.11273269
0.44958472 0.054205976 0.1144458 0.12683079 0.15245156 0.11107617 -0.25922906 0.25126702
0.15721083 0.36404034 0.41139552 -0.26729134 0.3714142 -0.14348245 -0.51423764 -0.25016105
-0.3657356 0.2988647 0.31166688 0.19090106 -0.15462461 -0.34646538 -0.002751714 -0.32360613
0.4094131 0.045868978 -0.33239034 -0.051911164 -0.11154725 0.0051873447 -0.3106105 0.110320866
-0.04615933 0.35873553 -0.40126696 0.049593594 -0.341179 -0.40778202 0.052597422 0.22027506
0.18573242 -0.13159704 0.13773803 -0.22062343 0.2187201 -0.22302906 -0.13490511 0.35381192
0.32208008 0.17605233 0.017760482 -0.23886482 -0.026451165 0.34936425 -0.17308651 0.3066388
-0.33528352 0.21524464 0.11342253 -0.28672215 -0.17604008 -0.11591591 0.30639908 -0.14268367
-0.2027764 0.1562508 -0.363741 0.31445864 -0.38593027 0.045597497 -0.16606961 -0.40072596
0.2409369 -0.19920985 -0.37700883 -0.10950102 0.070858665 -0.11612497 0.06984561 0.094345175
-0.02708296 -0.29455066 -0.090998515 -0.31216037 0.16104192 -0.2080219 0.06409269 -0.1482513
-0.4328357 0.02861165 -0.24650374 0.0932519 -0.18699713 -0.32036108 -0.44529074 0.14749217
0.26592192 0.03605657 0.08048182 -0.0006944515 0.4384958 -0.39503783 -0.16075653 0.070297256
-0.17728384 -0.45988393 -0.054460704 0.11743867 0.39485252 0.22402024 -0.2973018 -0.3310297
-0.37404594 -0.098568685 -0.15830116 0.39410046 0.107775725 -0.32230204 -0.4851743 0.334118
0.41094226 0.32492036 0.12421075 0.02326527 0.20076028 0.2743936 -0.20194843 0.04000986
-0.2713074 0.104592875 0.009935671 -0.090153694 -0.40627697 0.34247175 -0.044897106 0.2769532
-0.046717674 -0.051894996 0.26660657 -0.21630825 -0.15603328 -0.28003946 -0.13063036 0.12906042
-0.07080262 -0.11077842 0.3400675 0.20627879 0.38753736 0.2564437 0.34611633 -0.09014762
-0.14090025 0.16748162 0.06920694 0.16740355 0.03752542 -0.11744903 -0.008290013 -0.4214953
-0.23085839 -0.060457133 -0.14817542 -0.24660319 -0.19921045 0.31796342 0.08476585 0.046500884
0.37012613 -0.2592967 0.088102005 -0.12612785 -0.16010891 0.16556807 0.18345235 -0.163338
0.15028863 -0.15459767 0.23488024 0.011875949 -0.13072386 -0.3970837 0.4623248 0.10656288
-0.06883461 0.025527827 -0.33671945 0.09983048 -0.23079552 0.27232373 -0.5137995 -0.11709758
-0.1564039 -0.4607625 -0.2215699 0.38594383 -0.14438592 0.39089182 0.18712987 0.2198652
-0.16939661 -0.07295947 -0.43805936 -0.24210836 -0.09319406 0.095620036 -0.025536792 -0.27472624
-0.14669058 0.31698257 0.19954349 0.34237814 0.17280374 0.033500995 0.36077228 -0.25416413
00000000: 45a0 27be 49ee c5be c89d c33c 913c b33e
00000010: 58c1 cc3c a7ea ca3e d333 0ebe b378 39bd
00000020: 7e92 aebd c0d9 cf3d 83bd 803d a977 95be
00000030: 9fe9 98be 5cea b33c bf27 3c3e 28c0 c53e
00000040: 9515 a3be 05a5 a6bd 56ac 633e fa85 393e
00000050: 1d83 7e3d bd89 e6bd b999 4cba 3b4d a6bd
00000060: e105 96be b251 1c3e 1cb7 3ebe 9147 4dbe
00000070: ebf8 0d3e 7b37 cabd 9ec3 97be 49c7 053d
00000080: 6c33 033f e87a 7ebe e284 8fbd daa3 2dbe
00000090: 0c91 903e 3433 a23d 76ee a53e 66e0 e6bd
000000a0: f82f e63e 1607 5e3d 8f62 ea3d eedf 013e
000000b0: 431c 1c3e e77b e33d acb9 84be 12a6 803e
000000c0: e0fb 203e 7f63 ba3e 6fa2 d23e 69da 88be
000000d0: 012a be3e 10ed 12be 14a5 03bf 1c15 80be
000000e0: b241 bbbe cb04 993e cd92 9f3e 917b 433e
000000f0: ea55 1ebe e963 b1be 1a56 34bb b4af a5be
00000100: 989e d13e 1ce1 3b3d 112f aabe cda0 54bd
00000110: e272 e4bd 9afa a93b 5708 9fbe e8ef e13d
00000120: 9111 3dbd 2fac b73e dd72 cdbe a722 4b3d
00000130: 04af aebe cec8 d0be 6570 573d c98f 613e
00000140: a430 3e3e 60c1 06be 330b 0d3e 1ceb 61be
00000150: 29f8 5f3e bb61 64be 9124 0abe d626 b53e
00000160: aee7 a43e 1047 343e 6e7e 913c fb98 74be
00000170: 1db0 d8bc dfdf b23e 973d 31be c3ff 9c3e
00000180: 48aa abbe 1769 5c3e 124a e83d 3fcd 92be
00000190: da43 34be 5265 edbd 57e0 9c3e ab1b 12be
000001a0: 9ea4 4fbe 3600 203e 433c babe b900 a13e
000001b0: a798 c5be 71c4 3a3d 270e 2abe f42b cdbe
000001c0: 2ab8 763e abfd 4bbe 4d07 c1be 1242 e0bd
000001d0: 591e 913d eed2 edbd 370b 8f3d 0b38 c13d
000001e0: 15dd ddbc 58cf 96be 6e5d babd 7cd3 9fbe
000001f0: 2ce8 243e b103 55be 0743 833d 30cf 17be
00000200: a49c ddbe fb62 ea3c 7a6b 7cbe dafa be3d
00000210: 2d7c 3fbe 5e06 a4be 26fd e3be 3008 173e
00000220: eb26 883e 0eb0 133d a7d3 a43d da0b 36ba
00000230: 8682 e03e 6642 cabe 5c9d 24be 02f8 8f3d
00000240: e589 35be e875 ebbe 3012 5fbd af83 f03d
00000250: 1c2a ca3e 9065 653e f137 98be ba7c a9be
00000260: f382 bfbe 61de c9bd b319 22be 89c7 c93e
00000270: 85b9 dc3d c604 a5be c468 f8be 8411 ab3e
00000280: 0667 d23e f65b a63e 3562 fe3d cf96 be3c
00000290: 1a94 4d3e 517d 8c3e 92cb 4ebe 61e1 233d
000002a0: cee8 8abe ca34 d63d 3ac9 223c 80a2 b8bd
000002b0: 8903 d0be 7558 af3e 07e6 37bd cfcc 8d3e
000002c0: 085b 3fbd d98f 54bd a880 883e e97f 5dbe
000002d0: 30c7 1fbe 5561 8fbe f7c3 05be 6a28 043e
000002e0: f700 91bd ccdf e2bd 541d ae3e bf3a 533e
000002f0: 4c6b c63e 974c 833e 2936 b13e 519f b8bd
00000300: 2848 10be 4d80 2b3e 5ebc 8d3d d66b 2b3e
00000310: 41b4 193d 1e89 f0bd d6d2 07bc 3bce d7be
00000320: 2466 6cbe e6a1 77bd 4cbb 17be 8c85 7cbe
00000330: d3fd 4bbe 1acc a23e b899 ad3d b677 3e3d
00000340: 2c81 bd3e 89c2 84be d36e b43d a927 01be
00000350: 97f3 23be ad8a 293e efda 3b3e 1442 27be
00000360: 43e5 193e da4e 1ebe 7284 703e 5793 423c
00000370: 7adc 05be 8e4e cbbe d6b5 ec3e a43d da3d
00000380: 29f9 8cbd bc1f d13c 7e66 acbe ec73 cc3d
00000390: a955 6cbe 046e 8b3e 5d88 03bf dbd0 efbd
000003a0: 5828 20be 10e9 ebbe 38e3 62be 6e9a c53e
000003b0: e7d9 13be f922 c83e f99e 3f3e 5824 613e
000003c0: 4e76 2dbe c66b 95bd 5149 e0be 41eb 77be
000003d0: 87dc bebd 70d4 c33d 8932 d1bc eba8 8cbe
000003e0: 0e36 16be 8a4b a23e 2155 4c3e 304c af3e
000003f0: 77f3 303e 5738 093d 25b7 b83e cd21 82be

blocks.layers.2.ffwd.net.layers.2.bias f4 [8]
-0.032771926 0.122160815 0.026613986 0.16613847 -0.05757587 -0.063527204 -0.07277405 -0.031823974
00000000: db3b 06bd 732f fa3d 9305 da3c 3420 2a3e
00000010: add4 6bbd 8d1a 82bd 900a 95bd db59 02bd
