OLD_CelloGPT/weights.safetensors (safetensors, 115106 bytes, 188 tensors)

decoder_stack.0.ca.heads.0.key.weight f4 [4, 16]
0	0x3e8a16d6	0.26970547
1	0x3e1e966a	0.15487066
2	0xbdad5504	-0.08463481
3	0xbe15e748	-0.14639008
4	0xbe0df878	-0.13864315
5	0xbe47cece	-0.19512483
6	0xbe637fd5	-0.22216733
7	0xbe922ec6	-0.2855131
8	0xbe23bda9	-0.15990318
9	0xbe1bacea	-0.1520268
10	0x3e216172	0.15759829
11	0x3d816879	0.06318755
12	0x3d0fcf12	0.035109587
13	0x3da14e92	0.07876314
14	0xbc24c4bc	-0.010056671
15	0xbdd1f32b	-0.10251459
16	0xbe6552f9	-0.22394933
17	0x3e8be4f6	0.2732312
18	0x3e961fd6	0.29321164
19	0xbe9e6bd3	-0.30941638
20	0x3dd4e8ca	0.103959635
21	0x3e4f46cf	0.20241855
22	0xbe29617e	-0.16541097
23	0x3e951ada	0.2912205
24	0x3cfc231e	0.030778464
25	0x3e8be0c6	0.27319926
26	0xbe5f8c58	-0.2183088
27	0xbe1408a5	-0.14456423
28	0x3e1077fe	0.14108273
29	0x3df71125	0.12063817
30	0xbdce72a0	-0.10080457
31	0xbd4ee122	-0.050507672
32	0xbd881336	-0.06644289
33	0xbdb019dd	-0.08598683
34	0x3e923439	0.28555468
35	0x3dd871b6	0.10568564
36	0x3dd20f0a	0.10256775
37	0x3e9cdf78	0.30639243
38	0xbdd0e78f	-0.10200416
39	0x3df4c120	0.11950898
40	0x3e5a481a	0.21316567
41	0x3e8a9413	0.27066097
42	0x3c39a9b7	0.011331967
43	0xbe231f74	-0.15929967
44	0xbe6a3afc	-0.22874063
45	0x3db2f7e8	0.087386906
46	0x3dba8e68	0.09109193
47	0x3dd934be	0.10605763
48	0xbe339aba	-0.17539492
49	0xbe1e800b	-0.15478532
50	0xbe5003df	-0.20313977
51	0x3e82ab6b	0.25521407
52	0x3dbeadcc	0.09310493
53	0x3dc97a23	0.09837749
54	0x3e0d230b	0.13782899
55	0x3dc19c88	0.09453684
56	0xbdbb9196	-0.09158628
57	0xbcde6ca4	-0.027151413
58	0x3d2933d8	0.041309208
59	0xbd720be1	-0.05909336
60	0x3e8523d0	0.26003885
61	0x3e9c4b4c	0.30526197
62	0xbe45911b	-0.19293635
63	0xbd8837be	-0.06651257

decoder_stack.0.ca.heads.0.query.weight f4 [4, 16]
0	0x3e00c14c	0.12573737
1	0xbdb1769e	-0.086652026
2	0xbd7cca0f	-0.061716136
3	0xbe3c0cc5	-0.18364246
4	0x3e2c8f3f	0.16851519
5	0xbe55eaf4	-0.20890409
6	0xbe490b4e	-0.19633219
7	0x3d999c13	0.07500472
8	0xbccd954f	-0.02509561
9	0x3e1770da	0.14789143
10	0x3e6958af	0.22787736
11	0xbe22062b	-0.15822665
12	0x3d7f9332	0.062396236
13	0x3e8265a4	0.2546817
14	0xbe35d8cc	-0.17758483
15	0xbda849ad	-0.082171775
16	0x3cefa845	0.029255042
17	0xbe010273	-0.1259859
18	0x3e7ed19c	0.24884647
19	0xbd8e4472	-0.06946649
20	0x3d9ed9d1	0.07756389
21	0x3d10710b	0.035264056
22	0x3e6beb23	0.23038916
23	0x3e63d982	0.22250941
24	0x3ddf018f	0.10888969
25	0xbe61e88f	-0.2206137
26	0xbea8ad30	-0.32944632
27	0xbdadedc5	-0.084926166
28	0xbe96625b	-0.29371914
29	0x3e0d769c	0.13814777
30	0xbde1831d	-0.11011336
31	0xbe94d63f	-0.29069707
32	0x3e1d309e	0.15350577
33	0xbe156ce4	-0.1459232
34	0x3e35ab13	0.17741041
35	0x3d298da4	0.041394845
36	0xbdc4bd3a	-0.096064046
37	0xbd395951	-0.045251194
38	0x3e8730a5	0.264043
39	0x3e151d20	0.14561892
40	0x3e2983b3	0.16554146
41	0x3dd69a3c	0.104786366
42	0xbe791c2e	-0.24327156
43	0x3e8673a7	0.2626011
44	0xbd48429b	-0.048891645
45	0xbda31353	-0.0796267
46	0xbc3b2fcd	-0.011424971
47	0xbd8cc08b	-0.06872662
48	0xbe0a91f2	-0.13532236
49	0x3e683906	0.22678003
50	0xbdc3f723	-0.09568622
51	0xbe808e82	-0.25108725
52	0x3d5ccef9	0.053908322
53	0x3e24f0e6	0.1610752
54	0x3e35dab1	0.17759205
55	0xbe30d280	-0.172678
56	0xbb70a816	-0.003672128
57	0xbe9d2f96	-0.30700368
58	0x3ea49671	0.32146028
59	0x3d0f114f	0.034928616
60	0x3d831d4d	0.06402073
61	0xbd33589d	-0.04378568
62	0xbde4598d	-0.11149893
63	0x3dcc4949	0.099749155

decoder_stack.0.ca.heads.0.value.weight f4 [4, 16]
0	0x3e057172	0.13031557
1	0xbdc6ca3c	-0.09706542
2	0xbdca710e	-0.09884845
3	0x3e225b37	0.15855108
4	0xbe06fb08	-0.13181698
5	0xbe467506	-0.19380578
6	0x3dcf9e1c	0.10137579
7	0xbc6b19aa	-0.0143493805
8	0xbe09ee4b	-0.13469808
9	0xbe7f02b1	-0.2490337
10	0x3e5efa4b	0.21775167
11	0xbb6cba03	-0.0036121614
12	0x3d7381ab	0.059449833
13	0x3e837b19	0.25679854
14	0xbe2186f6	-0.1577414
15	0xbe58bd7c	-0.21166033
16	0xbe72fbd9	-0.23728885
17	0xbdeeade1	-0.116542585
18	0xbd0a81d1	-0.03381521
19	0x3d1d5032	0.03840656
20	0xbb8601d7	-0.004089575
21	0xbe361a46	-0.1778346
22	0xbcc46445	-0.023973593
23	0x3cf8be27	0.03036411
24	0xba9f06a7	-0.001213272
25	0x3cf85b6b	0.030317029
26	0xbe277b34	-0.16355592
27	0xbe4f5bd2	-0.2024987
28	0x3e20d69e	0.1570687
29	0x3d674064	0.056457892
30	0xbdca6645	-0.098827876
31	0x3dc5eb32	0.096640006
32	0x3df94ee7	0.121732526
33	0xbd0d8fac	-0.034560844
34	0xbe4e7bf0	-0.20164466
35	0x3d88ea71	0.06685341
36	0xbe3ef96d	-0.18649836
37	0xbddb1971	-0.10698212
38	0x3dddbec8	0.10827404
39	0x3dbf5b6e	0.09343611
40	0x3e391331	0.18073727
41	0x3da2e649	0.0795408
42	0x3dc3572d	0.09538112
43	0xbd80ef5b	-0.062956534
44	0xbe3931f6	-0.18085465
45	0x3d085043	0.03327967
46	0xbda5cdea	-0.080959156
47	0xbb8468c4	-0.0040408093
48	0xbe7afb2f	-0.24509881
49	0xbe0dc8e6	-0.13846168
50	0x3ddde9e4	0.10835627
51	0x3d746cc6	0.059674047
52	0x3d46f6a8	0.048575073
53	0x3dc043c4	0.09387925
54	0x3d1b3d04	0.037899986
55	0xbe49140a	-0.1963655
56	0x3d8650fb	0.065584145
57	0x3e66fd10	0.22557473
58	0xbe6ae6d0	-0.2293961
59	0xbe365fe0	-0.17810011
60	0xbe32f424	-0.17475945
61	0xbc91b816	-0.017787974
62	0xbd69a705	-0.057044048
63	0x3e4d9388	0.2007581

decoder_stack.0.ca.heads.1.key.weight f4 [4, 16]
0	0xbe148839	-0.1450509
1	0x3dd6e3e4	0.104926854
2	0xbd8ebd0a	-0.0696965
3	0x3cd51ae1	0.026013793
4	0xbe49691f	-0.19669007
5	0x3cd0544f	0.025430826
6	0xbda0353b	-0.07822653
7	0xbe242cb8	-0.16032684
8	0x3e9d1562	0.30680376
9	0x3c619bb4	0.013770033
10	0x3ea60e39	0.32432726
11	0xbd9eca32	-0.077534094
12	0xbd27a5d4	-0.04092963
13	0x3de4c140	0.11169672
14	0xbd026ea2	-0.03184379
15	0x3d70614e	0.058686547
16	0x3e988b05	0.29793563
17	0x3cde44e8	0.027132466
18	0x3d880c07	0.06642919
19	0x3c4278c8	0.011869617
20	0x3e1869e5	0.14884146
21	0x3cd3bc2b	0.025846561
22	0x3cc0262a	0.023455698
23	0xbe194dfb	-0.14971153
24	0xbe0e43cf	-0.13893054
25	0x3e623125	0.2208906
26	0x3cd04219	0.025422143
27	0x3e248b9d	0.16068883
28	0x3e21c652	0.1579831
29	0x3db771e5	0.089572705
30	0x3d8bab56	0.06819789
31	0xbe864c15	-0.2622992
32	0x3e55588b	0.20834558
33	0xbdfe1833	-0.124069594
34	0x3d9d99f7	0.07695382
35	0x3dce1b08	0.100637496
36	0xbe4a0fb3	-0.19732551
37	0xbe885702	-0.26628882
38	0x3d6c5c8c	0.057705447
39	0x3d7117f6	0.05886074
40	0x3d63c5c8	0.05560854
41	0xbe20ec6d	-0.1571519
42	0xbe836e6f	-0.25670192
43	0xbdb8dcba	-0.09026475
44	0xbe4e93b6	-0.20173535
45	0xbe5f6edf	-0.21819638
46	0x3d665cea	0.056240954
47	0xbd8ea480	-0.0696497
48	0x3d346257	0.044039097
49	0xbd9ede6f	-0.077572696
50	0x3e1745b7	0.14772688
51	0xbe5c1207	-0.21491252
52	0x3e2bddf5	0.16783889
53	0xbe46a1bf	-0.19397639
54	0x3e0d85d4	0.13820583
55	0xbddce2d5	-0.10785452
56	0xbe72d10c	-0.23712558
57	0x3e2a3297	0.16620861
58	0xbdbb9ff1	-0.09161366
59	0xbcc9fcc5	-0.024656663
60	0x3bbe2116	0.005802284
61	0x3d7706a6	0.060309075
62	0x3e198a63	0.14994197
63	0x3dc837cc	0.097762674

decoder_stack.0.ca.heads.1.query.weight f4 [4, 16]
0	0xbde301b8	-0.11084312
1	0xbe65c236	-0.22437367
2	0x3e662947	0.22476684
3	0xbd9d9ccf	-0.076959245
4	0x3de71ced	0.11284814
5	0xbe2da4a3	-0.16957335
6	0x3d766f3b	0.06016467
7	0x3dcba03c	0.09942672
8	0xbd06c8d8	-0.032906383
9	0x3e1c69a3	0.15274672
10	0xbe9ca33e	-0.30593294
11	0x3e4ac765	0.19802625
12	0xbdf207a7	-0.11817866
13	0xbe84ffe2	-0.25976473
14	0xbdaced34	-0.084436804
15	0xbe5276a9	-0.20553078
16	0xbe87c344	-0.26516163
17	0x3e00cfe5	0.12579305
18	0xbe022606	-0.12709817
19	0x3e55e6eb	0.2088887
20	0xbe0f4703	-0.13991933
21	0xbd875e76	-0.06609814
22	0xbe2ed09d	-0.17071767
23	0x3dc2c779	0.09510703
24	0x3e139952	0.14413956
25	0x3d6dae1c	0.05802737
26	0x3b4eab68	0.0031535272
27	0x3da6bcb4	0.08141461
28	0x3ccce67c	0.025012247
29	0x3d8dd641	0.06925631
30	0xbda56c4e	-0.08077298
31	0xbe99c3d5	-0.3003222
32	0xbc013369	-0.007885792
33	0xbe0a3abd	-0.1349897
34	0xbe0dcae2	-0.13846925
35	0x3e761187	0.24030124
36	0x3de1510f	0.11001789
37	0xbdb8509b	-0.08999749
38	0x3c59eb5d	0.013300744
39	0x3e07cf18	0.13262594
40	0x3d48d75f	0.04903352
41	0xbe935664	-0.28776848
42	0x3eac578f	0.33660552
43	0x3db9d495	0.0907375
44	0xbe05f9e5	-0.13083608
45	0x3ca41743	0.020030623
46	0x3e545424	0.20735222
47	0xbe64947b	-0.22322266
48	0x3c566317	0.013085148
49	0xbc325a45	-0.01088578
50	0xbe2ac497	-0.16676556
51	0x3ddb7fd8	0.10717744
52	0x3df5adc2	0.11996032
53	0xbe874b4f	-0.26424643
54	0xbdb9fca1	-0.09081388
55	0xbe7a813d	-0.24463363
56	0xbd21abee	-0.039470606
57	0x3dcc01e6	0.099612996
58	0xbe01e329	-0.12684311
59	0x3e7be3a6	0.2459856
60	0xbe63505d	-0.22198625
61	0xbd03dcf6	-0.032193147
62	0x3c26277f	0.010141253
63	0x3e1dd1e2	0.15412095

decoder_stack.0.ca.heads.1.value.weight f4 [4, 16]
0	0x3e13349b	0.14375536
1	0xbc099273	-0.008396733
2	0xbe6b422e	-0.22974464
3	0xbe44ff66	-0.19238052
4	0xbe81a42f	-0.25320575
5	0xbd8d4d6d	-0.068995334
6	0x3e5915b4	0.21199685
7	0x3d98eb67	0.074667744
8	0xbe1cdac2	-0.15317824
9	0xbd7e2f91	-0.06205708
10	0xbe5b4a4a	-0.21415058
11	0x3e4510c0	0.19244671
12	0xbe0f6cd8	-0.14006364
13	0x3db5313f	0.088472836
14	0xbdfdf913	-0.12401023
15	0xbe390b56	-0.1807073
16	0x3e70602a	0.23474184
17	0xbd970eb0	-0.07375848
18	0x3de763b9	0.112983175
19	0xbc8111b3	-0.01575551
20	0x3e53af98	0.20672452
21	0xbe531df7	-0.206169
22	0xbe06d499	-0.13167037
23	0x3df1937d	0.11795709
24	0xbe56aa38	-0.20963371
25	0xbccb529d	-0.024819667
26	0xbe4dd527	-0.20100842
27	0xbd9dc3a0	-0.07703328
28	0xbdea80fd	-0.11450384
29	0x3e219055	0.15777715
30	0x3d9598b7	0.07304519
31	0x3e5d1305	0.21589287
32	0x3e47e277	0.19519983
33	0xbc470032	-0.012146043
34	0x3dacb08e	0.08432113
35	0x3ca8fcf3	0.020628428
36	0xbd953300	-0.07285118
37	0xbdaaeb8c	-0.08345708
38	0x3e506ddf	0.20354412
39	0x3dc21992	0.094775334
40	0x3e552745	0.20815761
41	0xbdea20e0	-0.11432052
42	0x3d0126e7	0.03153124
43	0xbbed7150	-0.007246174
44	0x3df836f0	0.121198535
45	0x3c6b34a0	0.0143558085
46	0xbdc28a86	-0.094990775
47	0x3de486e6	0.11158542
48	0xbe0575f3	-0.13033275
49	0xbdb02c4e	-0.086022004
50	0xbd9468c6	-0.072465464
51	0x3e065c2d	0.131211
52	0x3df2ca72	0.1185502
53	0xbe3e11f9	-0.18561544
54	0xbdcf0edc	-0.10110256
55	0xbe4d1abd	-0.20029731
56	0x3e3b944e	0.18318292
57	0x3e4dce2e	0.20098183
58	0x3e12a953	0.14322405
59	0x3d99de20	0.0751307
60	0x3cb39602	0.021922115
61	0x3d39d47b	0.045368653
62	0xbb5e5ebc	-0.0033930978
63	0xbd997418	-0.07492846

decoder_stack.0.ca.heads.2.key.weight f4 [4, 16]
0	0xbdd0888b	-0.101822935
1	0x3cd7208d	0.026260639
2	0x3d92531f	0.0714476
3	0xbd8a2460	-0.06745219
4	0x3e0850d5	0.13312085
5	0x3e668f1c	0.2251553
6	0xbd4d3f1f	-0.050109025
7	0x3c1cbb4d	0.00956614
8	0x3decb139	0.1155724
9	0x3e9c562d	0.30534497
10	0xbcbf1482	-0.023325209
11	0xbe3738e2	-0.17892793
12	0xbdebd270	-0.11514747
13	0x3e15c29b	0.14625017
14	0x3d7b9878	0.061424702
15	0xbe97f49c	-0.2967881
16	0xbe2a9bd5	-0.16661008
17	0xbdf0d86d	-0.1176003
18	0x3c366bf8	0.01113414
19	0xbe961a75	-0.2931706
20	0x3e2891ac	0.1646182
21	0xbd718468	-0.058964163
22	0x3e3b2036	0.18274006
23	0xbe3f2d3b	-0.18669598
24	0x3d7c1cd4	0.06155093
25	0xbd148cb0	-0.036266983
26	0xbe1836bf	-0.14864634
27	0x3e3dcad2	0.18534401
28	0xbd91b8bc	-0.071153134
29	0xbe78801b	-0.24267618
30	0x3e5b6893	0.2142661
31	0xbd0ca2ee	-0.03433507
32	0x3e24ac61	0.16081382
33	0xbdaf4cd9	-0.085595794
34	0x3d95b6c8	0.073102534
35	0xbe0968e3	-0.13418917
36	0xbdea1b2a	-0.114309624
37	0xbd87cf8d	-0.06631384
38	0x3dd6ef30	0.1049484
39	0x3b96e022	0.0046043554
40	0xbe57f177	-0.21088205
41	0x3e2b211b	0.16711847
42	0x3dc9a8c7	0.09846645
43	0xbdb8f26b	-0.090306126
44	0xbdeb74ae	-0.11496864
45	0xbce6e556	-0.028185528
46	0x3e1d95e7	0.15389214
47	0x3e86d900	0.26337433
48	0x3e0039be	0.12522027
49	0x3d4b6c80	0.04966402
50	0xbe549668	-0.207605
51	0x3e0cdaad	0.13755293
52	0x3e8be8bc	0.27326
53	0xbdcd1353	-0.100134514
54	0x3e209e3b	0.1568536
55	0xbe4058d8	-0.18783891
56	0xbe29fddd	-0.16600747
57	0xbe02b26b	-0.12763374
58	0x3b8f66d0	0.00437627
59	0x3c6ec111	0.014572398
60	0x3d9ebdd1	0.07751048
61	0xbe453515	-0.1925853
62	0x3e562e84	0.20916182
63	0xbdc76456	-0.097359344

decoder_stack.0.ca.heads.2.query.weight f4 [4, 16]
0	0x3e78dbdc	0.2430262
1	0x3e87b45d	0.26504794
2	0x3d9bf6fe	0.076154694
3	0xbe414156	-0.1887258
4	0xbaed2cfc	-0.0018095071
5	0x3bbf7917	0.0058432925
6	0xbe0d173b	-0.13778393
7	0x3e1b88fd	0.15188976
8	0xbd9f3152	-0.07773079
9	0x3d75076a	0.059821524
10	0xbd36ebee	-0.044658594
11	0x3dba3c4f	0.09093534
12	0xbdf45136	-0.11929552
13	0x3c389d6c	0.011268001
14	0x3d0adac1	0.033900026
15	0x3c4bab66	0.012431001
16	0xbe054b1a	-0.1301693
17	0x3ea79abc	0.3273524
18	0xbd9a92b1	-0.075475104
19	0x3dcb3c00	0.099235535
20	0xbe2e1694	-0.170008
21	0x3e330a1d	0.17484327
22	0xbe0d7333	-0.13813476
23	0x3e037361	0.12836982
24	0xbb57ac38	-0.0032909047
25	0x3cf1599f	0.02946168
26	0xbe070184	-0.13184172
27	0x3e04de44	0.12975413
28	0x3e00385e	0.12521502
29	0xbe1b6725	-0.15176065
30	0xbe472e9e	-0.19451377
31	0x3df5a349	0.11994035
32	0x3d76ae2d	0.0602247
33	0xbe486526	-0.19569835
34	0x3e05bb37	0.13059698
35	0x3e166661	0.14687492
36	0x3d03fa60	0.032221198
37	0x3e5470f8	0.20746219
38	0x3cbe6edf	0.023246227
39	0xbdb5397c	-0.08848855
40	0x3d4cf343	0.05003668
41	0xbd286e97	-0.04112109
42	0x3e88f1a7	0.26746866
43	0x3e59be73	0.21264057
44	0x3c3a3206	0.011364466
45	0xbe5b6866	-0.21426544
46	0xbe8838ed	-0.2660593
47	0x3e95bfa8	0.29247785
48	0xbe275ccf	-0.16343997
49	0x3daec7ec	0.08534226
50	0xbd9ebcbb	-0.07750841
51	0x3e6917f6	0.22763047
52	0xbcf0c21c	-0.029389434
53	0x3c9d414e	0.019196179
54	0xbd41f569	-0.047353182
55	0xbc244570	-0.010026321
56	0xbd48756d	-0.04894011
57	0xbe71e55b	-0.23622648
58	0x3e6e1645	0.23250683
59	0x3e850b41	0.2598515
60	0x3dba72d6	0.091039345
61	0x3e81421e	0.25245756
62	0x3e6ce8ae	0.23135635
63	0x3e0c8757	0.13723503

decoder_stack.0.ca.heads.2.value.weight f4 [4, 16]
0	0x3e6694dc	0.22517723
1	0xbdabebe6	-0.083946034
2	0x3d981237	0.07425349
3	0xbe0fd512	-0.14046124
4	0x3d22a360	0.039706588
5	0x3d1066dc	0.035254344
6	0x3d2cb86f	0.042168077
7	0xbdb0fecc	-0.08642349
8	0x3c0a36ec	0.008435946
9	0xbe114bd6	-0.14189085
10	0xbe1eea85	-0.1551915
11	0xbe41e7a1	-0.18936016
12	0xbdf7477c	-0.120741814
13	0xbe4ad9da	-0.19809666
14	0xbe03b39c	-0.12861484
15	0xbd947d20	-0.07250428
16	0xbe860211	-0.26173452
17	0x3e7d2dcc	0.24724501
18	0xbd8abe71	-0.06774605
19	0x3db9379f	0.09043812
20	0xbd5628a6	-0.05228486
21	0x3d6b4072	0.057434507
22	0x3dbe58e8	0.09294301
23	0x3bbca0b3	0.0057564615
24	0xbe84f503	-0.2596818
25	0xbe7d87be	-0.24758813
26	0xbd01bd38	-0.031674594
27	0xbcae2a7c	-0.021260493
28	0x3e1268e0	0.14297819
29	0x3da9be80	0.08288288
30	0xbd81702a	-0.06320222
31	0xbdd274c9	-0.10276181
32	0x3d155640	0.036459208
33	0xbc32c42e	-0.010911031
34	0xbe70fee7	-0.23534738
35	0x3dc1a78b	0.094557844
36	0x3e844bfc	0.2583922
37	0xbe095f20	-0.13415194
38	0xbc2da431	-0.010598228
39	0x3c9ddb6b	0.019269666
40	0x3e702ddf	0.23454998
41	0xbd540c67	-0.05176964
42	0x3d23ce35	0.039991576
43	0x3d963d87	0.07335954
44	0x3e09cfde	0.13458201
45	0x3ce625d4	0.02809421
46	0xbcdc69ee	-0.02690598
47	0xbe1702d6	-0.14747176
48	0x3d58586e	0.052818708
49	0xbd98b698	-0.07456702
50	0x3e5e1057	0.2168592
51	0x3d88ccf4	0.06679717
52	0xbd7ac959	-0.061227176
53	0xbdc5c6d3	-0.09657063
54	0xbe4c2c13	-0.19938688
55	0x3e3cc6d7	0.18435226
56	0xbe17ea79	-0.14835538
57	0xbe250447	-0.16114913
58	0x3add860f	0.0016900914
59	0xbe68e222	-0.22742513
60	0xbe32e822	-0.17471364
61	0x3dfbd9f0	0.12297428
62	0xbd91130c	-0.07083711
63	0xbe7e3f5f	-0.24828862

decoder_stack.0.ca.heads.3.key.weight f4 [4, 16]
0	0xbb5fb296	-0.0034133545
1	0xbe04374f	-0.12911724
2	0x3dbfe163	0.09369161
3	0x3e08cbbc	0.13358968
4	0x3d216f9f	0.03941309
5	0xbbc01011	-0.0058612903
6	0xbe7eeaa4	-0.24894196
7	0x3e4ce535	0.2000931
8	0x3d2ca9c6	0.042154096
9	0xbc65b1db	-0.014019455
10	0x3e2f5cf4	0.17125303
11	0x3e759687	0.23983203
12	0xbe1b75b5	-0.1518162
13	0x3e0b748c	0.13618678
14	0xbe94a841	-0.29034618
15	0x3e27e1f3	0.16394787
16	0xbd879767	-0.066206746
17	0xbd414a44	-0.047189966
18	0x3daf13d6	0.08548705
19	0xbe22795e	-0.1586661
20	0x3e1a4fd8	0.1506952
21	0x3e96b638	0.29435897
22	0x3e8c6651	0.2742181
23	0xbe9b5f4e	-0.3034615
24	0xbba30212	-0.004974612
25	0xbe0a5893	-0.13510351
26	0xbd5cc2b1	-0.05389661
27	0x3da859c6	0.08220248
28	0x3e0a509e	0.13507316
29	0xbdae00c5	-0.084962405
30	0x3dd5a080	0.104310036
31	0xbe37996e	-0.17929623
32	0xbe2fabd7	-0.17155395
33	0x3da3560f	0.07975399
34	0x3cbf6d64	0.023367591
35	0xbe7e3373	-0.24824314
36	0xbddea9e1	-0.108722456
37	0xbda802ee	-0.08203684
38	0x3e5865ec	0.2113263
39	0xbdfbffac	-0.12304625
40	0xbe555d69	-0.20836414
41	0xbdbbcb6a	-0.091696575
42	0xbe6f1965	-0.23349531
43	0x3e251a29	0.1612326
44	0x3dc25925	0.09489659
45	0xbe27b963	-0.16379313
46	0x3d84ccec	0.06484398
47	0xbddfb6f8	-0.109235704
48	0x3df7b27f	0.12094592
49	0xbdb57f3a	-0.08862157
50	0xbd967263	-0.07346036
51	0x3e97799d	0.2958497
52	0xbc032cf0	-0.008006319
53	0xbe56c8c1	-0.20975019
54	0xbe2380be	-0.1596708
55	0xb9a692a3	-0.0003177124
56	0xbdef55ee	-0.11686312
57	0xbe3a924a	-0.18219867
58	0xbe2e8d30	-0.17046046
59	0x3d096c0e	0.033550315
60	0x3e0a11fb	0.13483422
61	0x3e83e7bc	0.25762737
62	0x3e9269c6	0.28596324
63	0xbc93a7c2	-0.01802433

decoder_stack.0.ca.heads.3.query.weight f4 [4, 16]
0	0xbdada9fb	-0.08479687
1	0x3e84b46e	0.25918907
2	0x3e2c6584	0.168356
3	0x3bd0db4b	0.006373798
4	0x3def2597	0.116770916
5	0x3e7db671	0.24776627
6	0xbd2becb3	-0.04197378
7	0x3e510e6e	0.2041566
8	0xbe2e3b69	-0.1701485
9	0xbdcb7de0	-0.09936118
10	0xbe1f6ef5	-0.1556967
11	0x3d821a8f	0.06352722
12	0xbe910e6c	-0.28331316
13	0xbe8e9b0f	-0.27852675
14	0xbdd50b67	-0.104025654
15	0x3e32b990	0.17453599
16	0x3e1f3b04	0.15549856
17	0xbe2e85e9	-0.1704327
18	0x3d7e0cba	0.062023856
19	0x3dd8279c	0.1055443
20	0x3ea2cfc2	0.31799132
21	0xbe66b275	-0.22529013
22	0xbcbe461a	-0.023226786
23	0x3e4fa9e3	0.2027965
24	0xbd36e653	-0.044653248
25	0xbd4fd515	-0.05074032
26	0x3df7fadb	0.12108394
27	0xbd7d93e1	-0.061908606
28	0x3e4e43d9	0.2014307
29	0x3d832161	0.06402851
30	0xbe53b371	-0.2067392
31	0xbc1f64ba	-0.009728605
32	0x3e1d9f35	0.15392764
33	0xbe7bc2f9	-0.24586095
34	0x3dc96d74	0.0983533
35	0x3e5ff4b2	0.21870688
36	0x3e8c5d60	0.2741499
37	0xbd7ddbed	-0.061977316
38	0xbe254411	-0.16139247
39	0xbda28913	-0.07936301
40	0x3ba97ec9	0.0051725847
41	0x3da5cb57	0.080954246
42	0x3dd284e8	0.10279256
43	0xbb9c47ef	-0.0047693173
44	0x3daad877	0.08342069
45	0xbd8562c2	-0.06512977
46	0xbe4b945f	-0.19880818
47	0x3df54708	0.11976439
48	0x3cc0557f	0.023478268
49	0x3d6bd9c7	0.057580736
50	0x3dc64347	0.09680801
51	0xbdec7d00	-0.11547279
52	0x3e11592e	0.14194176
53	0xbca2fd2d	-0.019896114
54	0xbab8c09c	-0.0014095488
55	0xbe48598c	-0.1956541
56	0x3df8199e	0.12114261
57	0xbd1724ce	-0.036900334
58	0x3dfc075a	0.1230609
59	0x3daceb3c	0.08443305
60	0xbd676d2c	-0.0565006
61	0x3d9e8b5b	0.07741424
62	0xbdd52422	-0.104072824
63	0x3e499d93	0.19689016

decoder_stack.0.ca.heads.3.value.weight f4 [4, 16]
0	0xbe67a6da	-0.22622243
1	0x3e3a64fe	0.18202588
2	0xbe80bbf7	-0.25143406
3	0xbd5885c0	-0.05286193
4	0x3d22f3c9	0.039783273
5	0x3d8331be	0.06405972
6	0x3e012948	0.12613404
7	0x3e4220c8	0.18957818
8	0xbb050b12	-0.0020300788
9	0x3e19bf52	0.15014389
10	0x3e33503e	0.17511079
11	0xbe3faee0	-0.18719053
12	0xbe6c261e	-0.23061416
13	0xbe191ae7	-0.14951669
14	0xbe761088	-0.24029744
15	0xbe0360b3	-0.12829857
16	0xbdf2d695	-0.118573345
17	0xbe65b0bf	-0.22430705
18	0xbe572a06	-0.21012124
19	0x3e55c634	0.2087639
20	0x3e2bf88f	0.16794036
21	0xbd9d6014	-0.07684341
22	0x3e62bc55	0.22142155
23	0xbbc2d2d1	-0.0059455414
24	0xbd9a6005	-0.075378455
25	0x3e4fae4b	0.20281331
26	0x3cdf1026	0.02722938
27	0x3e3a46a6	0.18191013
28	0x3e17a398	0.148085
29	0xbe6eb08c	-0.23309535
30	0x3de57b00	0.11205101
31	0xbd27f054	-0.04100068
32	0xbbfce2c7	-0.0077174637
33	0xbe00497e	-0.12528035
34	0x3e136ad4	0.1439622
35	0x3e192490	0.14955354
36	0xbe164327	-0.14674054
37	0x3e5f9e87	0.21837817
38	0x3e06e658	0.13173807
39	0xbe3e0867	-0.18557893
40	0xbb3313ed	-0.002732511
41	0x3e25f152	0.16205338
42	0xbd48855b	-0.048955303
43	0x3dbad04e	0.09121762
44	0x3e440931	0.19144131
45	0xbe642f25	-0.22283609
46	0xbd63ec8c	-0.05564551
47	0xbd5d9184	-0.054093853
48	0xbe278870	-0.1636064
49	0xbd8e76ba	-0.06956239
50	0xbdba0358	-0.09082669
51	0x3ca8624b	0.020554682
52	0x3da456c2	0.0802436
53	0x3e273815	0.16329987
54	0xbd2d1168	-0.042252928
55	0xbd81c217	-0.06335848
56	0xbe6431d6	-0.22284636
57	0x3ad1f34e	0.0016017945
58	0xbe4cf93e	-0.20016953
59	0xbcb7f7b3	-0.02245698
60	0x3e5a9829	0.21347107
61	0xbde5a17a	-0.1121244
62	0x3e5c8ef2	0.21538904
63	0xbe40ce50	-0.18828702

decoder_stack.0.ca.proj.bias f4 [16]
0	0x3decc5ad	0.11561141
1	0x3e435186	0.19074067
2	0xbe27dce3	-0.16392855
3	0x3d984529	0.07435066
4	0xbdddc512	-0.10828604
5	0xbe21f0d0	-0.15814519
6	0xbe094c60	-0.13408041
7	0x3d4e8f19	0.050429437
8	0x3dbfa073	0.09356775
9	0xbdac973f	-0.084272854
10	0xbde384f7	-0.111093454
11	0x3d97252b	0.07380136
12	0x3e371bc8	0.17881691
13	0x3dc607b2	0.096694365
14	0xbdaf2c94	-0.085534245
15	0xbe3d02fa	-0.18458167

decoder_stack.0.ca.proj.weight f4 [16, 16]
0	0x3dfc3c5d	0.12316201
1	0x3d439c75	0.04775663
2	0x3e1e56bd	0.15462776
3	0xbe73abb7	-0.23795973
4	0x3e6f54f0	0.23372245
5	0x3d42d086	0.047562145
6	0xbdbdef96	-0.09274213
7	0x3e7b8510	0.24562478
8	0xbe595402	-0.21223453
9	0xbe709b49	-0.23496737
10	0xbe1003a9	-0.14063896
11	0xbd4a93ed	-0.04945748
12	0xbe2e500f	-0.17022727
13	0xbe4f0e51	-0.20220305
14	0xbd47dbe6	-0.048793696
15	0xbdcb95ea	-0.09940703
16	0xb89e894a	-7.559599e-05
17	0xbe06dd7e	-0.1317043
18	0x3e2ab017	0.16668735
19	0xbb8bd729	-0.0042675924
20	0xbde995e0	-0.114055395
21	0x3d86eec5	0.065885104
22	0xbc40b8e8	-0.011762835
23	0xbe503749	-0.2033359
24	0x3e123e13	0.14281492
25	0xbe4181ca	-0.18897167
26	0xbca6c8c8	-0.020359412
27	0xbd185b02	-0.037196167
28	0xbca37114	-0.01995138
29	0xbdf1c08c	-0.118043035
30	0x3df9426c	0.12170872
31	0x3e6dd2e4	0.2322498
32	0x3da5876e	0.08082472
33	0x3e13e0d0	0.14441228
34	0xbe7b2c17	-0.24528538
35	0xbd2c10df	-0.042008277
36	0x3e206435	0.15663226
37	0xbc4d5dda	-0.012534583
38	0x3e003eeb	0.12524001
39	0xbdbb0cd3	-0.091333054
40	0x3dd4e3e6	0.10395031
41	0x3e1c6e12	0.15276363
42	0xbd8784dc	-0.06617138
43	0x3d87c942	0.06630184
44	0x3c2511eb	0.010075073
45	0xbd292bb9	-0.041301463
46	0xbdbfb4e9	-0.09360678
47	0xbe30efa8	-0.17278922
48	0x3d6213bf	0.055194613
49	0xbda66bc2	-0.08126022
50	0xbe2da224	-0.16956383
51	0x3e20e712	0.15713146
52	0x3e239217	0.15973698
53	0xbe0dfb47	-0.13865386
54	0x3e265290	0.16242433
55	0xbd6de6a4	-0.058081284
56	0xbe02e6e6	-0.12783393
57	0x3d018223	0.03161825
58	0x3e324ec0	0.17412853
59	0x3c550027	0.013000525
60	0x3dd04fd8	0.10171479
61	0x3db528af	0.088456504
62	0xbe19dcb6	-0.15025601
63	0xbdb85f6f	-0.090025775
64	0x3e3347ad	0.17507811
65	0x3e41acba	0.18913546
66	0xbe7b063b	-0.24514095
67	0x3d18de82	0.037321575
68	0x3d324f54	0.043532684
69	0xbc7671c5	-0.015041773
70	0xbba938a8	-0.0051642247
71	0x3e21a5f6	0.15785965
72	0x3ba93937	0.0051642912
73	0x3d3533c5	0.044238824
74	0xbe03afa5	-0.12859972
75	0x3da7a5f8	0.08185953
76	0xbd08657a	-0.0332999
77	0xbe8c3480	-0.27383804
78	0x3e05a37a	0.13050643
79	0x3e21dee5	0.15807684
80	0xbe3772a4	-0.17914826
81	0xbcfb728e	-0.030694272
82	0xbe6624b5	-0.2247494
83	0x3d83484e	0.064102754
84	0xbdcbe297	-0.09955328
85	0xbe3c2799	-0.1837448
86	0x3e58990c	0.21152133
87	0x3e6013cc	0.21882552
88	0x3e192845	0.14956768
89	0x3dce872d	0.100843765
90	0xbe21ddf2	-0.15807322
91	0xbc37fe3c	-0.011230048
92	0xbe06d8c6	-0.1316863
93	0x3dd254c1	0.10270072
94	0x3e3b28db	0.18277304
95	0xbbf75deb	-0.0075490377
96	0x3b943932	0.00452342
97	0xbd914b1e	-0.070944056
98	0x3e444a0f	0.19168876
99	0x3d8896d0	0.0666939
100	0xbdc6380c	-0.09678659
101	0xbd0c9ee0	-0.034331203
102	0xbdd52b3e	-0.104086384
103	0x3c42a802	0.0118808765
104	0xbdb6a296	-0.089177296
105	0xbd781009	-0.060562167
106	0xbdec1200	-0.11526871
107	0x3df2d2f6	0.11856644
108	0xbda80034	-0.08203164
109	0x3ad457f3	0.0016200527
110	0xbd83e7ad	-0.06440673
111	0xbe0bde5e	-0.13659045
112	0xbcd5eaed	-0.026112998
113	0xbe511fad	-0.2042224
114	0x3baa81c1	0.005203456
115	0xbe20ce0c	-0.157036
116	0x3d4d305d	0.05009495
117	0x3e128a7b	0.14310639
118	0xbd87834b	-0.06616839
119	0xbc98374b	-0.018581053
120	0xbdea0156	-0.11426036
121	0xbe4eb47b	-0.20186035
122	0xbdb42897	-0.087968044
123	0x3d9e2ee2	0.07723786
124	0xbe8a4269	-0.27003792
125	0xbea71aff	-0.32637784
126	0x3e2261aa	0.15857568
127	0x3e6aec37	0.22941671
128	0x3d08460d	0.03326993
129	0xbdc8c5af	-0.0980333
130	0x3e3b9f02	0.18322375
131	0xbde03d27	-0.10949164
132	0xbd497237	-0.04918119
133	0xbe499781	-0.196867
134	0xbd72cd2d	-0.059277702
135	0x3e417a5e	0.18894336
136	0xbe2daa0a	-0.16959396
137	0xbe25a2eb	-0.1617543
138	0xbe31d0d8	-0.17364824
139	0xbe4f807c	-0.20263857
140	0xbcff58b2	-0.031170223
141	0xbe78fbd8	-0.24314821
142	0x3e0f3e19	0.13988532
143	0xbc2e1c2c	-0.010626834
144	0xbe524367	-0.20533524
145	0xbd386683	-0.045019638
146	0xbe0fcd0f	-0.14043067
147	0x3a04625c	0.0005050057
148	0x3e4302c0	0.19044018
149	0x3d8b696d	0.06807218
150	0xbe73c19f	-0.2380433
151	0x3d00a01f	0.031402703
152	0x3d974a01	0.07387162
153	0x3de372a8	0.11105853
154	0xbe1846e4	-0.14870793
155	0x3e17374a	0.14767185
156	0x3e48ba7b	0.19602387
157	0xbe367949	-0.17819704
158	0xbd1a7ef2	-0.03771872
159	0x3e60d247	0.21955214
160	0x3e374abc	0.17899603
161	0xbe65651d	-0.22401853
162	0x3e44d962	0.1922355
163	0xbcc8f8a9	-0.024532633
164	0x3e2e7365	0.17036207
165	0x3dd6a99b	0.104815684
166	0x3e6118c8	0.2198211
167	0xbe51219d	-0.20422979
168	0xbe364ced	-0.17802782
169	0x3df1f79f	0.11814808
170	0x3e3bc629	0.18337311
171	0xbd8885e2	-0.06666161
172	0x3d4c25eb	0.04984085
173	0xbe64bfee	-0.2233884
174	0xbd892cf3	-0.066980265
175	0xbccfa90a	-0.025349159
176	0x3af3f157	0.0018611354
177	0x3c89f7f1	0.01684186
178	0xbc91c83b	-0.017795673
179	0xbe2a897e	-0.16654012
180	0xbc6b9616	-0.014379045
181	0x3dfd953d	0.123819806
182	0xbc6df408	-0.014523514
183	0xbdc23ff9	-0.09484858
184	0x3e068089	0.1313497
185	0x3d6e9ea3	0.058256757
186	0x3cec8c63	0.028875535
187	0xbda03be0	-0.0782392
188	0x3c3e7e4c	0.011626791
189	0xbe3309f5	-0.17484267
190	0x3dee3c53	0.116326
191	0x3e37d563	0.17952494
192	0x3dfb3b5d	0.12267182
193	0xbd959a70	-0.07304847
194	0xbd6b197f	-0.05739736
195	0x3e8c6e50	0.27427912
196	0x3e23eb61	0.16007759
197	0x3e369efc	0.17834085
198	0x3e06ffaf	0.13183473
199	0xbe200151	-0.15625502
200	0x3e15c069	0.1462418
201	0x3db048f2	0.08607663
202	0x3c2f6b90	0.010706797
203	0x37d969fb	2.5917767e-05
204	0x3d6a6f8c	0.057235286
205	0x3d96f0b8	0.07370132
206	0xbe1c04b6	-0.15236172
207	0xbe7ba790	-0.24575639
208	0x3dc8a543	0.09797146
209	0x3cca185e	0.024669822
210	0xbc4f3512	-0.01264693
211	0x3dd04fc7	0.10171466
212	0xbc8c0507	-0.017092241
213	0xbe1f4879	-0.1555499
214	0xbe7874d5	-0.24263318
215	0x3e7baa91	0.24576785
216	0xbe00fbcd	-0.12596054
217	0xbca10a40	-0.019658208
218	0x3e415967	0.1888176
219	0xbe82c19b	-0.25538334
220	0xbe3ca0c8	-0.18420708
221	0xbe5a88d8	-0.21341264
222	0xbd6c8f48	-0.05775383
223	0x3dd474b5	0.103738226
224	0xbe440dcd	-0.1914589
225	0xbd90fa3b	-0.07078978
226	0xbd00c45f	-0.031437274
227	0x3dc86c6a	0.09786303
228	0xbe0603cd	-0.13087387
229	0xbe6e3d44	-0.23265558
230	0x3d464cd0	0.048413098
231	0x3dccb072	0.09994592
232	0xbe3635d7	-0.17793976
233	0xbe28b93b	-0.1647691
234	0x3e32739d	0.17426915
235	0xbe1fa290	-0.15589356
236	0x3e12a5dd	0.14321084
237	0x3d4e037d	0.050296295
238	0xbce7be05	-0.02828885
239	0x3e27cee5	0.16387518
240	0xbd411938	-0.04714319
241	0xbcc6abef	-0.024251906
242	0xbd6625dc	-0.05618845
243	0x3e0576ec	0.13033646
244	0x3dddb12d	0.10824809
245	0xbc1bbb4d	-0.009505105
246	0xbe2a85fe	-0.16652676
247	0x3e2fec58	0.17180002
248	0xbd9effbe	-0.07763623
249	0x3e7a4ce0	0.24443388
250	0xbe641ed2	-0.22277382
251	0x3cec76b3	0.028865194
252	0xbe559a39	-0.20859613
253	0xbdad7608	-0.08469778
254	0x3e6fff43	0.23437218
255	0x3e3c3328	0.1837889

decoder_stack.0.ffwd.net.layers.0.bias f4 [64]
0	0x3e86211a	0.2619713
1	0xbd91a937	-0.07112353
2	0x3d9e3ca8	0.07726413
3	0x3e0bb9a9	0.13645042
4	0xbe21200c	-0.15734881
5	0xbe1c6051	-0.15271117
6	0xbd50acb5	-0.050945956
7	0xbd799e4b	-0.060941976
8	0xbd1f40ac	-0.038880035
9	0xbe07f8c7	-0.13278495
10	0xbdc40ab0	-0.09572351
11	0x3da94922	0.08265902
12	0x3e763800	0.240448
13	0x3e52096d	0.20511408
14	0x3e2e3442	0.17012122
15	0x3e4d3e67	0.20043336
16	0x3e4009b7	0.18753706
17	0x3d19e13d	0.03756832
18	0x3e07615a	0.1322073
19	0xbda7305b	-0.0816352
20	0xbdce6bd9	-0.10079164
21	0xbe491dd1	-0.1964028
22	0xbd906cfb	-0.070520364
23	0x3dafcef3	0.08584394
24	0xbd913620	-0.07090402
25	0x3e5877f2	0.21139506
26	0xbd8e17c8	-0.0693813
27	0x3e17292b	0.14761798
28	0x3dd93f77	0.10607808
29	0xbde86afa	-0.11348529
30	0x3db67e30	0.08910787
31	0xbdab9607	-0.08378225
32	0xbcdd79e0	-0.027035654
33	0x3d692c10	0.056926787
34	0x3e835037	0.25647137
35	0x3daca16b	0.084292255
36	0xbdf04746	-0.11732344
37	0x3de85abc	0.11345431
38	0xbcf9e6ef	-0.030505626
39	0xbdd03fa8	-0.101683915
40	0x3d2aea61	0.041727427
41	0x3e01bff6	0.12670884
42	0x3e1c7c59	0.1528181
43	0x3e4ae0f8	0.19812381
44	0xbe43a280	-0.19104958
45	0x3d8a05e3	0.06739404
46	0xbe0b8ece	-0.13628694
47	0xbdbc4d69	-0.09194452
48	0xbe31e0c2	-0.17370895
49	0x3e32695f	0.17423008
50	0xbe29d796	-0.16586146
51	0x3e127c45	0.14305218
52	0xbdd8c60f	-0.10584652
53	0x3e7a2ea9	0.24431862
54	0x3e0cca46	0.13749036
55	0x3d820b97	0.06349867
56	0x3dc77bc7	0.097404055
57	0x3e264e87	0.16240893
58	0x3e2bbebc	0.16771978
59	0xbe327fbb	-0.17431538
60	0x3d82ab71	0.06380356
61	0x3e31c5c4	0.17360598
62	0xbdf39c3f	-0.11895036
63	0x3e490a24	0.19632775

decoder_stack.0.ffwd.net.layers.0.weight f4 [64, 16]
0	0xbe25c922	-0.16190007
1	0xbe390798	-0.18069303
2	0xbde5e0c3	-0.112245105
3	0x3e213ca2	0.15745786
4	0x3e9b7f1f	0.30370423
5	0x3e5545fa	0.20827475
6	0xbd51e465	-0.051243205
7	0x3e761175	0.24030097
8	0x3d646013	0.055755686
9	0x3e8d4fc5	0.27599922
10	0x3dd51528	0.10404426
11	0x3e8c73d9	0.27432135
12	0x3e12bd8b	0.14330117
13	0x3e82a97f	0.2551994
14	0x3e5ed881	0.21762277
15	0xbd8b38d9	-0.06797952
16	0x3c126112	0.008934276
17	0xbb18201a	-0.0023212493
18	0x3e836735	0.25664678
19	0xbdb23a2b	-0.08702501
20	0xbced9183	-0.02900005
21	0x3e03ec92	0.12883213
22	0x3dc6261e	0.09675239
23	0x3d680399	0.056644056
24	0x3dc4024a	0.09570749
25	0x3e852c0e	0.26010174
26	0xbe2a3df5	-0.16625197
27	0x3d10b4a2	0.035328515
28	0xbea53fcd	-0.3227524
29	0x3e49a551	0.1969197
30	0xbdeeed6b	-0.11666378
31	0x3e21ef06	0.15813836
32	0xbe38f81e	-0.18063399
33	0x3e5dbcbb	0.21654026
34	0x3d3666ba	0.04453156
35	0xbd1b3e1c	-0.03790103
36	0xbce807a7	-0.028323961
37	0xbe9320ce	-0.28735965
38	0x3d919caa	0.071099594
39	0xbdd3d97a	-0.10344215
40	0xbdfb7b57	-0.122793846
41	0xbdcc3035	-0.09970132
42	0x3e848e93	0.25890025
43	0xbd86b1f8	-0.065769136
44	0xbe9f1f74	-0.31078684
45	0xbe4c1c8c	-0.19932765
46	0x3ead68b2	0.3386894
47	0xbdc10c63	-0.09426191
48	0xbd7a3d46	-0.06109359
49	0xbe326782	-0.17422298
50	0x3eb46d9e	0.3523988
51	0xbdabe72d	-0.08393703
52	0xbddbd053	-0.10733094
53	0xbd829cae	-0.063775405
54	0xbd34f7b5	-0.044181544
55	0x3dd518e6	0.104051396
56	0xbd368555	-0.04456075
57	0xbe47e0f4	-0.19519407
58	0xbd109b42	-0.035304315
59	0x3e733388	0.23750126
60	0x3e8db4c1	0.27676967
61	0x3e7aaf06	0.24480829
62	0x3e590275	0.21192344
63	0x3e968c8f	0.29404113
64	0xbe888656	-0.2666499
65	0xbdd9ca68	-0.10634309
66	0x3e01f5f7	0.12691484
67	0x3d6944bc	0.056950316
68	0x3cc05d41	0.023481967
69	0xbd779951	-0.06044895
70	0xbd01abae	-0.031657867
71	0x3e017ed0	0.12646031
72	0xbc8c65e0	-0.017138422
73	0xbe00b329	-0.12568344
74	0x3e132cb3	0.1437252
75	0x3e407b9f	0.18797158
76	0xbd9c8515	-0.07642571
77	0x3e2522fd	0.16126628
78	0xbdeacd41	-0.1146493
79	0xbe0c9237	-0.13727652
80	0x3e09a7a1	0.13442852
81	0xbe25a2a6	-0.16175327
82	0x3cd23433	0.025659656
83	0xbdcc3e7d	-0.09972856
84	0x3e6199aa	0.22031274
85	0xbde898f4	-0.113572985
86	0x3d7f7f03	0.062376987
87	0xbcb391d2	-0.021920118
88	0xbe0161bc	-0.12634939
89	0xbe401da0	-0.18761301
90	0xbd9b0184	-0.075686485
91	0xbe4e8e0c	-0.20171374
92	0xbd95be9a	-0.07311745
93	0xbd21d773	-0.03951211
94	0x3c32d581	0.010915161
95	0x3e5c4909	0.21512236
96	0x3cbaf294	0.022820748
97	0xbe40e783	-0.18838315
98	0xbdcab410	-0.098976254
99	0xbe1e4bae	-0.15458557
100	0x3e9efe90	0.3105359
101	0x3d21abac	0.03947036
102	0xbe64b5d4	-0.22334987
103	0x3dbc6585	0.09199051
104	0x3cb9bb2f	0.022672264
105	0x3e90bbf4	0.28268397
106	0xbc12f837	-0.008970312
107	0xbc90dccd	-0.017683411
108	0xbdf7df78	-0.1210317
109	0xbdaee7f6	-0.08540337
110	0x3e2c5459	0.16829051
111	0x3e2e2a54	0.17008334
112	0x3d798ef4	0.060927346
113	0x3d6e9b17	0.058253374
114	0xbd856ea5	-0.065152444
115	0x3e60af44	0.21941859
116	0xbdd2a565	-0.10285453
117	0x3e8d31dd	0.27577105
118	0x3dcc99fd	0.099903084
119	0xbdca3d2f	-0.09874951
120	0xbe8baec8	-0.27281785
121	0x3e0b7069	0.136171
122	0xbdb52256	-0.0884444
123	0x3e1e635f	0.15467595
124	0x3df738c8	0.12071377
125	0xbd794155	-0.06085332
126	0xbe7ed28a	-0.24885002
127	0xbd7bfed1	-0.06152231
128	0x3d91b958	0.0711543
129	0x3e297724	0.16549355
130	0xbdd3ed37	-0.103479795
131	0x3d126f5d	0.035750736
132	0x3e79311d	0.24335141
133	0xbe2459ae	-0.16049835
134	0x3ce10f73	0.027473187
135	0xbe2550df	-0.16144131
136	0x3e145005	0.1448365
137	0xbde52f8e	-0.11190711
138	0x3e9d0759	0.30669668
139	0x3e1919c1	0.1495123
140	0xbe23003c	-0.15918058
141	0xbd224535	-0.039616782
142	0x3e1597ea	0.14608732
143	0xbe7b549a	-0.24543992
144	0x3a4a3655	0.00077137846
145	0x3e828b38	0.2549684
146	0x3e98c8ae	0.29840606
147	0x3e9630cb	0.293341
148	0xbe7d9909	-0.2476541
149	0xbdbe381e	-0.09288047
150	0x3e99c36a	0.30031902
151	0x3e2f6669	0.1712891
152	0xbd4bb621	-0.04973424
153	0xbdc93094	-0.09823719
154	0xbde508a5	-0.111832894
155	0x3dd41e7e	0.103573784
156	0xbe1917a0	-0.14950418
157	0x3e1027c9	0.14077677
158	0x3dc06c73	0.09395685
159	0xbd74dd44	-0.059781328
160	0x3e0e7a26	0.13913783
161	0x3e2b1e80	0.16710854
162	0x3ab9e6fb	0.0014183217
163	0xbdba72f4	-0.09103957
164	0xbe48608e	-0.19568083
165	0x3de79726	0.11308126
166	0x3e3863e4	0.18006855
167	0x3e3380c4	0.17529589
168	0x3d232033	0.03982563
169	0x3e8d171e	0.275567
170	0x3e89bffe	0.2690429
171	0x3c5900cd	0.01324482
172	0xbe1807fb	-0.14846794
173	0xbd7c13d6	-0.061542355
174	0xbe2a3572	-0.1662195
175	0xbe3dc83c	-0.18533415
176	0x3dedb8d7	0.11607521
177	0x3e44dd2e	0.19224998
178	0x3e346662	0.17617181
179	0x3d920a68	0.07130891
180	0xbcc1c46b	-0.02365323
181	0xbdcddd7a	-0.10052009
182	0x3e1ee525	0.15517099
183	0xbe30e22b	-0.17273776
184	0xbc3c0c81	-0.011477591
185	0x3e27c7d9	0.1638483
186	0xbe2f2194	-0.17102653
187	0xbd8d2f6e	-0.06893812
188	0x3e1f9398	0.15583646
189	0xbd239186	-0.039933704
190	0x3e3fe92f	0.18741296
191	0x3de6e3e2	0.11273934
192	0xbdd74b87	-0.105124526
193	0x3e2c1c05	0.16807564
194	0x3e2bb464	0.16768032
195	0xbc0ba7e6	-0.008523917
196	0xbe0e4aac	-0.13895673
197	0xbe08d589	-0.13362707
198	0xbe3a932d	-0.18220206
199	0x3e079b31	0.13242795
200	0xbcffdf63	-0.031234449
201	0xbe13a0c7	-0.144168
202	0x3e333144	0.17499262
203	0xbd6d4c6c	-0.05793421
204	0x3dff969b	0.124798976
205	0x3dc49b83	0.09599974
206	0xbcca5fe9	-0.024703937
207	0x3da8a40d	0.08234415
208	0xbdeb8359	-0.11499662
209	0x3e7ea3fe	0.24867246
210	0x3df8cb7c	0.121481866
211	0xbe8ae9b9	-0.2713144
212	0xbca2d979	-0.01987909
213	0x3cbdc24b	0.023163935
214	0xbe0e967f	-0.13924597
215	0x3c24c48a	0.010056624
216	0xbdb7e274	-0.089787394
217	0xbe18fccd	-0.14940186
218	0xbd8e49cf	-0.069476716
219	0xbdd56413	-0.10419478
220	0x3e64effb	0.2235717
221	0x3d852d4a	0.06502779
222	0xbe90e2eb	-0.28298125
223	0x3bb1b2f8	0.005422946
224	0x3d4ba63c	0.04971908
225	0x3e291ef9	0.16515721
226	0x3e4ac99e	0.19803473
227	0x3da457e5	0.08024577
228	0x3d66a6d3	0.05631144
229	0xbd11516c	-0.03547804
230	0xbdacdbdb	-0.084403716
231	0x3d3c9e4c	0.0460494
232	0x3dda4825	0.10658292
233	0xbdb41904	-0.08793834
234	0x3e9bb240	0.3040943
235	0xbd3379bf	-0.043817278
236	0xbe1b407e	-0.1516132
237	0xbd70c608	-0.058782607
238	0x3ce413f8	0.027841553
239	0x3dbdbd92	0.09264673
240	0x3d1c7252	0.03819496
241	0xbcc27133	-0.023735618
242	0xbc9195cd	-0.017771626
243	0x3d99a5cd	0.07502327
244	0xbe5ed399	-0.21760406
245	0x3e0cf9a4	0.13767105
246	0xbd157617	-0.036489572
247	0xbe2e2fc6	-0.17010412
248	0xbd51ceb5	-0.05122252
249	0x3d4f5c4c	0.05062513
250	0xbde0b8d5	-0.10972754
251	0xbd15d460	-0.03657949
252	0xbe36028f	-0.17774414
253	0xbd92fe06	-0.071773574
254	0x3e3bd79a	0.18343964
255	0x3dd497ac	0.103804916

decoder_stack.0.ffwd.net.layers.2.bias f4 [16]
0	0x3d020dc0	0.031751394
1	0xbde48fc0	-0.11160231
2	0xbdb4d426	-0.088295266
3	0xbde96ea4	-0.11398056
4	0x3c5a97b4	0.013341833
5	0x3cdf2da3	0.027243441
6	0xbdf2860e	-0.11841975
7	0x3d9115de	0.07084249
8	0xbd946fc4	-0.0724788
9	0xbc0124dc	-0.007882323
10	0x3dc0c9a6	0.094134614
11	0xbd931a5f	-0.07182764
12	0xbd58bb4f	-0.052913006
13	0xbd5774be	-0.05260157
14	0x3d1d23cd	0.03836422
15	0x3d13d228	0.036089092

decoder_stack.0.ffwd.net.layers.2.weight f4 [16, 64]
0	0xbd325e46	-0.043546937
1	0x3e0d1690	0.13778138
2	0xbc67b0e4	-0.014141295
3	0x3bec4c0a	0.007211213
4	0xbcfe1d70	-0.031019896
5	0x3de88e23	0.113552354
6	0x3e0e2f3d	0.13885207
7	0x3dd33b07	0.10313993
8	0xbdbe3505	-0.092874564
9	0x3e0c0fa6	0.13677844
10	0x3d273203	0.04081918
11	0xbce267a3	-0.027637308
12	0xbdfd6c12	-0.123741284
13	0x3d28c4b6	0.041203223
14	0xbd4eeaf2	-0.05051703
15	0x3d8c65f6	0.06855385
16	0xbd7ec61b	-0.062200647
17	0x3e2ed3aa	0.17072931
18	0xbe019333	-0.12653808
19	0xbb8dec62	-0.0043311575
20	0xbc478382	-0.01217735
21	0x3e2810c9	0.16412653
22	0x3d8c5600	0.06852341
23	0x3b767cb0	0.003761094
24	0xbd4d1395	-0.050067503
25	0xbab9c8f4	-0.0014174269
26	0x3dc16256	0.09442584
27	0xbd55dc14	-0.052211836
28	0xbe11e9be	-0.14249322
29	0x3d7d79ed	0.061883856
30	0x3d2811af	0.04103249
31	0x39f9b69d	0.00047629038
32	0x3d906223	0.07049968
33	0x3dc06295	0.09393803
34	0xbc952fca	-0.018211264
35	0x3c602ded	0.013682825
36	0xbe2b7b45	-0.16746242
37	0x3d90c1aa	0.070681885
38	0x3ce46c8d	0.027883792
39	0xbe11b662	-0.1422973
40	0x3c4cf144	0.012508694
41	0x3db65ba2	0.08904196
42	0x3e0f3d0b	0.1398813
43	0xbd80ebd0	-0.06294978
44	0xbdbc425c	-0.091923445
45	0xbdbb8e26	-0.09157972
46	0x3dfa6924	0.12227085
47	0xbde9f2f1	-0.114232905
48	0xbc533d03	-0.012892964
49	0x3d9ce7e5	0.07661418
50	0xbd363e1d	-0.04449283
51	0x3c301a0b	0.010748397
52	0x3d8deeb2	0.06930293
53	0x3c4a8bfa	0.012362475
54	0x3d964934	0.07338181
55	0x3e14a993	0.14517812
56	0x3c5817ce	0.013189269
57	0xbd98771b	-0.074445926
58	0xbce8f750	-0.02843824
59	0xbcaeaae3	-0.02132172
60	0x3c420f28	0.011844434
61	0xbd040318	-0.032229513
62	0xbd01433b	-0.031558257
63	0xbdd61f3d	-0.10455177
64	0xbdceb650	-0.10093367
65	0xbcf93edb	-0.03042548
66	0x3d8a5ac4	0.067555934
67	0x3d52a023	0.05142225
68	0x3e00986c	0.12558144
69	0x3d2ef710	0.042716086
70	0xbe233bd7	-0.15940796
71	0xbd9e2e2f	-0.077236526
72	0xbdbb7e62	-0.09154965
73	0x3de171dc	0.11008045
74	0xbc079978	-0.008276336
75	0xbda94630	-0.0826534
76	0x3d2f98af	0.04287022
77	0x3d1b4d61	0.03791559
78	0x3d31b1e9	0.04338256
79	0x3d0626ba	0.032751776
80	0xbdbcf538	-0.09226459
81	0xbd9e1006	-0.077179
82	0x3dceb13f	0.10092401
83	0x3cb2c0f8	0.02182053
84	0x3d27aa0c	0.040933654
85	0xbdcf43c5	-0.10120348
86	0x3d94c5fe	0.072643265
87	0xbe251a4e	-0.16123316
88	0x3ca17ed0	0.01971379
89	0xbbf6adcc	-0.0075280424
90	0x3dbde5b8	0.09272331
91	0x3e184f7c	0.14874071
92	0xbdaa1a4a	-0.083057955
93	0xbdd2b614	-0.10288635
94	0x3d44a1cf	0.048005875
95	0xbcc51716	-0.02405886
96	0xbdc422c3	-0.09576943
97	0x3d65727a	0.056017376
98	0xbde2756b	-0.11057552
99	0x3c7428b9	0.014902287
100	0x3923bd1f	0.00015615344
101	0x3d541b22	0.05178369
102	0x3e19df33	0.1502655
103	0xbd969938	-0.07353443
104	0x3dcacc06	0.09902196
105	0xbd547b87	-0.051875617
106	0xbe22e80a	-0.15908828
107	0xbd880e08	-0.06643301
108	0x3d80b98e	0.06285392
109	0xbb036fbc	-0.0020055613
110	0x3c23f250	0.010006502
111	0x3debbc3d	0.11510513
112	0x3ca7972c	0.020457827
113	0xbd87a7eb	-0.06623825
114	0xbe0a88a4	-0.13528687
115	0x3db54cda	0.08852549
116	0x3cde2a72	0.027119849
117	0xbe2ce54c	-0.16884345
118	0xbce47acc	-0.027890585
119	0x3cd3d1ef	0.02585694
120	0x3d130cc0	0.03590083
121	0xbc3daa12	-0.011576192
122	0x3d8532bb	0.06503817
123	0x3c8860a7	0.01664765
124	0x3d84e182	0.06488325
125	0x3dd8fd0b	0.10595139
126	0xbdd81897	-0.10551565
127	0x3d8dd00e	0.06924449
128	0xbe02eab0	-0.12784839
129	0x3d9bdb75	0.076102175
130	0xbd41033f	-0.047122236
131	0x3d333b86	0.043757938
132	0xbc032bdb	-0.008006061
133	0x3d22e3f3	0.03976817
134	0xbde85fac	-0.11346373
135	0x3e01be71	0.12670304
136	0xbe0169ab	-0.12637965
137	0x3debe102	0.11517526
138	0x3dffe284	0.12494376
139	0xbb968091	-0.004592963
140	0xbd8a9ed0	-0.06768572
141	0xbbf42504	-0.0074507017
142	0xbd818957	-0.063250236
143	0x3dc1bdee	0.09460054
144	0xbcf05d90	-0.02934149
145	0x3e10a59e	0.14125678
146	0x3d326feb	0.043563765
147	0xbdda92ca	-0.10672529
148	0x3dbdf44d	0.09275112
149	0xbd81d52a	-0.06339486
150	0xbb4f9eea	-0.0031680414
151	0xbd9a6c4f	-0.075401895
152	0x3d8ab271	0.06772316
153	0x3d4ca553	0.049962353
154	0x3db3ad35	0.08773271
155	0xbbd52146	-0.0065042106
156	0xbd7bf9f6	-0.06151768
157	0x3db2e580	0.0873518
158	0xbd26e94e	-0.04074984
159	0x3d8f307c	0.069916695
160	0xbd0f5354	-0.034991577
161	0x3c972a2a	0.018452723
162	0xbe0a0ebc	-0.13482183
163	0xb982cccc	-0.00024948118
164	0xbcac2f78	-0.021018729
165	0xbc9b651a	-0.018969107
166	0xbc37e680	-0.011224389
167	0x3d5bf85d	0.053703655
168	0x3d86e186	0.06585984
169	0xbdc6efad	-0.09713683
170	0xbdfbb1a5	-0.122897424
171	0x3e1f397c	0.15549272
172	0x3d687853	0.056755375
173	0xbceaa645	-0.028643737
174	0x3e032767	0.12808
175	0x3d7b69e7	0.061380293
176	0xbe055536	-0.13020787
177	0x3d591f52	0.053008385
178	0x3e2be977	0.16788279
179	0xbcabde6a	-0.020980079
180	0xbcebd864	-0.028789707
181	0xbdd3d8cf	-0.10344087
182	0x3db5680a	0.088577345
183	0x3d111a97	0.03542575
184	0xbde28325	-0.1106017
185	0xbd937312	-0.07199682
186	0xbe17a351	-0.14808394
187	0x3e0f88e3	0.14017062
188	0x3e1a4404	0.15065008
189	0xbbc2fe05	-0.0059506916
190	0x3baa16a1	0.005190686
191	0x3d42c89a	0.04755459
192	0x3de8e410	0.113716245
193	0xbd02699d	-0.031839002
194	0xbcfc88b4	-0.030826904
195	0x3baead51	0.0053307195
196	0x3e17d04e	0.14825556
197	0xbca0fbb3	-0.01965127
198	0x3da7c460	0.081917524
199	0x3d1d1229	0.038347397
200	0xbda0b5ff	-0.07847213
201	0xbe2cd3ac	-0.16877621
202	0xbe567ff9	-0.20947255
203	0xbe2af183	-0.16693692
204	0xbdad8a4e	-0.08473645
205	0x3e162378	0.14661968
206	0x3d1b5ebe	0.03793215
207	0xbcce1425	-0.02515609
208	0xbd913df4	-0.07091895
209	0xbda20779	-0.079115815
210	0x3dd1298b	0.10213002
211	0x3d6e606e	0.05819743
212	0x3da9323f	0.08261537
213	0x3ceb2ed0	0.028708845
214	0x3dd8f4cd	0.10593567
215	0x3b4a37c0	0.0030855983
216	0xbd6d9407	-0.058002498
217	0x3dbe85d7	0.09302872
218	0xbe0cb331	-0.13740231
219	0xbdae06ff	-0.08497428
220	0x3d262ec9	0.04057196
221	0xbd423a0f	-0.04741865
222	0x3c2b8271	0.010468111
223	0x3cc94786	0.024570238
224	0xbde9413f	-0.11389398
225	0x3d0fa1d8	0.035066456
226	0x3cced3fb	0.025247565
227	0x3c7f6cd2	0.01558991
228	0xbcfd5182	-0.030922655
229	0xbc58185c	-0.0131894015
230	0x3e2dfd77	0.1699122
231	0xbd875ba7	-0.06609278
232	0x3d9a5797	0.07536238
233	0x3c85e932	0.016346548
234	0xbd63e99b	-0.055642705
235	0x3dadc420	0.084846735
236	0x3cb88cc8	0.022528067
237	0x3dcf3395	0.1011726
238	0xbdc2d88a	-0.09513958
239	0xbd71c956	-0.0590299
240	0xbc3a1e24	-0.011359725
241	0x3be9a9b5	0.0071308264
242	0x3cce0e22	0.025153223
243	0x3d5edc65	0.054409403
244	0x3d68f899	0.056877706
245	0x3dbf8c1f	0.09352898
246	0xbe17d443	-0.14827065
247	0xbe21883a	-0.15774623
248	0xbdb41b95	-0.08794323
249	0xbd944214	-0.07239166
250	0xbe017c8b	-0.12645166
251	0xbcf5437b	-0.029939404
252	0xbd08c909	-0.033394847
253	0x3da8dd08	0.08245283
254	0x3bd5fb75	0.00653022
255	0x3d226467	0.039646532

decoder_stack.0.ln1.bias f4 [16]
0	0xbbe2bb19	-0.0069192764
1	0x3c6db5bd	0.014508662
2	0xbbc5897b	-0.006028352
3	0x3b55ea6a	0.0032640942
4	0x3c45087c	0.012025949
5	0x3c2e70f1	0.0106470445
6	0xbd2bbd2e	-0.041928463
7	0x3d64b466	0.055836104
8	0x3b9afab1	0.004729592
9	0x3b831e9d	0.004001452
10	0xbca758f2	-0.020428155
11	0xbc2d00fb	-0.010559316
12	0x3cbd9500	0.023142338
13	0xbb4d13f5	-0.0031292413
14	0x3ca14987	0.01968838
15	0xbcc9efec	-0.024650536

decoder_stack.0.ln1.weight f4 [16]
0	0x3f6bbbc4	0.9208338
1	0x3f76c57a	0.96395075
2	0x3f7fbf5b	0.9990136
3	0x3f7ad335	0.97978526
4	0x3f7e2e8e	0.99289787
5	0x3f85e0fe	1.0459287
6	0x3f744905	0.9542392
7	0x3f800e1a	1.0004303
8	0x3f7e2f0f	0.99290556
9	0x3f80809f	1.0039252
10	0x3f67bc22	0.9052144
11	0x3f7afd3d	0.9804266
12	0x3f6f4147	0.9345898
13	0x3f7e0376	0.9922403
14	0x3f81f8cb	1.015405
15	0x3f794288	0.97367144

decoder_stack.0.ln2.bias f4 [16]
0	0x3c734752	0.014848547
1	0x3c16dd9f	0.009208112
2	0xbcebc3f4	-0.028779961
3	0xbcab1fc3	-0.020889169
4	0x3c0933c6	0.00837416
5	0x3be2a99b	0.006917191
6	0xbd44d34a	-0.048053063
7	0x396de5dc	0.0002268771
8	0x3c08203b	0.008308466
9	0x3cbee3a9	0.023301916
10	0x3cba3af8	0.022733197
11	0xbb49ea79	-0.0030809923
12	0x3c992d83	0.01869846
13	0x3bca658f	0.0061766575
14	0x3c6f1d18	0.014594339
15	0x3c17b1e2	0.009258719

decoder_stack.0.ln2.weight f4 [16]
0	0x3f7c7a7a	0.98624384
1	0x3f817181	1.0112764
2	0x3f832a8d	1.024736
3	0x3f842ea8	1.0326738
4	0x3f6234e8	0.8836198
5	0x3f871220	1.0552406
6	0x3f6a48da	0.9151741
7	0x3f7dab75	0.9908975
8	0x3f7ee1ea	0.9956347
9	0x3f7b4fd5	0.9816869
10	0x3f899db7	1.0751256
11	0x3f676707	0.9039158
12	0x3f833c9d	1.0252873
13	0x3f746dfd	0.9548033
14	0x3f75252b	0.9575984
15	0x3f7eeab9	0.9957691

decoder_stack.0.ln3.bias f4 [16]
0	0xbd2494b0	-0.040180862
1	0x3d2e348c	0.04253058
2	0xbce8a2fc	-0.02839803
3	0x3b9620df	0.0045815553
4	0x3a9a8a71	0.0011790526
5	0xbd1c4e73	-0.038160753
6	0x3ca3e9da	0.02000897
7	0x3d05f4f8	0.032704324
8	0xbc850488	-0.016237512
9	0x3c2a04b5	0.010377099
10	0x3d2a184b	0.041527074
11	0xbc7c26aa	-0.015390078
12	0xbd10b318	-0.035327047
13	0x3bb79461	0.005602405
14	0xbce656f4	-0.028117634
15	0xbc5c822a	-0.013458768

decoder_stack.0.ln3.weight f4 [16]
0	0x3f899352	1.0748084
1	0x3f8d9965	1.1062437
2	0x3f89d1ef	1.0767192
3	0x3f8b8ac1	1.0901719
4	0x3f8dd28f	1.1079882
5	0x3f89a16e	1.075239
6	0x3f840566	1.0314147
7	0x3f8b1a45	1.0867392
8	0x3f7b7c28	0.9823632
9	0x3f91e17a	1.1396935
10	0x3f7bf734	0.9842408
11	0x3f5e29c1	0.8678246
12	0x3f894820	1.0725136
13	0x3f789759	0.9710594
14	0x3f75c5ad	0.96004754
15	0x3f6cc8a1	0.92493635

decoder_stack.0.sa.heads.0.key.weight f4 [4, 16]
0	0x3e2001bf	0.15625666
1	0x3c1309fd	0.008974549
2	0xbe35a199	-0.17737426
3	0x3e71f83b	0.23629849
4	0x3dc50211	0.09619535
5	0xbd3cd5b0	-0.046102226
6	0x3e0f1901	0.13974382
7	0xbe8c5099	-0.2740524
8	0x3e0d2950	0.1378529
9	0xbcd6c74e	-0.026218083
10	0x3de84367	0.11340981
11	0x3e1b6e44	0.15178782
12	0x3d3d4b44	0.046214357
13	0x3e4bc6cf	0.19900058
14	0xbe441ec4	-0.19152361
15	0xbe09411d	-0.13403745
16	0x3e177ebf	0.14794444
17	0xbbd7c179	-0.006584343
18	0x3e7ecd57	0.24883018
19	0x3d354f53	0.044265103
20	0xbe45b875	-0.19308646
21	0xbe546ec2	-0.20745376
22	0x3e3ca7b8	0.18423355
23	0xbdc9aaa3	-0.098469995
24	0xbe82fc9b	-0.25583348
25	0xbdb54240	-0.08850527
26	0x3c8ce8dc	0.01720088
27	0xbd8b13e3	-0.067909025
28	0xbe68559f	-0.22688912
29	0xbe399321	-0.18122531
30	0xbe4d6c02	-0.20060733
31	0x3d71bc10	0.05901724
32	0x3c1020d1	0.008796887
33	0x3e87ba40	0.26509285
34	0xbe3061fa	-0.17224875
35	0xbd03cead	-0.032179523
36	0xbd15dac3	-0.03658558
37	0xbe6edb3e	-0.23325822
38	0xbdc261f1	-0.09491337
39	0xbdc5c65a	-0.09656973
40	0xbcf34445	-0.02969564
41	0xbe87890c	-0.26471746
42	0x3e64aafc	0.2233085
43	0xbd3c27c4	-0.04593636
44	0xbdfb0f39	-0.12258763
45	0xbd157617	-0.036489572
46	0x3d441bbe	0.04787802
47	0xbe7b6daf	-0.2455356
48	0xbe4be2f2	-0.19910792
49	0x3c9f4d29	0.019445973
50	0x3dc7a159	0.097475715
51	0xbdd3577c	-0.10319421
52	0xbe38b5a4	-0.1803804
53	0x3e5b7a8f	0.21433471
54	0xbb5ba282	-0.003351361
55	0x3ca50393	0.020143306
56	0x3e0d3a81	0.13791849
57	0x3d2f2f68	0.04276982
58	0xbe818922	-0.25299937
59	0xbd437e00	-0.047727585
60	0x3e779e8f	0.24181579
61	0xbe7147c1	-0.23562528
62	0xbe122852	-0.14273193
63	0x3e2cd090	0.16876435

decoder_stack.0.sa.heads.0.query.weight f4 [4, 16]
0	0xbb617b7a	-0.0034405873
1	0x3ea5c99c	0.32380378
2	0xbd8cdd93	-0.068781994
3	0x3e52d11f	0.20587586
4	0xbcefac4a	-0.029256959
5	0xbe69a8cd	-0.22818299
6	0xbe8b66c6	-0.27226847
7	0xbe86afdd	-0.26306048
8	0xbdf205e0	-0.11817527
9	0xbe037ade	-0.12839839
10	0x3e136780	0.14394951
11	0xbddaa65f	-0.10676264
12	0xbe04cc48	-0.12968552
13	0x3ed9af66	0.4251663
14	0xbca856ca	-0.020549197
15	0x3c9374b5	0.017999986
16	0xbccd0306	-0.025025856
17	0xbdd8a64b	-0.10578593
18	0xbe94e940	-0.29084206
19	0x3e409270	0.18805861
20	0x3e953de2	0.29148775
21	0xbe6d2465	-0.23158415
22	0xbe6d4a78	-0.23172939
23	0x3db600db	0.08886882
24	0xbd923297	-0.071385555
25	0xbe2451eb	-0.16046874
26	0x3e1ff0bb	0.15619175
27	0xbd815df3	-0.063167475
28	0x3adb0543	0.0016709942
29	0x3cc934ab	0.024561247
30	0xbd0632a9	-0.032763157
31	0xbd093d45	-0.033505697
32	0xbdee1fd5	-0.11627165
33	0x3e775fd8	0.24157655
34	0xbe0b1928	-0.13583815
35	0x3c046733	0.008081245
36	0xbdac27bf	-0.084060185
37	0xbe4e19c4	-0.20127016
38	0x3e1fc174	0.1560114
39	0xbe4e599e	-0.20151374
40	0xbe770d93	-0.24126272
41	0xbe84664a	-0.2585929
42	0xbe275455	-0.16340764
43	0xbdea4d6d	-0.11440549
44	0xbc721554	-0.014775593
45	0x3c940f9e	0.018073853
46	0x3d675d54	0.05648549
47	0xbd2d7dda	-0.04235635
48	0xbdedb421	-0.116066225
49	0xbdb5e747	-0.08882003
50	0x3de00537	0.10938495
51	0xbd8caaf7	-0.068685465
52	0xbe7bbc76	-0.24583611
53	0x3e9e80b0	0.30957556
54	0x3dad0061	0.08447338
55	0x3e786340	0.24256611
56	0x3e81fab6	0.2538659
57	0xbdaac1c6	-0.083377406
58	0x3cfd3e05	0.030913362
59	0xbe7bbe11	-0.24584223
60	0xbdd0096f	-0.10158049
61	0xbe2b5bcb	-0.16734235
62	0xbe791d38	-0.24327552
63	0x3dbac0d6	0.09118812

decoder_stack.0.sa.heads.0.value.weight f4 [4, 16]
0	0xbdad794b	-0.084704004
1	0xbe5fb2f2	-0.21845606
2	0x3e18939d	0.1490006
3	0xbd95e74b	-0.07319506
4	0x3d9d7369	0.07688028
5	0xbdb4ac35	-0.088219084
6	0xbc4d3162	-0.012523981
7	0xbda508d2	-0.08058323
8	0xbe61abb6	-0.22038159
9	0x3e370561	0.17873146
10	0x3c5cb687	0.013471252
11	0x3c136d8f	0.008998289
12	0x3e020b01	0.1269951
13	0xbe0ed1f1	-0.13947274
14	0x3c49fa7d	0.0123277875
15	0xbe3247f0	-0.17410254
16	0xbd543d96	-0.051816545
17	0x3dd1b179	0.10238928
18	0x3e073cdf	0.13206814
19	0xbe00069b	-0.1250252
20	0x3e40570e	0.18783209
21	0xbc362967	-0.0111182695
22	0xbdf91c2a	-0.12163575
23	0xbb442246	-0.0029927655
24	0x3e895cb2	0.26828533
25	0x3e290042	0.16504005
26	0xbe440d04	-0.1914559
27	0xbdde433d	-0.108526684
28	0xbde33aa7	-0.110951714
29	0x3db27db8	0.08715385
30	0xbe4e0f55	-0.20123036
31	0x3e099cd3	0.1343873
32	0x3e26f886	0.16305742
33	0x3cde1cd8	0.027113363
34	0xbc9b5d26	-0.018965315
35	0xbe131876	-0.143648
36	0xbe472ad8	-0.19449937
37	0xbdce5257	-0.10074299
38	0xbdbdb12f	-0.09262311
39	0xbdbb4fb9	-0.09146065
40	0xbd7b018b	-0.06128077
41	0xbe2d7a17	-0.16941105
42	0xbde6b468	-0.112648785
43	0xbe04166b	-0.12899177
44	0x3d5aefa4	0.053451195
45	0xbd6e9635	-0.058248717
46	0x3e104e90	0.14092469
47	0xbe42a824	-0.19009453
48	0xbe201a0f	-0.1563494
49	0x3dee64c9	0.11640317
50	0xbe434b2d	-0.19071646
51	0xbc3387e3	-0.010957691
52	0xbe4f3c03	-0.20237736
53	0xbe5ed17b	-0.21759598
54	0x3d73e4e6	0.059544466
55	0xbe3944c2	-0.18092635
56	0x3cb4f435	0.022089103
57	0xbe72d3cc	-0.23713607
58	0x3dbf57b2	0.093428984
59	0xbdb4774a	-0.08811815
60	0xbe64f327	-0.2235838
61	0x3e2c4963	0.1682487
62	0xbdca4777	-0.09876912
63	0x3e00869e	0.12551352
